train/model_weights_opt_mac.pth (torch, 136285 bytes, 24 tensors)

linear_relu_stack.0.weight f4 [128, 2]
-0.62755436 -0.37889123 -0.7606438 0.6088584 -0.4778997 -0.1740755 0.1615572 0.03800392
-0.19143689 0.451055 0.09370196 0.07122862 -0.65087944 0.047235012 -0.2157825 0.31231815
0.4274081 -0.97073126 1.021879 -0.26054594 0.15905333 -0.29675022 0.3407848 0.33099794
0.24170989 0.10842919 0.16869444 -0.009862721 0.6661304 0.76917803 -0.63010234 -1.0897622
-0.3797065 -0.7016027 0.30938277 0.34380794 0.4764754 -0.6751736 -0.7810102 0.5092968
0.3893572 0.6099814 -0.18003705 -0.96615356 0.21029218 0.8531285 0.38632435 -1.1386596
0.64132637 0.57823414 -0.10014712 0.40520507 -0.40192515 -0.13735849 0.70415956 -0.7238873
-0.5949029 0.15704566 -0.43477967 0.114233166 0.18982904 -0.25908425 0.39072555 -0.18593943
-0.7572806 -0.051294286 0.0631039 1.0064994 0.008799076 -0.03109914 0.051557243 0.47835726
-0.10172993 0.5467897 -0.3709575 0.9880076 -0.4153277 0.43313935 0.40214235 -0.6174802
0.06384052 -0.75416553 0.45196232 0.6156696 -0.54945385 0.3532692 -0.44235688 -0.5012706
-0.008148216 0.6220735 -0.6620887 -0.27610013 0.7314341 0.2328924 0.3284142 0.6585749
0.114886045 0.20019203 -0.5233717 -0.6269341 0.1783718 0.5677446 -0.15694019 -0.29710296
0.69587725 -0.1744191 -0.8076642 -0.9427715 -0.50011086 0.29639235 -0.1117809 -0.050389864
-0.19722772 -0.68254524 0.094915494 0.5357037 0.20836812 0.018705547 0.1041105 -0.25301185
0.7127654 -0.3731139 0.041341603 -0.09234524 -0.57313466 -1.159688 0.31949657 0.61977893
-0.7258279 0.79677445 0.57817465 0.3543585 -0.6676903 1.0201353 -0.49092904 -0.17717586
0.7239453 -0.6809254 -0.36381677 0.58265054 0.8872576 -0.1348506 0.85727257 -0.64569783
0.7569861 -0.5408068 -0.5352481 0.29544848 0.5657177 -0.370489 0.8550919 -0.122270174
-0.7803838 0.22025006 -0.4195383 -0.5362046 0.44006723 0.34673685 -0.03198868 0.0007838607
0.2662283 -0.1814219 0.2624963 0.45552367 -0.7064646 -0.3055928 -0.53474563 -0.633936
-0.16702038 -0.66898626 0.061056636 -0.29205647 0.143055 -0.3600754 -0.6446689 0.08438386
-0.60255605 0.64712685 -0.038603842 -0.68183625 -0.44353944 -0.24821812 -0.40560752 0.4352718
0.6249557 -0.6181827 -0.814575 -0.29524887 0.54387856 0.78110176 0.29237986 -0.23322412
0.31774393 -0.7657681 -0.16525526 0.9399261 -0.15953551 -0.7957247 0.689167 -0.72032726
-0.44401258 -0.46585712 0.27441263 -0.23924151 -0.115193486 -0.5152043 0.09025729 -0.14113688
-0.36133924 0.5706015 0.38645583 -0.2349654 -0.83910716 -0.75070465 -0.7849343 -0.12480587
-0.5292698 0.05515331 -0.33996195 -0.5498974 0.7607535 -0.38867727 -0.67905736 0.6172037
0.4844031 0.670163 0.47431502 0.99440247 -1.1359214 0.07850178 0.24624014 -0.05625896
0.25607604 -0.3663436 -0.8106477 0.19740288 -0.51708853 -0.4925452 -0.7106278 0.20928888
-0.6603482 0.3411352 0.27284765 0.5443153 0.49439925 0.61794 -0.072541356 -0.023398578
-0.43846053 -0.018299935 -0.25016773 -0.6808365 -0.58418936 0.006961465 0.6674313 0.3665587
00000000: 67a7 20bf 08fe c1be 8db9 42bf 25de 1b3f
00000010: 45af f4be d940 32be 406f 253e 00aa 1b3d
00000020: 0808 44be aef0 e63e d0e6 bf3d 50e0 913d
00000030: 09a0 26bf 8079 413d 16f6 5cbe 2ae8 9f3e
00000040: 3cd5 da3e d881 78bf eecc 823f 4766 85be
00000050: e0de 223e a5ef 97be 587b ae3e 9078 a93e
00000060: cc82 773e 2010 de3d 3cbe 2c3e 4097 21bc
00000070: 8687 2a3f dae8 443f 634e 21bf 547d 8bbf
00000080: e468 c2be 3c9c 33bf 6b67 9e3e 9807 b03e
00000090: 95f4 f33e 2dd8 2cbf 49f0 47bf 4661 023f
000000a0: d459 c73e be27 1c3f a25b 38be d755 77bf
000000b0: d556 573e a166 5a3f 4ecc c53e 99bf 91bf
000000c0: f72d 243f 2707 143f ef19 cdbd 0a77 cf3e
000000d0: 22c9 cdbe b4a7 0cbe cd43 343f ae50 39bf
000000e0: 8e4b 18bf 94d0 203e 719b debe 14f3 e93d
000000f0: 8b62 423e b1a6 84be 2e0d c83e e866 3ebe
00000100: 24dd 41bf f519 52bd 9e3c 813d f9d4 803f
00000110: 002a 103c a0c3 febc b02d 533d 3eeb f43e
00000120: c857 d0bd 69fa 0b3f 24ee bdbe 11ee 7c3f
00000130: d5a5 d4be 71c4 dd3e 9ae5 cd3e 2f13 1ebf
00000140: d2be 823d fe10 41bf 9b67 e73e 869c 1d3f
00000150: 02a9 0cbf b3df b43e 9a7c e2be 4553 00bf
00000160: 1880 05bc 3540 1f3f a57e 29bf ff5c 8dbe
00000170: 443f 3b3f 587b 6e3e e825 a83e 5d98 283f
00000180: 6049 eb3d 24ff 4c3e b0fb 05bf c17e 20bf
00000190: 19a7 363e b657 113f eeb4 20be e11d 98be
000001a0: 0325 323f ec9a 32be 15c3 4ebf 7959 71bf
000001b0: 4407 00bf bdc0 973e 62ed e4bd 9a65 4ebd
000001c0: 10f6 49be 49bb 2ebf 0e63 c23d e123 093f
000001d0: 745e 553e 603c 993c e337 d53d c58a 81be
000001e0: cb77 363f c908 bfbe d055 293d 801f bdbd
000001f0: f4b8 12bf a870 94bf 0e95 a33e d5a9 1e3f
00000200: dbcf 39bf 69f9 4b3f 4103 143f 7a6e b53e
00000210: c0ed 2abf cb93 823f 0d5b fbbe 976d 35be
00000220: 7b54 393f 2151 2ebf 3146 babe 9628 153f
00000230: 5023 633f 4716 0abe 3776 5b3f 744c 25bf
00000240: d7c9 413f 5072 0abf 0506 09bf 0645 973e
00000250: e0d2 103f bcb0 bdbe 4ee7 5a3f c968 fabd
00000260: 3cc7 47bf 3b89 613e b9cd d6be b444 09bf
00000270: 7e50 e13e 7e87 b13e 9006 03bd 007c 4d3a
00000280: 134f 883e aac6 39be ea65 863e 663a e93e
00000290: ddda 34bf a976 9cbe 17e5 08bf a149 22bf
000002a0: 6407 2bbe af42 2bbf 8616 7a3d 6d88 95be
000002b0: 037d 123e ce5b b8be 0509 25bf 72d1 ac3d
000002c0: 1d41 1abf 1baa 253f 101f 1ebd d28c 2ebf
000002d0: 9a17 e3be e42c 7ebe caab cfbe f2db de3e
000002e0: 19fd 1f3f 3941 1ebf fd87 50bf dc2a 97be
000002f0: a03b 0b3f 49f6 473f d0b2 953e 4ed2 6ebe
00000300: 55af a23e 6109 44bf ad38 29be ff9e 703f
00000310: 475d 23be 9db4 4bbf 406d 303f 5e67 38bf
00000320: 9e55 e3be d384 eebe d07f 8c3e bafb 74be
00000330: 90ea ebbd 6ee4 03bf d0d8 b83d 3086 10be
00000340: 7501 b9be f112 123f 8add c53e c59a 70be
00000350: bacf 56bf 2e2e 40bf 74f1 48bf 389a ffbd
00000360: 3a7e 07bf 70e8 613d 7e0f aebe 13c6 0cbf
00000370: bec0 423f b500 c7be b4d6 2dbf 1001 1e3f
00000380: af03 f83e cd8f 2b3f 6bd9 f23e 2991 7e3f
00000390: df65 91bf 8bc5 a03d 6026 7c3e cc6f 66bd
000003a0: 661c 833e 6391 bbbe 9c86 4fbf fb23 4a3e
000003b0: ea5f 04bf e22e fcbe b4eb 35bf d34f 563e
000003c0: 940c 29bf 46a9 ae3e b0b2 8b3e 3f58 0b3f
000003d0: e621 fd3e 5131 1e3f 9090 94bd 60ae bfbc
000003e0: e67d e0be bfe9 95bc fc15 80be 4d4b 2ebf
000003f0: 6f8d 15bf 001d e43b c7dc 2a3f 95ad bb3e

linear_relu_stack.0.bias f4 [128]
0.5982642 0.042069506 0.03975708 -0.5623067 -0.27766165 -0.58618057 0.413417 -0.44008195
-0.018239148 0.0014895562 -0.48319912 0.7104493 -0.44303444 -0.5290314 0.051384438 5.724708e-06
-0.18543237 0.6982664 -0.015960328 0.68994457 0.42629048 0.64366615 0.25375932 0.01882276
-0.66035426 0.43669873 -0.5307205 0.120916426 -0.4566188 0.511731 0.18412386 -0.6336298
0.68170196 7.586812e-05 -0.16284841 -0.39444804 -0.5495702 0.2673008 0.023812832 -0.5418292
0.33047828 -0.03529296 0.17064798 -0.62170166 -0.15424219 -0.52304685 0.66896313 0.28410253
-0.19473994 0.4676615 -0.024333902 0.3705675 -0.537094 0.009630734 0.031564757 0.18228917
-0.46848026 -0.15118955 -0.5722915 0.6720455 0.59640867 -0.5839572 7.455652e-05 -0.26693556
0.008706336 0.41029924 0.298321 0.081869945 0.0016811443 -0.01122375 0.00090243574 0.6058741
-0.31867793 0.32915837 -0.09332232 0.13475133 0.12119747 0.16375 -0.37859452 -0.514713
0.5004644 0.6640263 -0.23616058 -0.053084947 0.34187847 0.35349545 0.57395285 0.70120883
-0.5613738 -0.46297252 -0.2761212 0.5592121 0.46706468 0.5176417 0.058472242 -0.63268167
0.5015297 -0.046927694 0.31055057 0.21269256 -0.413183 -0.4543073 -0.42068648 -0.1931032
-0.4518099 -0.18859904 0.14455307 -0.005814488 -0.44020393 -0.28378075 0.55306983 0.42160308
-0.037233524 0.18439803 -0.0009200859 0.45728797 -0.10665556 0.7118916 -0.60137665 0.5574481
0.68761253 -0.35891557 -0.66997945 -0.07650173 0.22904688 -0.19764285 -0.30187562 -0.17125458
00000000: d827 193f 1351 2c3d 52d8 223d 55f3 0fbf
00000010: ab29 8ebe ee0f 16bf 65ab d33e 6c52 e1be
00000020: 446a 95bc 363d c33a e065 f7be 01e0 353f
00000030: 69d5 e2be 9a6e 07bf 7d78 523d de16 c036
00000040: fce1 3dbe 96c1 323f 3cbf 82bc 35a0 303f
00000050: bf42 da3e 4ec7 243f beec 813e 3032 9a3c
00000060: fa0c 29bf fa96 df3e 4cdd 07bf 08a3 f73d
00000070: f0c9 e9be ce00 033f f78a 3c3e 9035 22bf
00000080: 0584 2e3f 631b 9f38 bcc1 26be 18f5 c9be
00000090: a2b0 0cbf a7db 883e 2113 c33c 52b5 0abf
000000a0: 7334 a93e 5a8f 10bd 58be 2e3e d727 1fbf
000000b0: aaf1 1dbe 66e6 05bf 2b41 2b3f e375 913e
000000c0: e869 47be 5471 ef3e e457 c7bc 06bb bd3e
000000d0: fe7e 09bf 3aca 1d3c 0c4a 013d 03aa 3a3e
000000e0: a5dc efbe 6fd1 1abe b281 12bf 2d0b 2c3f
000000f0: 3dae 183f 387e 15bf 3a5b 9c38 c7ab 88be
00000100: 05a5 0e3c be12 d23e 88bd 983e 6eab a73d
00000110: d859 dc3a d2e3 37bc 7091 6c3a 911a 1b3f
00000120: c129 a3be 7287 a83e c61f bfbd 41fc 093e
00000130: 6136 f83d 14ae 273e 24d7 c1be 3bc4 03bf
00000140: 6f1e 003f a1fd 293f 14d4 71be 9a6f 59bd
00000150: b20a af3e 5bfd b43e 93ee 123f 6c82 333f
00000160: 31b6 0fbf bc0a edbe c25f 8dbe 8628 0f3f
00000170: 1a23 ef3e 2b84 043f 9780 6f3d 6df7 21bf
00000180: 4064 003f 4137 40bd 7c00 9f3e 14cc 593e
00000190: b98c d3be f79a e8be 3864 d7be d8bc 45be
000001a0: a153 e7be 1b20 41be b805 143e 7687 bebb
000001b0: 6962 e1be b64b 91be fc95 0d3f 5cdc d73e
000001c0: 2e82 18bd d6d2 3c3e eb31 71ba a621 ea3e
000001d0: 3b6e dabd 873e 363f d2f3 19bf ebb4 0e3f
000001e0: 6007 303f c8c3 b7be c683 2bbf f0ac 9cbd
000001f0: 448b 6a3e e362 4abe 718f 9abe 5c5d 2fbe

linear_relu_stack.2.weight f4 [64, 128]
-0.04990873 -0.051819995 0.03246599 0.046274535 -0.07708232 -0.06676755 -0.08215106 0.035968617
-0.027270954 0.02131637 -0.019151412 -0.075157166 0.030210853 0.0847652 -0.02041967 -0.029622644
-0.02482406 -0.02867187 0.047874197 0.06225899 0.058027223 0.057069957 0.056513857 0.059166808
0.007888481 0.06947645 0.0043391734 -0.03515704 0.04112021 -0.0023672034 -0.08425864 0.06028398
-0.052201863 -0.01009901 -0.027862154 -0.027830575 0.014114715 -0.04267298 0.03460993 0.010825828
0.075310566 0.00153521 0.008784352 -0.087502345 0.000106031584 -0.049544062 0.06806671 0.07208733
0.009395964 -0.027243253 -0.03793023 0.07873023 -0.04932536 -0.006022396 0.08501126 0.026475415
0.055632792 -0.055688895 0.085416414 0.004737928 0.0073656654 0.08790902 0.013289741 0.01753794
0.06457246 -0.020524096 0.077327 0.071868815 0.06657673 -0.08341104 -0.0014686629 -0.008359527
-0.0915211 -0.010272815 -0.04819968 -0.0057727695 0.0221563 -0.029597703 -0.005366452 0.042618312
0.011911566 0.03531894 0.0019705445 0.05324126 -0.09088498 0.030646479 -0.034040198 0.048681844
0.07878303 -0.018573217 0.05614794 -0.059835393 -0.0056508095 -0.08443658 -0.0012828058 0.070232786
-0.046284057 -0.041432247 0.042419497 -0.03817371 -0.03313419 -0.07711222 -0.02628269 -0.038417958
0.034555085 0.012055593 -0.07116644 0.0694818 0.058509685 -0.024979867 0.06584829 0.038377352
0.032939307 -0.089199096 0.08610256 -0.021785555 0.07296425 -0.057776604 -0.005448565 0.01786433
-0.07803111 0.065067016 0.02713959 -0.049296595 0.076957725 -0.07483252 -0.06194964 0.027768789
0.06603942 -0.018974394 0.02703531 0.014702328 0.026749812 -0.035810113 -0.034658782 -0.06709725
-0.043938555 -0.04825068 0.07063959 0.009740689 -0.041745998 -0.06616585 0.03643126 0.16829184
0.018917784 -0.026481314 0.04857582 0.05290773 0.019685453 0.05000919 -0.0342316 -0.09200873
0.03894601 -0.009928048 -0.029175974 -0.00856945 -0.011970706 -0.09027902 0.065022595 0.035673052
-0.07019129 0.33508912 -0.078395076 -0.009779692 -0.071867995 -0.053632867 -0.07616453 0.07579119
-0.047886085 -0.12855352 -0.029880915 -0.06505149 0.09816127 -0.0643377 0.0608072 -0.083700135
0.07780398 0.060771696 -0.27815118 0.0050108954 0.034063473 -0.095703185 -0.013438169 0.065661155
0.068849824 -0.07460942 -0.052219335 0.097995326 0.076482594 -0.020557843 0.23039472 0.073897265
-0.03209922 0.0739352 -0.072543316 -0.08332154 -0.041775357 -0.2784913 -0.22563612 0.0042386036
0.056542043 -0.085763745 0.0655065 0.099267244 0.0008227737 0.062367544 0.021183513 -0.005674675
0.09159875 -0.065951206 0.12331331 -0.009494295 0.064411454 0.032615118 0.020285428 -0.025254432
0.04573538 0.06868633 -0.07548929 -0.03581775 0.097205386 -0.017994508 0.03225831 -0.07606418
0.082455456 -0.47342435 0.08235696 -0.031056425 -0.017219178 -0.028810836 -0.08838354 0.038877152
-0.06414217 0.20641924 0.023552733 0.10456575 0.042842157 0.11959854 0.069314405 -0.06377002
-0.14537784 -0.06087947 -0.65042776 -0.048759513 0.057213556 -0.09989419 0.07465597 0.04331337
-0.08228453 -0.08148025 0.08215415 0.05428452 -0.11548684 0.045776695 -0.066181615 0.051543895
00000000: 196d 4cbd 3441 54bd 0ffb 043d 5e8a 3d3d
00000010: 56dd 9dbd 6dbd 88bd d13e a8bd d453 133d
00000020: 5667 dfbc ab9f ae3c 6ce3 9cbc 00ec 99bd
00000030: c07c f73c 6199 ad3d 2747 a7bc 30ab f2bc
00000040: d45b cbbc 45e1 eabc bc17 443d 4803 7f3d
00000050: f4ad 6d3d 30c2 693d 137b 673d e558 723d
00000060: b03e 013c ab49 8e3d a02f 8e3b d400 10bd
00000070: aa6d 283d 1523 1bbb cb8f acbd 56ec 763d
00000080: 9fd1 55bd 5176 25bc 2c3f e4bc f2fc e3bc
00000090: 6841 673c ddc9 2ebd 24c3 0d3d d05e 313c
000000a0: 6d3c 9a3d 1939 c93a 3eec 0f3c 6e34 b3bd
000000b0: 465d de38 b7ee 4abd 8f66 8b3d 86a2 933d
000000c0: 88f1 193c 3e2d dfbc bb5c 1bbd 513d a13d
000000d0: 6409 4abd 8557 c5bb 621a ae3d f8e2 d83c
000000e0: 36df 633d 0a1a 64bd cdee ae3d 9f40 9b3b
000000f0: ae5b f13b a509 b43d 37bd 593c baab 8f3c
00000100: 913e 843d 2622 a8bc 9e5d 9e3d f52f 933d
00000110: 6159 883d 68d3 aabd 2680 c0ba 66f6 08bc
00000120: 6a6f bbbd 4f4f 28bc 076d 45bd 8029 bdbb
00000130: 2181 b53c e276 f2bc 10d9 afbb 8a90 2e3d
00000140: bb28 433c 98aa 103d 4024 013b 8213 5a3d
00000150: e821 babd 530e fb3c bc6d 0bbd 9d66 473d
00000160: ff58 a13d dc26 98bc 62fb 653d f515 75bd
00000170: 6d2a b9bb 16ed acbd d223 a8ba 35d6 8f3d
00000180: 5a94 3dbd dcb4 29bd 11c0 2d3d 095c 1cbd
00000190: b7b7 07bd 03ed 9dbd cc4e d7bc 265c 1dbd
000001a0: a289 0d3d d284 453c b6bf 91bd 794c 8e3d
000001b0: daa7 6f3d 94a2 ccbc 78db 863d 9231 1d3d
000001c0: 5eeb 063d 04ae b6bd 8a56 b03d 9f77 b2bc
000001d0: 486e 953d 29a7 6cbd e089 b2bb 3758 923c
000001e0: c6ce 9fbd db41 853d d853 de3c 3aeb 49bd
000001f0: 039c 9d3d cb41 99bd e8be 7dbd 5f7b e33c
00000200: ad3f 873d 3070 9bbc 2879 dd3c 08e2 703c
00000210: 6c22 db3c a0ad 12bd 5ef6 0dbd 486a 89bd
00000220: eaf8 33bd 81a2 45bd 7dab 903d 6997 1f3c
00000230: dafd 2abd f681 87bd f238 153d b254 2c3e
00000240: 78f9 9a3c 57ef d8bc 70f7 463d c7b5 583d
00000250: 6343 a13c 70d6 4c3d 6f36 0cbd 136f bcbd
00000260: da85 1f3d 40a9 22bc 7402 efbc e166 0cbc
00000270: c820 44bc 35e4 b8bd 912a 853d e81d 123d
00000280: 73c0 8fbd cd90 ab3e 998d a0bd 003b 20bc
00000290: 872f 93bd 23ae 5bbd 26fc 9bbd 6938 9b3d
000002a0: 3324 44bd 89a3 03be d2c8 f4bc b739 85bd
000002b0: c708 c93d 7cc3 83bd f810 793d fa6a abbd
000002c0: b157 9f3d beeb 783d d569 8ebe 7032 a43b
000002d0: 2486 0b3d 0800 c4bd c42b 5cbc 5b79 863d
000002e0: 2301 8d3d d3cc 98bd f1e3 55bd c6b1 c83d
000002f0: e8a2 9c3d ec68 a8bc 98ec 6b3e 7357 973d
00000300: 797a 03bd 576b 973d 9791 94bd 7ca4 aabd
00000310: a31c 2bbd 6996 8ebe 280d 67be fce3 8a3b
00000320: a198 673d e7a4 afbd 4628 863d a04c cb3d
00000330: 69af 573a 1c75 7f3d 0c89 ad3c a0f2 b9bb
00000340: 2098 bb3d 6d11 87bd b08b fc3d f68d 1bbc
00000350: 27ea 833d 6e97 053d a02d a63c 62e2 cebc
00000360: 0655 3b3d 6bab 8c3d 219a 9abd a2b5 12bd
00000370: 9e13 c73d 3869 93bc 4a21 043d 89c7 9bbd
00000380: 68de a83d ad64 f2be c4aa a83d 0b6a febc
00000390: 3c0f 8dbc b404 ecbc 6e02 b5bd a63d 1f3d
000003a0: f85c 83bd 915f 533e a9f1 c03c 9126 d63d
000003b0: 427b 2f3d 14f0 f43d b6f4 8d3d db99 82bd
000003c0: eedd 14be c05c 79bd 6f82 26bf 0eb8 47bd
000003d0: c358 6a3d 5395 ccbd 3be5 983d 5c69 313d
000003e0: cb84 a8bd 1edf a6bd 6f40 a83d 7259 5e3d
000003f0: 5d84 ecbd 5880 3b3d 3a8a 87bd b11f 533d

linear_relu_stack.2.bias f4 [64]
-0.08580711 -0.004857757 -0.0104878675 0.05010637 -0.044390526 -0.0050416365 -0.060275692 0.024141833
-0.05253251 -0.059685767 -0.051233657 -0.080957375 0.08770484 0.08061585 0.07350308 0.043516405
0.0969877 -0.05419672 0.091575965 0.003311659 -0.06418256 -0.07266856 -0.0016842857 0.08349701
0.080983005 -0.0043891934 -0.007086822 0.015006476 0.09358609 0.02586399 0.049743526 -0.07188751
-0.0025684175 -0.028365603 -0.026207648 0.08127413 0.012150696 -0.063937336 -0.06634108 0.018824816
-0.05813501 -0.06168857 0.033548236 -0.08426085 -0.066211194 0.032240465 0.051453523 -0.058377743
0.044165764 -0.04371444 -0.061853267 -0.058572255 -0.019665569 -0.003325696 -0.012724303 0.05498414
0.08050477 0.06774043 -0.05282012 -0.049684662 -0.026851136 -0.015928112 0.052116275 0.015447299
00000000: a3bb afbd d22d 9fbb 4ed5 2bbc 563c 4d3d
00000010: d7d2 35bd 5034 a5bb a5e3 76bd 18c5 c53c
00000020: 542c 57bd 1079 74bd 62da 51bd fbcc a5bd
00000030: 989e b33d ec19 a53d c888 963d 423e 323d
00000040: 7da1 c63d 61fd 5dbd 2e8c bb3d 6b08 593b
00000050: 2572 83bd 41d3 94bd 40c3 dcba 7b00 ab3d
00000060: 6bda a53d 39d3 8fbb 9238 e8bb b9dd 753c
00000070: 10aa bf3d b8e0 d33c debf 4b3d c239 93bd
00000080: e552 28bb fb5e e8bc 6cb1 d6bc 0d73 a63d
00000090: b613 473c 94f1 82bd d5dd 87bd 8036 9a3c
000000a0: fa1e 6ebd 27ad 7cbd e069 093d f490 acbd
000000b0: bc99 87bd 940e 043d eec0 523d 801d 6fbd
000000c0: 29e7 343d ea0d 33bd da59 7dbd 76e9 6fbd
000000d0: b019 a1bc ecf3 59bb 9879 50bc 0d37 613d
000000e0: afdf a43d 7fbb 8a3d e959 58bd 2582 4bbd
000000f0: eaf6 dbbc ac7b 82bc e077 553d ab16 7d3c

linear_relu_stack.4.weight f4 [32, 64]
0.08961484 0.028167514 -0.10041517 0.10451977 0.1072751 0.007191211 -0.06869273 0.040693704
0.06736593 0.08782168 -0.021376774 0.028921202 0.05147353 0.051739644 0.07964387 0.0246142
-0.11718961 -0.088562936 -0.11351992 0.023200924 -0.08955437 -0.11256847 -0.025761858 0.083404705
0.021973522 0.1133282 0.12257223 -0.06557477 0.038730543 -0.039953295 -0.025809169 -0.044095963
0.09205909 0.08615784 0.008734301 -0.05521616 -0.028194692 0.04202643 0.07405464 -0.103561416
0.110282585 0.09072554 0.10170595 0.080268756 0.08570632 -0.061079156 0.08325682 0.08305016
-0.09373969 -0.055220723 -0.047300458 -0.010383338 -0.036915973 0.057553753 0.09693967 -0.0268652
0.06942649 -0.042746723 0.09904202 0.061790377 -0.118198276 0.02044004 0.11375609 -0.10523435
-0.097009785 -0.17816727 0.09744933 0.08035399 -0.12263718 -0.069172025 0.11301163 -0.2808851
0.005734384 0.088115714 0.09331162 0.07479487 -0.09886665 0.15723205 -0.058388162 -0.14646386
0.12227872 0.1517526 -0.040337186 0.103348136 0.04826878 0.04916891 -0.11674866 0.04858984
0.15240714 0.09185229 -0.16376542 -0.083681434 -0.013843526 -0.5321541 0.10091926 -0.10740228
-0.099479616 0.11635104 0.035120934 -0.1428637 -0.076348834 -0.015493959 -0.03765942 -0.07280895
-0.11812365 0.1408844 -0.09200579 0.07801877 0.09934317 0.083837174 0.1248236 -0.33881792
-0.08062861 -0.01330613 -0.097699605 0.031847525 -0.021173 -0.026138775 0.04993248 -0.0759354
0.08609414 0.0042446703 -0.11835666 0.077979535 -0.012237892 -0.09808693 -0.070210926 -0.15308511
-0.04245022 0.08231563 -0.23864985 0.0702392 0.03256218 0.08827673 0.122677386 0.017725123
-0.036746006 -0.15588668 -0.10836914 -0.09909885 0.069888055 0.04534825 -0.040160157 -0.10143243
0.0259355 -0.09580711 0.1022665 -0.07937097 0.062229186 -0.13610959 -0.10097538 -0.081258416
-0.032119658 -0.20233414 -0.01972123 -0.03178113 0.011920747 0.09264719 -0.092843235 -0.094270244
0.008584055 -0.0928231 -0.015145004 -0.019592319 0.033904415 -0.034768656 -0.040802687 -0.039272264
0.04182957 0.1726307 -0.11940348 -0.033183843 -0.0044220714 -0.0010681374 -0.18295582 0.26582506
0.07398785 0.05094085 0.105042 -0.07626906 -0.087050706 0.22071178 0.120780334 -0.18968287
-0.042469427 -0.045538887 0.15825097 0.022583947 0.14962453 0.105001554 0.103171796 0.25319648
0.061027754 0.031244984 -0.05742454 0.035143986 0.062044576 -0.0032075495 -0.046089977 0.0804891
0.049531277 -0.15760534 -0.023185804 -0.07135272 0.08136151 0.118941694 0.083570436 -0.031934652
-0.07305152 -0.038545843 0.034563344 0.041666254 0.046936423 -0.03604185 0.094963506 -0.047515556
-0.010211141 0.045990642 0.17727594 -0.009054893 -0.068901636 -0.17260858 -0.110688776 -0.09906906
0.18164174 0.037611816 -0.10473071 0.22131379 0.0637029 -0.05895053 0.050713345 0.10732591
0.019940823 -0.04600856 0.018247336 -0.09345648 -0.08740018 0.068857074 -0.17448553 0.36639556
0.010921287 0.00023378141 0.11325291 -0.13398209 -0.10859674 0.19647396 -0.05851406 -0.020127274
0.088682845 -0.11565924 -0.0618783 -0.074600846 -0.0037339854 -0.026363166 0.13670121 0.11017218
00000000: fc87 b73d 8fbf e63c 78a6 cdbd 760e d63d
00000010: 0cb3 db3d 40a4 eb3b c6ae 8cbd 71ae 263d
00000020: 26f7 893d dadb b33d 581e afbc 28ec ec3c
00000030: e8d5 523d f3ec 533d 531c a33d b8a3 c93c
00000040: 1b01 f0bd 7c60 b5bd 227d e8bd dd0f be3c
00000050: 4868 b7bd 4c8a e6bd 880a d3bc 16d0 aa3d
00000060: d101 b43c 9e18 e83d 2607 fb3d 114c 86bd
00000070: eba3 1e3d 11a6 23bd c06d d3bc f89d 34bd
00000080: 7a89 bc3d 8673 b03d 501a 0f3c 572a 62bd
00000090: 8ef8 e6bc e823 2c3d f6a9 973d 0218 d4bd
000000a0: d6db e13d 50ce b93d 364b d03d f263 a43d
000000b0: cc86 af3d 232e 7abd 8d82 aa3d 3416 aa3d
000000c0: 98fa bfbd 202f 62bd 20be 41bd e01e 2abc
000000d0: 3435 17bd 7cbd 6b3d 4e88 c63d 6814 dcbc
000000e0: 7a2f 8e3d 3017 2fbd 8bd6 ca3d e817 7d3d
000000f0: f011 f2bd df71 a73c f4f8 e83d 1b85 d7bd
00000100: 11ad c6bd 7b71 36be 8493 c73d a290 a43d
00000110: 3429 fbbd 10aa 8dbd a472 e73d 2cd0 8fbe
00000120: 80e7 bb3b 0376 b43d 2a1a bf3d 0e2e 993d
00000130: 997a cabd 7001 213e 6d28 6fbd 9ffa 15be
00000140: 446d fa3d 0965 1b3e 9b38 25bd 30a8 d33d
00000150: 7cb5 453d 5765 493d ec19 efbd 2406 473d
00000160: 9e10 1c3e 0e1d bc3d 1fb2 27be 2c61 abbd
00000170: f5cf 62bc 403b 08bf c2ae ce3d baf5 dbbd
00000180: f8bb cbbd 7449 ee3d f8da 0f3d dd4a 12be
00000190: c75c 9cbd 60da 7dbc c440 1abd dc1c 95bd
000001a0: d0ea f1bd 0044 103e 886d bcbd 4ec8 9f3d
000001b0: 6f74 cb3d d3b2 ab3d 84a3 ff3d 8b79 adbe
000001c0: 9d20 a5bd f401 5abc bb16 c8bd 8d72 023d
000001d0: 0073 adbc fc20 d6bc 0086 4c3d 0584 9bbd
000001e0: 2052 b03d e016 8b3b fa64 f2bd bcb3 9f3d
000001f0: 7081 48bc cde1 c8bd bfca 8fbd 58c2 1cbe
00000200: 48e0 2dbd 1995 a83d a060 74be 92d9 8f3d
00000210: ec5f 053d 6eca b43d 483e fb3d 4734 913c
00000220: fb82 16bd c2a0 1fbe a4f0 ddbd 56f4 cabd
00000230: 7821 8f3d 16bf 393d fa7e 24bd cebb cfbd
00000240: b076 d43c 8536 c4bd 1971 d13d 3f8d a2bd
00000250: 08e4 7e3d 5060 0bbe 2ecc cebd d06a a6bd
00000260: e78f 03bd ae30 4fbe 6b8e a1bc ee2c 02bd
00000270: 3d4f 433c cfbd bd3d 9824 bebd c210 c1bd
00000280: 23a4 0c3c 0a1a bebd c022 78bc 1280 a0bc
00000290: 5bdf 0a3d 9469 0ebd b820 27bd f4db 20bd
000002a0: 7c55 2b3d 1ac6 303e d089 f4bd c8eb 07bd
000002b0: 06e7 90bb be00 8cba c558 3bbe 391a 883e
000002c0: f186 973d 5aa7 503d 4320 d73d f432 9cbd
000002d0: a447 b2bd 4502 623e ae5b f73d 3a3c 42be
000002e0: 6cf4 2dbd fc86 3abd 8b0c 223e f801 b93c
000002f0: 2c37 193e 0e0b d73d bc4b d33d f8a2 813e
00000300: 3df8 793d 7bf5 ff3c ff35 6bbd 24f3 0f3d
00000310: 7422 7e3d c035 52bb d8c8 3cbd 78d7 a43d
00000320: 4fe1 4a3d 4b63 21be 28f0 bdbc 6021 92bd
00000330: dda0 a63d b497 f33d fa26 ab3d e9cd 02bd
00000340: 099c 95bd 3fe2 1dbd 4b92 0d3d 3caa 2a3d
00000350: 6840 403d 9ea0 13bd 3a7c c23d ac9f 42bd
00000360: a14c 27bc af60 3c3d d387 353e f95a 14bc
00000370: 4d1c 8dbd 4ec0 30be ccb0 e2bd b8e4 cabd
00000380: 4b00 3a3e d90e 1a3d 0e7d d6bd 15a0 623e
00000390: ab76 823d 1c76 71bd ccb8 4f3d b0cd db3d
000003a0: f05a a33c 7973 3cbd 707b 953c 1c66 bfbd
000003b0: defe b2bd f004 8d3d 56ac 32be 3398 bb3e
000003c0: 33ef 323c 3823 7539 24f1 e73d 9a32 09be
000003d0: f867 debd 7830 493e 70ac 6fbd f4e1 a4bc
000003e0: 5a9f b53d c0de ecbd 1a74 7dbd 54c8 98bd
000003f0: e1b5 74bb 91f7 d7bc 67fb 0b3e f4a1 e13d

linear_relu_stack.4.bias f4 [32]
-0.10376379 -0.09943043 0.004490245 0.06304677 -0.04180972 -3.56673e-05 -0.11753672 -0.046220314
0.06049714 0.0045784255 0.095636494 -0.00687664 0.08666524 -0.007599818 -0.1024124 0.06025482
-0.10986923 0.06725136 0.13014457 -0.086569324 0.056660943 0.0059742043 -0.051954653 -0.034440927
-0.088707216 -0.016796801 0.09597924 0.07110407 0.07564161 0.105027 0.061203443 0.07727714
00000000: 1c82 d4bd 2ea2 cbbd e822 933b aa1e 813d
00000010: ab40 2bbd 7999 15b8 18b7 f0bd 8351 3dbd
00000020: d9cb 773d 9e06 963b 11dd c33d 7055 e1bb
00000030: 8c7d b13d e507 f9bb 98bd d1bd c2cd 763d
00000040: 1e03 e1bd 15bb 893d 9e44 053e 424b b1bd
00000050: 4e15 683d 42c3 c33b 67ce 54bd ee11 0dbd
00000060: 21ac b5bd 7299 89bc c490 c43d 039f 913d
00000070: fde9 9a3d 6518 d73d 76b0 7a3d 7a43 9e3d

linear_relu_stack.6.weight f4 [2, 32]
0.039703652 0.40201372 -0.192573 -0.11731482 -0.14637999 0.81928754 0.0026148707 -0.2682091
0.38380584 -0.16709365 0.38924715 -0.1736491 0.51757234 -0.29083624 -0.03776469 -0.20482646
0.17267324 0.17020027 -0.06867458 -0.2553129 0.016698014 -0.13248828 0.29683006 0.18037267
-0.24025689 0.10047883 -0.22771566 0.27618435 0.17713611 0.3661178 0.18162808 0.26330423
0.010648026 0.36507446 0.042335972 -0.21689409 -0.24170741 0.29942015 0.007586479 -0.023020761
0.2789733 -0.03013081 0.026381772 -0.05833222 0.111567974 -0.0857321 0.0035595626 -0.13695139
-0.054858945 0.0007998603 -0.06739306 -0.032447785 -0.17557551 -0.49749187 -0.24655423 0.38246
0.23057573 -0.15942405 0.07600904 -0.169469 0.19000447 0.42905903 0.24253082 0.10528531
00000000: 4ca0 223d bed4 cd3e db31 45be c142 f0bd
00000010: a3e4 15be d4bc 513f 405e 2b3b b452 89be
00000020: 3382 c43e 991a 2bbe 674b c73e 12d1 31be
00000030: 9f7f 043f 7de8 94be 26af 1abd 07be 51be
00000040: 41d1 303e fb48 2e3e 42a5 8cbd 5fb8 82be
00000050: 46ca 883c 02ab 07be 1cfa 973e 9db3 383e
00000060: e705 76be d8c7 cd3d 4b2e 69be 0968 8d3e
00000070: 2b63 353e cb73 bb3e b6fc 393e d0cf 863e
00000080: 0f75 2e3c 0aeb ba3e 7c68 2d3d 7c19 5ebe
00000090: 2682 77be 994d 993e 0098 f83b 0996 bcbc
000000a0: 97d5 8e3e e3d4 f6bc 961e d83c c4ed 6ebd
000000b0: c07d e43d 5094 afbd 8d47 693b fc3c 0cbe
000000c0: c6b3 60bd b7ad 513a 5f05 8abd f8e7 04bd
000000d0: 11ca 33be 41b7 febe b678 7cbe ccd1 c33e
000000e0: 0b1c 6c3e 0f40 23be a1aa 9b3d 4889 2dbe
000000f0: 8890 423e a0ad db3e 005a 783e d39f d73d

linear_relu_stack.6.bias f4 [2]
-0.056920014 0.12270998
00000000: f624 69bd 5f4f fb3d

exp_avg f4 [128, 2]
9.252208e-07 -2.7401056e-06 -3.2947594e-06 5.488241e-06 1.8452538e-06 8.121883e-07 0.0 0.0
0.0 0.0 0.0 0.0 3.6446281e-06 1.1228076e-06 0.0 0.0
-2.5324056e-05 1.1602152e-05 3.0538908e-05 2.985574e-05 0.0 0.0 -4.397751e-06 -4.4424455e-06
0.0 0.0 0.0 0.0 -1.2171609e-05 -3.0606516e-06 -6.596207e-05 6.0463513e-05
9.931507e-07 3.4782948e-07 4.1420326e-06 -2.0615862e-06 -2.9889712e-05 2.182068e-06 1.7426886e-05 -1.5540566e-06
-2.009512e-07 6.9558325e-07 3.3185238e-06 -2.3838584e-06 -1.2067978e-05 4.2274232e-06 2.293652e-06 2.2195763e-07
0.0 0.0 4.361022e-06 5.194167e-08 0.0 0.0 -1.9590634e-06 -6.7302744e-06
0.0 0.0 2.187171e-06 3.2350306e-06 -1.35588125e-05 -3.891728e-09 0.0 0.0
-1.4654174e-05 7.4555355e-06 -0.00012354863 -1.1525268e-05 0.0 0.0 0.0 0.0
0.0 0.0 4.0985856e-06 -6.356563e-07 -8.138448e-06 7.631192e-06 0.0 0.0
-3.1603654e-06 -3.6581184e-07 2.152552e-05 5.8791857e-06 1.0737518e-05 1.5711362e-06 0.0 0.0
5.8693536e-07 -1.239714e-07 0.0 0.0 -2.081014e-06 -7.6911743e-07 8.655366e-06 -1.7682748e-06
0.0 0.0 -5.401959e-06 1.1784504e-06 5.7188103e-05 -4.3755153e-07 6.0772313e-06 -1.6139861e-06
0.0 0.0 2.7392627e-05 -1.2935922e-05 -6.650241e-06 3.659692e-06 5.006701e-06 -3.6605556e-06
0.0 0.0 6.2248466e-07 -1.987415e-06 0.0 0.0 -4.947042e-07 -3.5742307e-06
-6.242565e-06 -3.552172e-06 0.0 0.0 4.4429267e-05 4.0300438e-07 1.2658528e-06 2.5665854e-06
-9.722203e-06 5.285311e-06 -6.176515e-06 -4.5034164e-07 1.417315e-06 5.3546437e-06 1.0361219e-05 -5.5351484e-06
2.0902495e-05 4.8171205e-06 1.1389861e-05 3.27797e-07 3.8662514e-05 3.7398935e-05 -3.5082758e-06 -3.1895052e-06
5.130204e-06 4.0241625e-07 6.048911e-06 -3.0584e-07 -1.5483258e-06 -4.821045e-07 -7.580702e-06 -5.853285e-06
9.433127e-06 -2.29423e-07 -4.749265e-06 2.5414981e-06 0.0 0.0 0.0 0.0
2.4304761e-06 4.973236e-06 -6.7304118e-06 -3.0989802e-06 -4.1328312e-06 -2.3298592e-06 -3.6105912e-06 -2.3059565e-06
-7.722171e-06 -2.3610128e-06 7.917143e-06 -2.9200617e-06 1.6977003e-05 -3.5102455e-06 2.576729e-06 3.7193638e-06
0.0 0.0 0.0 0.0 0.0 0.0 3.0732251e-06 3.0434562e-06
-2.8421723e-06 -4.3762157e-07 -6.2393265e-06 5.8073674e-06 -9.2794e-06 -3.1841764e-06 0.0 0.0
7.745095e-06 3.8345547e-08 4.219594e-05 8.3868945e-06 5.420282e-06 -2.7549015e-06 -6.633044e-07 -1.2074457e-06
0.0 0.0 0.0 0.0 0.0 0.0 0.0 0.0
0.0 0.0 5.722984e-06 2.0501376e-07 1.5811943e-06 1.358537e-06 -5.391261e-06 9.4914185e-06
0.0 0.0 -1.2727276e-07 -2.0302689e-07 -8.3899395e-06 -3.0296992e-06 8.163379e-07 2.4242736e-06
2.6376398e-05 8.583052e-06 -1.1295963e-05 9.731709e-07 2.3492394e-05 -6.8421105e-05 1.5011883e-06 -4.808501e-06
1.3027931e-05 -4.4747057e-06 5.7763846e-06 5.933861e-06 0.0 0.0 6.4037213e-06 3.2374692e-06
7.657559e-08 4.0795417e-06 0.0 0.0 0.0 0.0 0.0 0.0
3.280239e-06 3.4127038e-06 3.9665298e-07 6.661567e-07 0.0 0.0 1.6564649e-05 4.071535e-06
00000000: b05c 7835 a8e2 37b6 891b 5db6 a227 b836
00000010: 70aa f735 2805 5a35 0000 0000 0000 0000
00000020: 0000 0000 0000 0000 0000 0000 0000 0000
00000030: 3c96 7436 60b3 9635 0000 0000 0000 0000
00000040: ff6e d4b7 dda6 4237 e716 0038 b772 fa37
00000050: 0000 0000 0000 0000 6590 93b6 5110 95b6
00000060: 0000 0000 0000 0000 0000 0000 0000 0000
00000070: aa34 4cb7 9865 4db6 1e55 8ab8 349a 7d38
00000080: 664c 8535 52bd ba34 cafb 8a36 c859 0ab6
00000090: abbb fab7 a56f 1236 f42f 9237 fa94 d0b5
000000a0: 0cc5 57b4 1eb8 3a35 ceb3 5e36 60fa 1fb6
000000b0: 9277 4ab7 4ad9 8d36 a4ec 1936 4053 6e34
000000c0: 0000 0000 0000 0000 e554 9236 7816 5f33
000000d0: 0000 0000 0000 0000 7478 03b6 9ed4 e1b6
000000e0: 0000 0000 0000 0000 50c7 1236 6719 5936
000000f0: a87a 63b7 00b8 85b1 0000 0000 0000 0000
00000100: 33db 75b7 902a fa36 d58c 01b9 a65c 41b7
00000110: 0000 0000 0000 0000 0000 0000 0000 0000
00000120: 0000 0000 0000 0000 9586 8936 f8a1 2ab5
00000130: 5e8a 08b7 b807 0037 0000 0000 0000 0000
00000140: aa16 54b6 cc64 c4b4 b491 b437 d245 c536
00000150: 4a25 3437 d4df d235 0000 0000 0000 0000
00000160: e48d 1d35 001d 05b4 0000 0000 0000 0000
00000170: 8ca7 0bb6 5975 4eb5 8436 1137 7655 edb5
00000180: 0000 0000 0000 0000 7942 b5b6 3f2b 9e35
00000190: 42dd 6f38 a0e8 eab4 05eb cb36 24a0 d8b5
000001a0: 0000 0000 0000 0000 38c9 e537 5d07 59b7
000001b0: 2325 dfb6 0899 7536 3cff a736 dea7 75b6
000001c0: 0000 0000 0000 0000 d218 2735 885f 05b6
000001d0: 0000 0000 0000 0000 d0cb 04b5 d1dc 6fb6
000001e0: 3a77 d1b6 da61 6eb6 0000 0000 0000 0000
000001f0: 9059 3a38 805c d834 5fe6 a935 9a3d 2c36
00000200: 8b1c 23b7 7a58 b136 dc3f cfb6 7cc6 f1b4
00000210: 933a be35 0aac b336 19d5 2d37 90ba b9b6
00000220: c457 af37 c0a2 a136 1517 3f37 14fc af34
00000230: 8f29 2238 cddc 1c38 b86f 6bb6 480b 56b6
00000240: 1e24 ac36 ab0b d834 c0f7 ca36 5432 a4b4
00000250: 12d0 cfb5 f869 01b5 bc5d feb6 5667 c4b6
00000260: f942 1e37 5057 76b4 e05b 9fb6 9b8e 2a36
00000270: 0000 0000 0000 0000 0000 0000 0000 0000
00000280: 431b 2336 c6df a636 ccd5 e1b6 13f8 4fb6
00000290: c0ac 8ab6 ad5a 1cb6 7c4d 72b6 08c0 1ab6
000002a0: 798e 01b7 e471 1eb6 dfd3 0437 47f6 43b6
000002b0: d669 8e37 8f91 6bb6 deeb 2c36 2f9a 7936
000002c0: 0000 0000 0000 0000 0000 0000 0000 0000
000002d0: 0000 0000 0000 0000 9b3d 4e36 2e3e 4c36
000002e0: 26bc 3eb6 40f2 eab4 685b d1b6 e8dc c236
000002f0: b8ae 1bb7 bcaf 55b6 0000 0000 0000 0000
00000300: eef0 0137 60b1 2433 8cfb 3038 70b5 0c37
00000310: dedf b536 d9e0 38b6 ee0d 32b5 850f a2b5
00000320: 0000 0000 0000 0000 0000 0000 0000 0000
00000330: 0000 0000 0000 0000 0000 0000 0000 0000
00000340: 0000 0000 0000 0000 0f08 c036 c121 5c34
00000350: 6c39 d435 fa56 b635 94e6 b4b6 553d 1f37
00000360: 0000 0000 0000 0000 78a8 08b4 9bff 59b4
00000370: 84c2 0cb7 d651 4bb6 5022 5b35 b4b0 2236
00000380: e242 dd37 edff 0f37 cb83 3db7 e69d 8235
00000390: 8811 c537 4d7d 8fb8 707c c935 b658 a1b6
000003a0: 8a92 5a37 6e25 96b6 c4d2 c136 7a1b c736
000003b0: 0000 0000 0000 0000 8cdf d636 4c43 5936
000003c0: e071 a433 ffe2 8836 0000 0000 0000 0000
000003d0: 0000 0000 0000 0000 0000 0000 0000 0000
000003e0: 1422 5c36 ce05 6536 92f3 d434 f1d1 3235
000003f0: 0000 0000 0000 0000 50f4 8a37 389e 8836

exp_avg_sq f4 [128, 2]
3.3799777e-10 2.780705e-10 7.2451284e-10 3.6223682e-10 1.6000848e-10 1.4387262e-10 0.0 0.0
0.0 0.0 0.0 0.0 1.9926095e-10 1.156893e-10 0.0 0.0
1.4968853e-09 8.7156726e-10 5.510173e-09 4.641273e-09 0.0 0.0 2.6993005e-10 1.9838779e-10
0.0 0.0 0.0 0.0 2.9720132e-10 4.5059606e-10 2.6623326e-08 1.0704136e-08
1.5840612e-11 1.8429125e-11 1.829116e-10 1.2334779e-10 1.0973622e-09 7.445699e-10 7.0896944e-10 7.3130507e-10
1.1727208e-10 5.627033e-11 1.8430998e-10 1.6020091e-10 3.7780967e-10 3.0421732e-10 2.1163808e-09 1.4510372e-09
0.0 0.0 4.4240563e-11 3.5829593e-11 0.0 0.0 1.184963e-09 4.0529477e-10
0.0 0.0 1.6223733e-10 9.683716e-11 1.1657731e-09 8.528125e-10 0.0 0.0
4.247387e-10 7.878146e-10 2.1162228e-08 2.6610799e-08 0.0 0.0 0.0 0.0
0.0 0.0 3.8539047e-10 1.1021374e-10 9.788881e-10 8.1713514e-10 0.0 0.0
1.8558155e-10 5.9753556e-11 3.550165e-09 8.496948e-09 3.4053735e-10 3.9415785e-10 0.0 0.0
7.372837e-12 8.192076e-11 0.0 0.0 2.104637e-10 1.1070719e-10 1.6978458e-10 3.3498346e-10
0.0 0.0 8.927265e-11 1.2011935e-10 5.0010773e-09 8.051137e-09 2.3921853e-10 2.487384e-10
0.0 0.0 3.4349412e-09 1.7292721e-09 7.282986e-10 4.5127374e-10 2.598112e-10 2.42065e-10
0.0 0.0 1.028549e-10 1.9493882e-10 0.0 0.0 2.130931e-10 1.0388475e-10
1.2822791e-09 6.389901e-10 0.0 0.0 1.7816772e-08 1.025535e-08 1.4698126e-10 2.4636704e-10
1.0245884e-09 4.5730014e-10 5.137734e-10 5.206839e-10 3.9439096e-10 1.459647e-10 4.603906e-10 3.080875e-10
1.8048778e-09 3.3848349e-09 5.189487e-10 7.6864837e-10 1.0990931e-08 7.574392e-09 3.369565e-10 8.524958e-11
5.795359e-10 1.5649292e-10 3.4073197e-10 2.0377129e-10 1.8782546e-10 3.806165e-10 7.1740475e-10 4.972236e-10
4.4820203e-10 3.9738235e-10 1.6713012e-10 1.5978012e-10 0.0 0.0 0.0 0.0
6.689858e-11 1.06735426e-10 1.2485096e-10 2.7084504e-10 2.0346488e-10 3.410064e-11 4.660544e-10 4.5288023e-10
2.718507e-10 1.4807225e-10 1.3825306e-10 9.9821755e-11 5.9826866e-10 1.1243948e-09 1.5609636e-10 6.323417e-11
0.0 0.0 0.0 0.0 0.0 0.0 1.0148452e-10 1.0616978e-10
2.933383e-10 1.1403568e-10 3.103664e-10 3.1947525e-10 5.893699e-10 4.43859e-10 0.0 0.0
3.3194886e-10 9.555231e-11 2.0209692e-09 5.0971627e-09 1.4409475e-10 5.8345176e-11 2.1093045e-10 1.1988548e-10
0.0 0.0 0.0 0.0 0.0 0.0 0.0 0.0
0.0 0.0 7.1378425e-10 5.4401833e-10 1.1928374e-10 7.666924e-11 8.7005037e-10 8.4443047e-10
0.0 0.0 1.05722315e-11 2.766126e-11 1.3995728e-09 1.0377035e-09 2.6359911e-10 9.2743986e-11
3.1188119e-09 7.3552386e-09 3.7162956e-10 3.4484035e-10 6.744229e-09 1.8717227e-08 1.3906566e-10 1.6989997e-10
9.908226e-10 8.068236e-10 1.709863e-10 1.4891319e-10 0.0 0.0 3.720471e-10 5.1952775e-10
3.2873151e-10 1.05827444e-10 0.0 0.0 0.0 0.0 0.0 0.0
6.471529e-10 3.9736195e-10 4.7683476e-12 8.3913996e-12 0.0 0.0 6.262471e-10 1.8083979e-10
00000000: f5d0 b92f f2de 982f 0f27 4730 4d24 c72f
00000010: 62ee 2f2f 8b30 1e2f 0000 0000 0000 0000
00000020: 0000 0000 0000 0000 0000 0000 0000 0000
00000030: f916 5b2f 4967 fe2e 0000 0000 0000 0000
00000040: f8ba cd30 1893 6f30 ff53 bd31 1279 9f31
00000050: 0000 0000 0000 0000 4765 942f 3321 5a2f
00000060: 0000 0000 0000 0000 0000 0000 0000 0000
00000070: 5e63 a32f c2b7 f72f 50b1 e432 4ae5 3732
00000080: e355 8b2d b31a a22d 0a1d 492f 519f 072f
00000090: 00d2 9630 73aa 4c30 4ae1 4230 0505 4930
000000a0: 28f1 002f c27a 772e a6a6 4a2f 8c24 302f
000000b0: fcb3 cf2f c83e a72f c46f 1131 d56d c730
000000c0: 0000 0000 0000 0000 7292 422e 8994 1d2e
000000d0: 0000 0000 0000 0000 2edc a230 2bd0 de2f
000000e0: 0000 0000 0000 0000 c061 322f 7af2 d42e
000000f0: ff38 a030 586b 6a30 0000 0000 0000 0000
00000100: a880 e92f 868d 5830 3bc8 b532 c495 e432
00000110: 0000 0000 0000 0000 0000 0000 0000 0000
00000120: 0000 0000 0000 0000 e3de d32f d25c f22e
00000130: 9089 8630 c69c 6030 0000 0000 0000 0000
00000140: 900c 4c2f 4366 832e 2af7 7331 f9f9 1132
00000150: 5f36 bb2f c9b0 d82f 0000 0000 0000 0000
00000160: 4eb4 012d 4a25 b42e 0000 0000 0000 0000
00000170: 4468 672f 9c72 f32e 1cae 3a2f bb28 b82f
00000180: 0000 0000 0000 0000 0950 c42e 9712 042f
00000190: f1d5 ab31 4651 0a32 0483 832f d1be 882f
000001a0: 0000 0000 0000 0000 200c 6c31 5aab ed30
000001b0: 7531 4830 2217 f82f 2dd5 8e2f 9f13 852f
000001c0: 0000 0000 0000 0000 292e e22e 6656 562f
000001d0: 0000 0000 0000 0000 604c 6a2f ea71 e42e
000001e0: 2f3c b030 eea4 2f30 0000 0000 0000 0000
000001f0: 7f0b 9932 822f 3032 8c9b 212f 1471 872f
00000200: 80d1 8c30 4667 fb2f 9739 0d30 df1f 0f30
00000210: 98d1 d82f 697d 202f 371a fd2f 765f a92f
00000220: 7e0f f830 a59a 6831 c5a5 0e30 d248 5330
00000230: a0d2 3c32 8720 0232 693e b92f 3f77 bb2e
00000240: 374d 1f30 d710 2c2f c351 bb2f 850c 602f
00000250: 2b84 4e2f 033f d12f df32 4530 00ad 0830
00000260: d466 f62f 9876 da2f f2c2 372f 1bae 2f2f
00000270: 0000 0000 0000 0000 0000 0000 0000 0000
00000280: 8d1c 932e b4b6 ea2e 6c46 092f 0de6 942f
00000290: 46b6 5f2f e8f9 152e aa1b 0030 3af9 f82f
000002a0: 9673 952f a2ce 222f c702 182f a782 db2e
000002b0: 6a73 2430 2089 9a30 38a1 2b2f ac0d 8b2e
000002c0: 0000 0000 0000 0000 0000 0000 0000 0000
000002d0: 0000 0000 0000 0000 b52a df2e 4678 e92e
000002e0: b243 a12f 61c4 fa2e 30a0 aa2f 25a2 af2f
000002f0: 3801 2230 9a03 f42f 0000 0000 0000 0000
00000300: a67d b62f 2b1f d22e 44e1 0a31 1e23 af31
00000310: 116f 1e2f 6a4d 802e a5eb 672f c3d0 032f
00000320: 0000 0000 0000 0000 0000 0000 0000 0000
00000330: 0000 0000 0000 0000 0000 0000 0000 0000
00000340: 0000 0000 0000 0000 1a34 4430 e389 1530
00000350: 6327 032f f298 a82e 5a28 6f30 831d 6830
00000360: 0000 0000 0000 0000 19fd 392d 9f4f f32d
00000370: 175b c030 f29e 8e30 47ea 902f 39f2 cb2e
00000380: b852 5631 5db9 fc31 364e cc2f f793 bd2f
00000390: deba e731 9ec7 a032 81e7 182f 97ce 3a2f
000003a0: 792d 8830 2ac7 5d30 5d00 3c2f 56bb 232f
000003b0: 0000 0000 0000 0000 f988 cc2f 84ce 0e30
000003c0: d9b8 b42f 8eb7 e82e 0000 0000 0000 0000
000003d0: 0000 0000 0000 0000 0000 0000 0000 0000
000003e0: 56e3 3130 b973 da2f 75c5 a72c 819f 132d
000003f0: 0000 0000 0000 0000 3924 2c30 e0d5 462f

exp_avg f4 [128]
4.338874e-05 8.901626e-05 -4.4049477e-05 0.0 0.0 0.0 6.198493e-05 0.0
3.368447e-05 0.0015633181 0.0 -0.0001972015 0.0 0.0 -9.429113e-05 -0.0035031824
-2.403819e-06 0.00020417491 -8.7281616e-05 0.00024317173 9.335458e-05 -2.3537039e-05 4.6652694e-06 0.00023119466
0.0 -0.00011138563 0.0 -0.0003536478 0.0 0.00016797632 -0.00038802263 0.0
-0.00013672726 -0.0008418411 0.0 0.0 0.0 0.00027118684 0.00024071394 0.0
-3.580679e-05 0.00011563793 9.940033e-05 0.0 5.4042766e-07 0.0 -0.00016237053 0.00013228327
0.0 -7.004809e-05 4.9901024e-05 8.1765145e-05 0.0 0.00045856755 0.00032570632 -6.876543e-05
0.0 -5.4335887e-06 0.0 -0.0001990698 -0.0002905501 0.0 -0.002591369 6.8104564e-06
-0.00010499343 -0.00020229348 0.0002266129 8.559237e-05 0.0011048224 -1.6660979e-06 0.0022678974 -0.00013942806
1.0074699e-05 0.00013517989 -6.6435687e-06 -0.0003506776 0.00026736234 -4.94749e-05 0.0 0.0
4.0554147e-05 -0.00011015393 1.4690466e-05 3.1869567e-05 -0.00018813823 -3.4194323e-05 0.00019953256 0.00014701702
0.0 0.0 0.0 0.00016418232 -0.000121414545 0.00016760932 -5.707913e-05 0.0
-5.8223828e-05 4.007346e-05 -3.1650416e-05 -0.0001909472 0.0 0.0 0.0 0.0
0.0 1.0614775e-05 -4.627213e-05 1.2047708e-05 0.0 4.796193e-07 -0.00034042797 0.00012356912
0.00012672336 0.00014447972 0.0025733255 -0.00011411161 3.8912367e-05 8.8169545e-05 0.0 0.00012286549
0.00013464161 0.0 0.0 0.0 0.00020349897 -2.5624481e-06 0.0 4.173615e-05
00000000: 4efc 3538 3eae ba38 c4c1 38b8 0000 0000
00000010: 0000 0000 0000 0000 e8fd 8138 0000 0000
00000020: 6d48 0d38 40e8 cc3a 0000 0000 e0c7 4eb9
00000030: 0000 0000 0000 0000 2abe c5b8 a695 65bb
00000040: 4c51 21b6 c917 5639 f60a b7b8 eafb 7e39
00000050: 5cc7 c338 6871 c5b7 5c8a 9c36 d86c 7239
00000060: 0000 0000 b497 e9b8 0000 0000 ce69 b9b9
00000070: 0000 0000 cd22 3039 846f cbb9 0000 0000
00000080: 725e 0fb9 00af 5cba 0000 0000 0000 0000
00000090: 0000 0000 152e 8e39 2868 7c39 0000 0000
000000a0: 3f2f 16b8 a482 f238 2575 d038 0000 0000
000000b0: e811 1135 0000 0000 0242 2ab9 85b5 0a39
000000c0: 0000 0000 c8e6 92b8 d14c 5138 5479 ab38
000000d0: 0000 0000 e56b f039 90c3 aa39 2936 90b8
000000e0: 0000 0000 2c52 b6b6 0000 0000 64bd 50b9
000000f0: f954 98b9 0000 0000 f5d3 29bb 6085 e436
00000100: eb2f dcb8 be1e 54b9 f09e 6d39 0e80 b338
00000110: b0cf 903a b09e dfb5 01a1 143b 6f33 12b9
00000120: 8106 2937 13bf 0d39 d2eb deb6 27db b7b9
00000130: c42c 8c39 4583 4fb8 0000 0000 0000 0000
00000140: af18 2a38 7102 e7b8 1277 7637 b0ab 0538
00000150: f946 45b9 e06b 0fb8 9d39 5139 9528 1a39
00000160: 0000 0000 0000 0000 0000 0000 5b28 2c39
00000170: f09f feb8 49c0 2f39 4068 6fb8 0000 0000
00000180: 5c35 74b8 8d14 2838 60c0 04b8 0039 48b9
00000190: 0000 0000 0000 0000 0000 0000 0000 0000
000001a0: 0000 0000 1d16 3237 5214 42b8 8320 4a37
000001b0: 0000 0000 30bf 0035 787b b2b9 5592 0139
000001c0: 0be1 0439 7b7f 1739 3da5 283b 344f efb8
000001d0: d635 2338 aae7 b838 0000 0000 74d5 0039
000001e0: 952e 0d39 0000 0000 0000 0000 0000 0000
000001f0: 5762 5539 86f6 2bb6 0000 0000 da0d 2f38

exp_avg_sq f4 [128]
4.224438e-08 7.588384e-07 7.4597125e-08 0.0 0.0 0.0 8.415651e-08 0.0
8.0643964e-08 8.426904e-06 0.0 1.424842e-07 0.0 0.0 1.3903438e-07 2.9287443e-05
2.4524816e-10 1.2821941e-07 5.536317e-07 2.9076563e-07 5.8656173e-08 3.6592805e-08 7.1840496e-08 2.4047172e-06
0.0 1.46049635e-08 0.0 7.5023956e-07 0.0 1.1603474e-07 7.4442744e-07 0.0
1.7067947e-07 7.860531e-06 0.0 0.0 0.0 3.542868e-07 6.356016e-07 0.0
6.597379e-08 2.2686767e-07 1.7138456e-07 0.0 6.3576605e-10 0.0 5.364064e-08 1.3764925e-07
0.0 4.305764e-08 2.7867335e-07 5.995032e-08 0.0 1.8005612e-06 7.466156e-07 1.5741794e-08
0.0 1.5643246e-09 0.0 1.0574421e-07 5.295551e-07 0.0 4.7956608e-05 1.7528148e-09
1.826404e-07 1.5521033e-07 3.615924e-07 1.3041554e-07 4.3508835e-06 3.9676124e-08 1.3790051e-05 1.4626247e-07
3.5509689e-09 7.648636e-08 5.0810134e-09 4.636786e-07 4.518208e-07 4.831278e-08 0.0 0.0
1.5554475e-08 5.116945e-08 1.535953e-09 1.3879179e-08 1.3851147e-07 1.9604032e-08 2.4265555e-07 4.837723e-08
0.0 0.0 0.0 6.807959e-08 9.873884e-08 6.0132095e-08 1.6664873e-07 0.0
7.212843e-08 2.2110358e-07 2.8037755e-08 1.7841019e-07 0.0 0.0 0.0 0.0
0.0 5.27343e-09 6.795422e-08 5.257503e-08 0.0 1.6868855e-10 6.0638746e-07 1.2877652e-07
2.1791756e-07 1.4121656e-07 1.1321603e-05 1.3926694e-08 1.22752315e-08 3.0211623e-08 0.0 1.0797242e-07
1.12493886e-07 0.0 0.0 0.0 2.8839605e-07 8.9894425e-11 0.0 4.8457767e-09
00000000: 3070 3533 fab2 4b35 3432 a033 0000 0000
00000010: 0000 0000 0000 0000 88b9 b433 0000 0000
00000020: 7d2e ad33 4761 0d37 0000 0000 c2fd 1834
00000030: 0000 0000 0000 0000 7b49 1534 4eae f537
00000040: 9cd3 862f afac 0934 489d 1435 861a 9c34
00000050: 25ed 7b33 372a 1d33 bb46 9a33 ba60 2136
00000060: 0000 0000 4fe9 7a32 0000 0000 1264 4935
00000070: 0000 0000 c62e f933 aad4 4735 0000 0000
00000080: 0444 3734 b9e0 0337 0000 0000 0000 0000
00000090: 0000 0000 cf34 be34 369e 2a35 0000 0000
000000a0: 7aad 8d33 e998 7334 d405 3834 0000 0000
000000b0: 0fc2 2e30 0000 0000 8262 6633 bdcc 1334
000000c0: 0000 0000 60ee 3833 939c 9534 09be 8033
000000d0: 0000 0000 d0aa f135 096b 4835 9238 8732
000000e0: 0000 0000 c7ff d630 0000 0000 7f15 e333
000000f0: c026 0e35 0000 0000 0425 4938 b0e7 f030
00000100: d01b 4434 e4a7 2634 e220 c234 5a08 0c34
00000110: cefd 9136 5c68 2a33 d15b 6737 520c 1d34
00000120: 4e05 7431 d240 a433 1195 ae31 80ef f834
00000130: c791 f234 7780 4f33 0000 0000 0000 0000
00000140: a79c 8532 68c5 5b33 8b19 d330 4671 6e32
00000150: beb9 1434 b965 a832 5346 8234 54c7 4f33
00000160: 0000 0000 0000 0000 0000 0000 2733 9233
00000170: 400a d433 f821 8133 0ef0 3234 0000 0000
00000180: 06e5 9a33 7d68 6d34 add7 f032 0591 3f34
00000190: 0000 0000 0000 0000 0000 0000 0000 0000
000001a0: 0000 0000 9531 b531 3aee 9133 dbce 6133
000001b0: 0000 0000 9b79 392f a1c6 2235 d245 0a34
000001c0: b9fc 6934 50a1 1734 eaf1 3d37 3f42 6f32
000001d0: 0ae3 5232 08c2 0133 0000 0000 77de e733
000001e0: 2b94 f133 0000 0000 0000 0000 0000 0000
000001f0: dad4 9a34 10ae c52e 0000 0000 e77f a631

exp_avg f4 [64, 128]
6e-45 -6e-45 -6e-45 0.0 0.0 0.0 6e-45 0.0
6e-45 6e-45 0.0 6e-45 0.0 0.0 6e-45 -6e-45
0.0 6e-45 6e-45 6e-45 6e-45 6e-45 6e-45 6e-45
0.0 6e-45 0.0 6e-45 0.0 6e-45 6e-45 0.0
6e-45 6e-45 0.0 0.0 0.0 6e-45 -6e-45 0.0
6e-45 6e-45 6e-45 0.0 6e-45 0.0 6e-45 6e-45
0.0 6e-45 6e-45 6e-45 0.0 -6e-45 -6e-45 6e-45
0.0 6e-45 0.0 6e-45 6e-45 0.0 6e-45 6e-45
-6e-45 6e-45 6e-45 -6e-45 6e-45 -6e-45 6e-45 6e-45
6e-45 6e-45 6e-45 6e-45 -6e-45 6e-45 0.0 0.0
6e-45 6e-45 0.0 0.0 6e-45 6e-45 6e-45 6e-45
0.0 0.0 0.0 6e-45 6e-45 6e-45 6e-45 0.0
6e-45 6e-45 6e-45 6e-45 0.0 0.0 0.0 0.0
0.0 6e-45 6e-45 -6e-45 0.0 0.0 6e-45 6e-45
6e-45 6e-45 -6e-45 6e-45 -6e-45 6e-45 0.0 6e-45
6e-45 0.0 0.0 0.0 6e-45 -6e-45 0.0 6e-45
-0.00017608644 -1.0492435e-05 -1.2547528e-05 0.0 0.0 0.0 -0.00012313994 0.0
4.7900103e-06 -3.6685014e-07 0.0 -0.0002133197 0.0 0.0 -2.2208293e-05 -7.646156e-06
-6.3183694e-07 -0.00020974988 4.4946673e-06 -0.00020773573 -0.00013009744 -0.0001868455 -8.0298116e-05 -1.8423175e-06
0.0 -0.00013201883 0.0 -3.2653967e-05 0.0 -0.0001528211 -5.360993e-05 0.0
-0.00020251077 -5.7226157e-06 0.0 0.0 0.0 -8.471289e-05 -5.792631e-06 0.0
-9.470506e-05 -6.0148e-06 -5.147729e-05 0.0 -4.7932143e-09 0.0 -0.0002006061 -8.802288e-05
0.0 -0.00013599664 -3.4289749e-06 -0.00010883654 0.0 -8.350329e-06 -8.428579e-06 -5.3997792e-05
0.0 -7.079196e-08 0.0 -0.0001989158 -0.00017599542 0.0 -7.106771e-06 -8.971292e-08
-1.81481e-06 -0.0001241272 -9.292351e-05 -2.5060504e-05 2.5487716e-06 -2.1742929e-07 -8.9346395e-07 -0.00017751261
4.2383306e-07 -9.931068e-05 2.6812863e-06 -3.982953e-05 -3.5339563e-05 -4.733214e-05 0.0 0.0
-0.00014823047 -0.00020008578 -7.2028165e-08 -2.1886815e-06 -9.844497e-05 -0.000103845116 -0.00016919135 -0.00020903257
0.0 0.0 0.0 -0.00016855981 -0.00013623528 -0.00015243233 -2.4175599e-05 0.0
-0.00014566994 -1.6417914e-06 -8.849244e-05 -5.9998034e-05 0.0 0.0 0.0 0.0
0.0 1.1735667e-07 -4.4818436e-05 -1.8451755e-06 0.0 -2.4498188e-08 -0.00016302739 -0.00012838007
-6.5340164e-06 -6.1784885e-05 -1.6168206e-06 -0.00013597879 3.92508e-07 -0.00021271891 0.0 -0.00016681603
-0.00020624825 0.0 0.0 0.0 -6.7975605e-05 -3.9470532e-07 0.0 -2.2077893e-06
00000000: 0400 0000 0400 0080 0400 0080 0000 0000
00000010: 0000 0000 0000 0000 0400 0000 0000 0000
00000020: 0400 0000 0400 0000 0000 0000 0400 0000
00000030: 0000 0000 0000 0000 0400 0000 0400 0080
00000040: 0000 0000 0400 0000 0400 0000 0400 0000
00000050: 0400 0000 0400 0000 0400 0000 0400 0000
00000060: 0000 0000 0400 0000 0000 0000 0400 0000
00000070: 0000 0000 0400 0000 0400 0000 0000 0000
00000080: 0400 0000 0400 0000 0000 0000 0000 0000
00000090: 0000 0000 0400 0000 0400 0080 0000 0000
000000a0: 0400 0000 0400 0000 0400 0000 0000 0000
000000b0: 0400 0000 0000 0000 0400 0000 0400 0000
000000c0: 0000 0000 0400 0000 0400 0000 0400 0000
000000d0: 0000 0000 0400 0080 0400 0080 0400 0000
000000e0: 0000 0000 0400 0000 0000 0000 0400 0000
000000f0: 0400 0000 0000 0000 0400 0000 0400 0000
00000100: 0400 0080 0400 0000 0400 0000 0400 0080
00000110: 0400 0000 0400 0080 0400 0000 0400 0000
00000120: 0400 0000 0400 0000 0400 0000 0400 0000
00000130: 0400 0080 0400 0000 0000 0000 0000 0000
00000140: 0400 0000 0400 0000 0000 0000 0000 0000
00000150: 0400 0000 0400 0000 0400 0000 0400 0000
00000160: 0000 0000 0000 0000 0000 0000 0400 0000
00000170: 0400 0000 0400 0000 0400 0000 0000 0000
00000180: 0400 0000 0400 0000 0400 0000 0400 0000
00000190: 0000 0000 0000 0000 0000 0000 0000 0000
000001a0: 0000 0000 0400 0000 0400 0000 0400 0080
000001b0: 0000 0000 0000 0000 0400 0000 0400 0000
000001c0: 0400 0000 0400 0000 0400 0080 0400 0000
000001d0: 0400 0080 0400 0000 0000 0000 0400 0000
000001e0: 0400 0000 0000 0000 0000 0000 0000 0000
000001f0: 0400 0000 0400 0080 0000 0000 0400 0000
00000200: d8a3 38b9 aa08 30b7 3983 52b7 0000 0000
00000210: 0000 0000 0000 0000 201f 01b9 0000 0000
00000220: e0b9 a036 80f3 c4b4 0000 0000 92ae 5fb9
00000230: 0000 0000 0000 0000 f24b bab7 fd47 00b7
00000240: 819b 29b5 4ef0 5bb9 e6d0 9636 a3d3 59b9
00000250: c46a 08b9 f5eb 43b9 b965 a8b8 8c45 f7b5
00000260: 0000 0000 896e 0ab9 0000 0000 eef5 08b8
00000270: 0000 0000 9a3e 20b9 39db 60b8 0000 0000
00000280: 1259 54b9 e504 c0b6 0000 0000 0000 0000
00000290: 0000 0000 e3a7 b1b8 525e c2b6 0000 0000
000002a0: 649c c6b8 bdd2 c9b6 52e9 57b8 0000 0000
000002b0: 8fb1 a4b1 0000 0000 ca59 52b9 ed98 b8b8
000002c0: 0000 0000 529a 0eb9 571d 66b6 2c3f e4b8
000002d0: 0000 0000 6418 0cb7 7968 0db7 b07b 62b8
000002e0: 0000 0000 4b06 98b3 0000 0000 0e94 50b9
000002f0: 698b 38b9 0000 0000 b376 eeb6 33a8 c0b3
00000300: 6694 f3b5 2428 02b9 eedf c2b8 0639 d2b7
00000310: 900b 2b36 8276 69b4 60d6 6fb5 ae22 3ab9
00000320: 2c8b e334 0445 d0b8 26f0 3336 a20e 27b8
00000330: 9139 14b8 8086 46b8 0000 0000 0000 0000
00000340: 506e 1bb9 1ece 51b9 e7ad 9ab3 43e1 12b6
00000350: 3e74 ceb8 6cc7 d9b8 f568 31b9 c12f 5bb9
00000360: 0000 0000 0000 0000 0000 0000 6ebf 30b9
00000370: 61da 0eb9 3ed6 1fb9 b4cc cab7 0000 0000
00000380: fabe 18b9 865b dcb5 0495 b9b8 66a6 7bb8
00000390: 0000 0000 0000 0000 0000 0000 0000 0000
000003a0: 0000 0000 8305 fc33 6efb 3bb8 bfa7 f7b5
000003b0: 0000 0000 1670 d2b2 55f2 2ab9 c39d 06b9
000003c0: c63e dbb6 8292 81b8 8801 d9b5 8795 0eb9
000003d0: e4b9 d234 4c0d 5fb9 0000 0000 56eb 2eb9
000003e0: 5844 58b9 0000 0000 0000 0000 0000 0000
000003f0: 208e 8eb8 e3e7 d3b4 0000 0000 8829 14b6
