train/model_weights_opt_mac_xyz.pth (torch, 136669 bytes, 24 tensors)

linear_relu_stack.0.weight f4 [128, 2]
0	0x3f3f8f84	0.7482836
1	0xbe1ab2e0	-0.15107298
2	0x3f1a7b01	0.6034394
3	0x3f05db53	0.5228779
4	0x3e40df60	0.18835211
5	0xbf185f06	-0.59519994
6	0x3ee65395	0.44985643
7	0xbf1efe6e	-0.6210698
8	0xbdc8c9b8	-0.098041
9	0xbcad6b00	-0.021169186
10	0x3f095560	0.53645897
11	0x3eee7a2b	0.46577582
12	0xbd3dd000	-0.046340942
13	0x3e5bd3b4	0.21467477
14	0x3dbc0268	0.091801465
15	0xbeed88a2	-0.46393305
16	0xbea909fc	-0.3301543
17	0xbf233d6a	-0.63765585
18	0xbe7d1124	-0.2471357
19	0x3eaabf1e	0.33348936
20	0xbd5d5dec	-0.05404465
21	0x3f05edc1	0.5231591
22	0x3ebafa1e	0.3651895
23	0xbe4f969c	-0.20272297
24	0xbf0db089	-0.55347496
25	0xbf543200	-0.82888794
26	0x3c3bc5c0	0.0114607215
27	0xbedaee4d	-0.42759934
28	0xbebbe587	-0.36698553
29	0x3ded856c	0.11597714
30	0x3fcd1be6	1.6024139
31	0xbf066b01	-0.52507025
32	0xbf82ed4e	-1.022867
33	0x3e8c885d	0.27447787
34	0x3f4364fa	0.76325953
35	0x3f692f20	0.9108753
36	0xbec29459	-0.38003805
37	0xbf0447c3	-0.51672
38	0xbdf7ba3a	-0.12096067
39	0x3f96c4bb	1.1778787
40	0xbe9a51c4	-0.30140507
41	0xbf4b3e04	-0.79391503
42	0x3f201826	0.6253685
43	0xbe856336	-0.26052254
44	0xbf26f363	-0.6521513
45	0xbc8321b0	-0.016007274
46	0xbec44779	-0.3833578
47	0xbf3000df	-0.6875133
48	0x3e724c94	0.23662025
49	0xbe280f94	-0.16412193
50	0x3efd0f5f	0.4942579
51	0x3f4ecfe2	0.80785954
52	0xbe8d8e5d	-0.27647677
53	0x3f68ff5d	0.91014653
54	0x3f484631	0.78232104
55	0x3da9ed86	0.08297257
56	0x3f44851c	0.7676561
57	0xbf5ec556	-0.8701986
58	0xbf43721f	-0.7634601
59	0xbf2d738e	-0.6775445
60	0xbfa480ca	-1.2851803
61	0xbf9d6931	-1.2297727
62	0xbf2f1757	-0.6839499
63	0x3f5e9ec7	0.86961025
64	0xbe6c240a	-0.23060623
65	0xbe763a98	-0.24045789
66	0x3f89e93b	1.0774301
67	0x3f5f5d30	0.8725157
68	0x3e67e6e1	0.22646667
69	0xbf08a566	-0.5337738
70	0xbcc76f60	-0.0243451
71	0xbef8cfa3	-0.48595914
72	0xbf0c7e8f	-0.54880613
73	0x3dc8bb97	0.09801405
74	0xbebe4b36	-0.37166756
75	0x3f2dabd7	0.6784033
76	0x3e75e400	0.24012756
77	0x3f153ce9	0.58296067
78	0x3f2f24c9	0.68415505
79	0xbf16a936	-0.58851945
80	0xbf153bf1	-0.5829459
81	0xbf616217	-0.880403
82	0xbf0d8111	-0.55275065
83	0xbf60fc38	-0.87884855
84	0x3f29a263	0.6626341
85	0xbf2169eb	-0.63052243
86	0x3f2db032	0.6784698
87	0xbd6f22e7	-0.058382895
88	0xbea4ded6	-0.3220126
89	0xbed33a69	-0.412555
90	0xbebf75ab	-0.3739446
91	0xbfb9769a	-1.4489319
92	0x3f3af4d0	0.73029804
93	0x3e458864	0.1929031
94	0x3d787bb0	0.060664833
95	0xbee942d3	-0.45558795
96	0x3ea21716	0.31658238
97	0xbe82c6c4	-0.2554227
98	0xbcfb7dae	-0.030699577
99	0x3f7c1340	0.98466873
100	0xbf9bff48	-1.2187281
101	0x3f5972b0	0.84940624
102	0xbeda5a5d	-0.42647067
103	0xbf01a35f	-0.5063991
104	0xbf00bbc2	-0.50286496
105	0x3eeca8b9	0.46222475
106	0xbdb42cb4	-0.08797589
107	0x3f3b927f	0.7327041
108	0x3dd80b82	0.1054907
109	0x3f72c686	0.9483417
110	0x3f37cea6	0.71799695
111	0x3f5b3208	0.85623217
112	0x3ed97d1c	0.42478263
113	0xbe4548d7	-0.19266067
114	0x3ee54273	0.4477726
115	0x3fb0d609	1.3815318
116	0x3cad9bc0	0.021192431
117	0xbf02ea15	-0.5113843
118	0xbec90ff3	-0.3926998
119	0x3df0a080	0.11749363
120	0x3df74a1d	0.12074683
121	0x3f4c14aa	0.7971903
122	0x3d9a1d19	0.07525081
123	0x3f0a550e	0.54036033
124	0x3e833e98	0.25633693
125	0xbf083476	-0.5320505
126	0xbe7b4675	-0.24538596
127	0x3f1a604f	0.60303205
128	0x3ecd798a	0.4013179
129	0x3eda1daa	0.42600757
130	0xbdc0dd40	-0.094172
131	0x3f284745	0.6573375
132	0x3e37e753	0.17959337
133	0x3e8e8dc6	0.2784254
134	0x3f2100c7	0.6289181
135	0x3d8a6970	0.06758392
136	0xbeda755d	-0.42667666
137	0xbeb296eb	-0.34880766
138	0x3f107074	0.5642159
139	0x3f09d4b8	0.5384021
140	0x3c3bd212	0.011463659
141	0x3f2a7474	0.66583943
142	0xbf6cf301	-0.92558295
143	0x3f7d86ab	0.9903361
144	0xbf52a9da	-0.8229042
145	0x3f67a11b	0.904802
146	0xbe9a00e4	-0.30078804
147	0xbf3e3361	-0.7429715
148	0xbefd47ea	-0.4946893
149	0xbf074f9f	-0.5285587
150	0x3e5f60cf	0.21814273
151	0x3d22e913	0.03977306
152	0x3f16954f	0.58821577
153	0x3e9033c8	0.28164506
154	0xbe7ee18f	-0.24890731
155	0xbf0e9f82	-0.5571214
156	0x3f070c5e	0.52753246
157	0xbf3f321a	-0.74685824
158	0x3eda09d3	0.4258562
159	0x3f34d1bd	0.70632535
160	0xbf12a486	-0.5728229
161	0xbeaf1bbc	-0.34200847
162	0x3f17c3c7	0.5928311
163	0xbf552935	-0.83266
164	0x3fa03bff	1.2518309
165	0x3f20f0b0	0.6286726
166	0xbe4dcefc	-0.2009849
167	0x3eb22a16	0.34797734
168	0x3ec190d9	0.37805822
169	0x3f4ca07e	0.7993239
170	0xbe3f3739	-0.1867341
171	0x3ef6c089	0.48193768
172	0xbdea15f0	-0.114299655
173	0xbf1b1857	-0.60584015
174	0xbf976f64	-1.1830869
175	0xbf85b252	-1.0445044
176	0xbc820561	-0.015871705
177	0x3f906578	1.1280966
178	0x3ecbdb91	0.39815953
179	0xbf50b39e	-0.81524074
180	0x3f16bb7b	0.5887982
181	0x3f1fde7f	0.6244888
182	0x3effd8c6	0.49970073
183	0xbcd8d1a0	-0.026467144
184	0xbf0273cc	-0.5095794
185	0x3d3e2a2c	0.046426937
186	0xbe94d956	-0.29072064
187	0x3f00b1a5	0.50271064
188	0xbe42a380	-0.19007683
189	0xbfd46f65	-1.6596495
190	0x3dd74938	0.10512012
191	0x3e83a7f8	0.25714087
192	0x3ead2b25	0.3382198
193	0x3f934e51	1.1508275
194	0xbe9bdf3c	-0.30443752
195	0x3ea4afc7	0.32165357
196	0xbdc31418	-0.09525317
197	0xbef6deba	-0.48216802
198	0xbf55d452	-0.835271
199	0x3e9cad35	0.30600896
200	0xbee5bb4b	-0.44869456
201	0xbf626147	-0.88429683
202	0x3d9eea28	0.077595055
203	0x3e946870	0.2898593
204	0x3eae0ada	0.33992654
205	0x3ec7113a	0.3888033
206	0x3f02549d	0.5091036
207	0xbf37f5f3	-0.71859664
208	0xbe85340b	-0.26016268
209	0x3f5792fa	0.84208643
210	0xbdddff29	-0.108396836
211	0x3f9eca65	1.2405516
212	0xbf0c526c	-0.54813266
213	0xbf244d49	-0.6418043
214	0x3f3ef130	0.7458677
215	0x3f1135db	0.567228
216	0xbf6cc6f8	-0.924911
217	0xbf619caa	-0.88129675
218	0x3d69f2b9	0.057116244
219	0xbea24839	-0.31695727
220	0xbde0dbe0	-0.10979438
221	0xbee7e23b	-0.45289788
222	0x3e3d37dc	0.1847834
223	0x3e0b7d34	0.1362198
224	0x3dc59948	0.09648377
225	0x3f100573	0.56258315
226	0x3f004209	0.5010076
227	0xbe1dea8c	-0.15421504
228	0x3ed58d4d	0.41709366
229	0xbe9071fb	-0.2821196
230	0xbea13294	-0.314839
231	0xbeb765cb	-0.3581985
232	0xbe224902	-0.15848163
233	0x3eda64c5	0.42655006
234	0x3f3b1565	0.7307952
235	0xbebc2a73	-0.36751136
236	0x3fa45f58	1.2841597
237	0x3f2fb16b	0.68630093
238	0xbe56dce2	-0.20982698
239	0xbf5a92af	-0.8538007
240	0xbce937a3	-0.028468912
241	0xbefcb522	-0.49356943
242	0xbf325382	-0.6965867
243	0x3ea22e29	0.31675842
244	0x3f26df70	0.6518469
245	0x3f414210	0.7549143
246	0x3e1049dc	0.14090675
247	0xbf086fbd	-0.532955
248	0xbe0d4704	-0.13796622
249	0x3eb55cd6	0.3542239
250	0x3f233b32	0.637622
251	0x3f210cce	0.62910163
252	0x3f35484d	0.7081345
253	0x3f47167f	0.777687
254	0xbf3c52f9	-0.73564106
255	0x3ead7a77	0.33882496

linear_relu_stack.0.bias f4 [128]
0	0x3f53e4ab	0.82770795
1	0x3f3a22e3	0.7270948
2	0x3ed365b5	0.41288534
3	0x3f182039	0.5942417
4	0xbeaf063b	-0.3418444
5	0x3eb3d42d	0.35122815
6	0xbe5e4d86	-0.2170926
7	0xbea4e4df	-0.32205865
8	0xbf334c6c	-0.70038486
9	0xbecfe9ba	-0.40608007
10	0x3ed2c663	0.41166982
11	0xbf20bb77	-0.6278605
12	0x3ec62f15	0.38707796
13	0xbec2152b	-0.37906775
14	0x3f07af75	0.530021
15	0x3e19c1e7	0.15015374
16	0x3d633dea	0.055478968
17	0x3f192c0e	0.5983285
18	0xbee64299	-0.44972685
19	0x3d5d9023	0.054092538
20	0x3ed80d54	0.4219767
21	0x3f0d6193	0.5522701
22	0x3ed9e61c	0.42558372
23	0xbf01af3b	-0.50658005
24	0xbf2b226e	-0.6684941
25	0x3f137161	0.5759488
26	0x3f15dddd	0.5854166
27	0x3ec2d654	0.38054144
28	0x3ede476c	0.43413866
29	0x3f0af33e	0.5427741
30	0x3dac4f0d	0.08413515
31	0x3f189cb6	0.5961412
32	0xbf211df1	-0.6293631
33	0x3dd196e3	0.102338575
34	0x3f4b10eb	0.7932269
35	0xbf33431a	-0.70024264
36	0x3e91c2a8	0.28468823
37	0x3eb2767d	0.34856024
38	0xbf268013	-0.65039176
39	0x3f5baed3	0.85813636
40	0x3f032b3d	0.5123785
41	0x3f049ce4	0.51801896
42	0xbf0bad48	-0.5456128
43	0x3efbc001	0.49169925
44	0x3f10397f	0.5633773
45	0x3da66873	0.08125391
46	0x3f2f77c4	0.6854212
47	0xbf256ae2	-0.64616215
48	0xbf245270	-0.6418829
49	0x3ef8f461	0.48623946
50	0xbd038b95	-0.032115538
51	0x3eb0f3ff	0.34561154
52	0x3ec55456	0.38540906
53	0x3ec9f83f	0.3944721
54	0x3e22c6be	0.15896127
55	0x3f58da75	0.8470834
56	0x3f3b77d7	0.73229736
57	0xbbc193b4	-0.0059075
58	0xbf00d36c	-0.50322604
59	0xbe4574a8	-0.19282782
60	0x3f0389d4	0.51382184
61	0x3efc245a	0.49246484
62	0x3f136ef9	0.57591206
63	0x3ec3a64d	0.38212815
64	0xbf2fa05b	-0.6860406
65	0xbf29c8af	-0.66321844
66	0x3f2e8175	0.68166286
67	0xbee8b5de	-0.45451254
68	0xbf2536a0	-0.64536476
69	0x3ec525c1	0.38505366
70	0x3ea8815c	0.32911193
71	0x3e561525	0.20906503
72	0x3f3a0491	0.7266322
73	0x3ec269c4	0.37971318
74	0x3f124b39	0.5714603
75	0x3f3a25fb	0.72714204
76	0xbec76160	-0.3894148
77	0x3e9a3aa6	0.3012287
78	0x3e93ed8d	0.28892174
79	0x3ea4d47f	0.32193372
80	0x3ec00b6d	0.37508717
81	0x3edf18b5	0.43573537
82	0x3e31beb4	0.17357904
83	0xbf316a76	-0.6930307
84	0x3ed58c4a	0.41708595
85	0x3f41ed65	0.7575286
86	0x3f50b4d6	0.81525934
87	0x3d71dbb1	0.059047405
88	0x3d9c9fa9	0.0764764
89	0x3f458a05	0.77163726
90	0x3ed758cb	0.4205993
91	0xbf2388c4	-0.6388056
92	0x3f299918	0.6624923
93	0x3eed947c	0.46402347
94	0x3baec81f	0.005333915
95	0xbefcaa2c	-0.4934858
96	0xbba87646	-0.0051410524
97	0x3eeec027	0.46630976
98	0xbf20735b	-0.6267602
99	0x3efb418e	0.49073452
100	0x3ef22956	0.47297162
101	0xbea4934a	-0.32143623
102	0xbea9a217	-0.33131477
103	0x3f082477	0.5318064
104	0x3efbc896	0.49176472
105	0x3d5d7c11	0.054073397
106	0x3f3ebdf4	0.74508595
107	0x3f0610aa	0.5236918
108	0x3f3b2eae	0.731181
109	0x3ed83502	0.42227942
110	0xbf08b586	-0.5340198
111	0xbf027c18	-0.509706
112	0xbf30352d	-0.6883114
113	0xbec3315b	-0.38123593
114	0x3ed07b4a	0.40719062
115	0x3efbb9e8	0.49165273
116	0x3e8218b1	0.25409463
117	0x3f4bb883	0.7957842
118	0x3c7666a0	0.015039116
119	0x3f0ce838	0.5504184
120	0x3e864826	0.2622692
121	0x3ede6e4f	0.43443534
122	0x3ef33287	0.47499487
123	0xbf28b35e	-0.6589869
124	0xbefc66aa	-0.49297076
125	0x3ede55e8	0.43424916
126	0x3f059c3e	0.5219153
127	0x3f3f8a95	0.74820834

linear_relu_stack.2.weight f4 [64, 128]
0	0x3dd49aa9	0.103810616
1	0x3e374cc6	0.1790038
2	0xba05f9e6	-0.0005110785
3	0x3dd1dc2b	0.10247072
4	0xbda3b015	-0.07992569
5	0x3e504240	0.20337772
6	0x3dad1e33	0.08453026
7	0xbda3b7fb	-0.07994076
8	0x3c973494	0.018457688
9	0xbd58795f	-0.052850123
10	0xbd3b50bf	-0.045731302
11	0xbc78e540	-0.015191376
12	0xbe27d71c	-0.16390651
13	0x3c01d918	0.007925294
14	0xbc05a430	-0.008156821
15	0x3e3c27ba	0.1837453
16	0xbd9e88f8	-0.077409685
17	0x3d715584	0.058919445
18	0x3d7afe8a	0.061277904
19	0x3ce121af	0.027481882
20	0xbd114c7a	-0.035473324
21	0x3e26be1e	0.16283461
22	0xbdd8a47a	-0.105782464
23	0x3cb81aac	0.022473656
24	0xbd52d88b	-0.051476043
25	0x3d9131f3	0.07089605
26	0x3bd0ee37	0.0063760537
27	0x3d3bb193	0.045823645
28	0x3e394b28	0.18095076
29	0xbdef202c	-0.11676058
30	0xbf122ed4	-0.57102704
31	0xbde015f4	-0.10941687
32	0xbd646703	-0.055762302
33	0x3ebcdd8c	0.36887777
34	0x3d1b4d09	0.037915263
35	0xbd0eea14	-0.034891203
36	0xbe5052c8	-0.20344079
37	0xbdee1dc7	-0.11626773
38	0xbd807ae2	-0.06273438
39	0x3def11e1	0.11673332
40	0xbe48d4b8	-0.19612396
41	0xbe19d2ff	-0.15021895
42	0x3c94addc	0.018149309
43	0x3e068574	0.13136846
44	0x3d562272	0.052278943
45	0x3e149dc6	0.14513311
46	0x3e28e33c	0.16492933
47	0xbd86f79b	-0.06590196
48	0xbd197fb4	-0.037475303
49	0x3c2585bc	0.010102686
50	0x3ecc0b52	0.39852387
51	0xbe2120df	-0.15735196
52	0xbe49c45a	-0.19703808
53	0x3c9ac078	0.018890604
54	0xbdf24bae	-0.11830841
55	0x3d8e3917	0.06944483
56	0x3d421ad4	0.047388867
57	0x3f3a7077	0.7282786
58	0xbd1bc88e	-0.03803306
59	0xbda1ae92	-0.07894625
60	0x3e180b7a	0.14848128
61	0x3bb73985	0.0055915737
62	0x3e0eaa41	0.13932134
63	0xbdfd7ff2	-0.12377919
64	0x3d6263d6	0.055270992
65	0x3cd42b48	0.025899544
66	0x3d0602e2	0.032717593
67	0xbda1ac79	-0.07894225
68	0x3d5accae	0.053417854
69	0x3d92f197	0.07174986
70	0x3d61d8e8	0.0551385
71	0xbe55c1d0	-0.20874715
72	0xbdfb65cd	-0.12275276
73	0x3d22a94c	0.039712235
74	0xbe0c55b7	-0.13704573
75	0xbb89feca	-0.0042112814
76	0x3dac8599	0.08423919
77	0x3c149bb5	0.009070327
78	0x3e385631	0.1800163
79	0x3daf391a	0.08555813
80	0xbe34f0b2	-0.17669943
81	0x3e0292ae	0.12751266
82	0x3e013137	0.1261643
83	0x3dabfa19	0.08397312
84	0x3e3deedc	0.18548149
85	0xbca30598	-0.019900128
86	0x3e040e50	0.12896085
87	0xbf31edd0	-0.695035
88	0x3dddea63	0.10835721
89	0xbbd1fd61	-0.006408379
90	0x3e2bc4b3	0.16774254
91	0x3d061324	0.032733098
92	0xbe062733	-0.13100891
93	0xbd14a516	-0.03629025
94	0x3f4c9688	0.7991719
95	0xbd3e9bc2	-0.04653526
96	0x3f123507	0.57112163
97	0xbda431a9	-0.080172844
98	0x3d8b1df1	0.0679282
99	0xbd455615	-0.048177797
100	0x3b815ef9	0.003948089
101	0x3d8d2333	0.06891479
102	0x3c842234	0.01612959
103	0x3dfe67e5	0.1242216
104	0x3ca8cabf	0.02060449
105	0x3d058a25	0.032602448
106	0xbd295abf	-0.041346308
107	0x3d9f93f5	0.077918924
108	0xbe212185	-0.15735443
109	0x3cb0580e	0.021526363
110	0xbbc16ec0	-0.005903095
111	0xbd0503d8	-0.03247437
112	0xbcb130dc	-0.021629743
113	0xbd45a936	-0.048257075
114	0x3dd89ff5	0.105773844
115	0x3cdc7601	0.026911737
116	0xbde7f869	-0.11326677
117	0x3d2cb8ee	0.04216855
118	0xbd15c03f	-0.036560293
119	0x3d173dd3	0.036924195
120	0x3d028632	0.03186626
121	0xbdf79f86	-0.120909736
122	0x3df229ec	0.11824402
123	0x3d2dd4e2	0.04243935
124	0x3d9ff963	0.078112386
125	0x3e0668ad	0.13125868
126	0x3e119a29	0.14218964
127	0xbd59ff8c	-0.053222224
128	0x3eabe997	0.33576652
129	0x3ea7f942	0.32807356
130	0x3e7a67f7	0.24453722
131	0x3e9094e0	0.28238583
132	0xbc48d718	-0.012258314
133	0x3e850956	0.25983685
134	0x3c9a2b74	0.018819548
135	0xbc4c5200	-0.012470722
136	0x3c86c45c	0.016451053
137	0x3d2bc9f2	0.041940637
138	0x3e37bb33	0.17942505
139	0xbc0c3c58	-0.008559309
140	0xbc19ab88	-0.009379275
141	0x3d34bd9e	0.044126146
142	0x3d91e251	0.071232446
143	0xba2cbe5a	-0.0006589644
144	0xbdad1712	-0.08451666
145	0x3ead4d48	0.33848023
146	0xbc787a50	-0.01516588
147	0xbe0ca9bb	-0.13736622
148	0x3d2a3341	0.041552786
149	0x3e976a24	0.29573166
150	0xbcd578f6	-0.026058655
151	0x3d7a44da	0.06110082
152	0xbca7b868	-0.020473674
153	0x3eb0a28e	0.3449902
154	0x3db46cb3	0.08809795
155	0x3eb1638e	0.34646267
156	0x3e90138f	0.28139922
157	0xbd8691a4	-0.065707475
158	0xbec84564	-0.3911544
159	0x3d3c9f08	0.0460501
160	0xbcdce17e	-0.026962992
161	0xbe45cf36	-0.19317326
162	0x3e035b32	0.12827757
163	0xbdb2f4a8	-0.08738071
164	0x3d80da64	0.06291655
165	0xbe0097da	-0.12557927
166	0xbceb7f98	-0.028747365
167	0x3eb0e287	0.34547827
168	0xbd571f6a	-0.052520193
169	0x3cbd4825	0.02310569
170	0xbca7669c	-0.02043467
171	0x3e99dcf3	0.30051383
172	0x3d992db8	0.07479423
173	0x3e168642	0.14699653
174	0x3e9c55fd	0.30534354
175	0x3daaadf3	0.083339594
176	0x3d45aa0e	0.04825788
177	0x3e5200be	0.20508096
178	0xbd2b72ad	-0.04185741
179	0xbc12b6f2	-0.00895475
180	0xbd9794c8	-0.07401425
181	0x3e445225	0.1917196
182	0xbe9d7d3e	-0.30759615
183	0x3e80d1a4	0.25159943
184	0x3e56427a	0.20923796
185	0x3e70e9ca	0.23526683
186	0xbcd350b0	-0.02579531
187	0x3d2f711e	0.042832486
188	0x3e559fc9	0.20861734
189	0x3e0f566e	0.13997814
190	0x3e81c98d	0.25349084
191	0x3de83ee4	0.113401204
192	0x3c05fcb0	0.008177921
193	0xbd996a76	-0.07491009
194	0x3e82bd59	0.25535086
195	0xbc41bd70	-0.011824951
196	0x3d5c8efe	0.053847305
197	0x3e69680b	0.22793595
198	0x3e181715	0.14852555
199	0xbdf581b9	-0.11987633
200	0xbca3e867	-0.020008279
201	0x3bb290c6	0.0054493872
202	0x3dfd3530	0.1236366
203	0x3e81a623	0.25322065
204	0x3c36ce50	0.011157587
205	0x3dd9644f	0.106148355
206	0x3e0540d4	0.13013011
207	0x3e5a87c0	0.21340847
208	0xbcd4c008	-0.025970474
209	0x3e5c8a23	0.2153707
210	0x3dffd25d	0.124912955
211	0xba41fa00	-0.00073996186
212	0x3e1c975e	0.15292117
213	0x3d9058b4	0.07048169
214	0x3e040f5e	0.12896487
215	0xbe81d37a	-0.25356656
216	0xbea1dad5	-0.31612268
217	0x3e4d9088	0.20074666
218	0x3ebf8794	0.37408125
219	0xbb957940	-0.0045615733
220	0x3cc0838d	0.023500228
221	0x3e1ab239	0.15107049
222	0x3e8a61fb	0.27027878
223	0xbbca8eb0	-0.0061815605
224	0x3e8843b6	0.2661416
225	0x3d9630dc	0.07333538
226	0xbceebb04	-0.02914191
227	0x3dc71d8d	0.09722433
228	0x3d97e7e4	0.074172765
229	0xbc6f0770	-0.014589176
230	0x3d46827a	0.048464276
231	0x3e3d0840	0.18460178
232	0x3e0d3fc7	0.1379386
233	0xbeae7389	-0.3407252
234	0x3d991a7e	0.07475756
235	0x3ea70bf5	0.3262631
236	0x3d77c83a	0.060493685
237	0x3e537bc4	0.20652682
238	0x3d1c640a	0.038181342
239	0x3db03b6d	0.086050846
240	0xbc3d3f60	-0.011550754
241	0x3d3d6fae	0.046249084
242	0x3e6932d3	0.22773294
243	0x3dc52087	0.09625345
244	0xbc8a746f	-0.016901223
245	0x3ea58ffe	0.3233642
246	0xbec3a06f	-0.3820834
247	0x3e176c76	0.14787468
248	0x3e43c78b	0.19119088
249	0xbd84fb01	-0.06493188
250	0x3e666785	0.22500427
251	0x3c709f10	0.014686361
252	0xbd4a55bf	-0.04939818
253	0x3e5ddf90	0.21667314
254	0x3e852125	0.2600185
255	0xbc99e342	-0.018785123

linear_relu_stack.2.bias f4 [64]
0	0x3d98a964	0.07454184
1	0x3db6a5a4	0.08918312
2	0x3e32ab17	0.17448078
3	0x3da1f92a	0.079088524
4	0x3e6514cc	0.22371215
5	0x3dc50dc5	0.09621767
6	0x3e49146f	0.19636701
7	0xbb17635d	-0.0023099997
8	0x3e1944cb	0.14967649
9	0xbd440d22	-0.047864087
10	0xbd4abe5b	-0.049497943
11	0xbd61cdd3	-0.05512793
12	0x3e1fca17	0.15604435
13	0x3e5313a5	0.20612963
14	0x3e577ae0	0.21042967
15	0x3e1634c4	0.14668566
16	0x3e28656c	0.1644494
17	0x3cb0a05d	0.021560842
18	0x3d0d7758	0.034537643
19	0x3ce98b6d	0.028508866
20	0x3b30e200	0.0026990175
21	0x3e1136b0	0.14181018
22	0x3df092de	0.11746763
23	0x3df4ad81	0.11947156
24	0xbd186780	-0.03720808
25	0xbc9f25a8	-0.019427136
26	0x3d0a675e	0.033789985
27	0x3d8c7ec5	0.06860117
28	0x3e6f4bfa	0.23368827
29	0x3e68f1ab	0.22748439
30	0xbd95f020	-0.07321191
31	0x3e1f370f	0.15548347
32	0xbd3f54b0	-0.046711624
33	0x3dfae777	0.1225118
34	0x3def58c5	0.11686853
35	0x3d50541a	0.050861456
36	0x3df7a5a7	0.120921426
37	0xbd5192b3	-0.051165294
38	0x3e4c8660	0.19973135
39	0x3dc6a340	0.09699106
40	0x3c33dcde	0.010977952
41	0x3df42090	0.11920273
42	0x3d6a2d77	0.057172265
43	0x3df0f519	0.11765499
44	0x3e05e91e	0.13077208
45	0xbd44a9fb	-0.04801367
46	0x3e5c9680	0.21541786
47	0x3e146cab	0.14494579
48	0xbc406992	-0.01174392
49	0xbd572850	-0.05252868
50	0xbd9b2b05	-0.07576565
51	0x3d46abfd	0.048503865
52	0x3d8b5ce3	0.06804826
53	0x3de6a6bb	0.1126227
54	0x3de113ea	0.109901264
55	0x3e349c2d	0.17637701
56	0x3dce6b10	0.10079014
57	0x3db5771e	0.088606104
58	0x3d2343bf	0.03985953
59	0xbc296939	-0.010340028
60	0x3dba2f7b	0.090910874
61	0x3d8732e0	0.066015005
62	0x3d5d86a3	0.054083478
63	0x3e5b4192	0.21411732

linear_relu_stack.4.weight f4 [32, 64]
0	0xbd9d2232	-0.07672538
1	0x3e2183c9	0.15772928
2	0x3e12a4e0	0.14320707
3	0x3e97e782	0.29668814
4	0x3e5bb3eb	0.21455352
5	0x3df01497	0.11722677
6	0x3e012a22	0.12613729
7	0x3e37ac0b	0.17936723
8	0x3e38cafc	0.18046182
9	0x3d85788a	0.065171316
10	0xbd7f3a44	-0.062311426
11	0xbd8034da	-0.06260081
12	0x3e7fd6fc	0.24984354
13	0x3e5d1c70	0.2159288
14	0x3e324662	0.17409661
15	0x3eb8bc92	0.36081368
16	0x3eca419f	0.3950319
17	0xbe27a885	-0.16372879
18	0xbce40a19	-0.027836846
19	0x3c1420aa	0.009040991
20	0x3c7891b0	0.015171453
21	0x3e1af565	0.15132673
22	0xbcd1d56e	-0.025614467
23	0x3dfa16d1	0.12211383
24	0xbde7b13e	-0.11313103
25	0x3ca1c5b0	0.019747585
26	0xbdf77c47	-0.12084251
27	0xbda24baf	-0.07924592
28	0x3e99625d	0.29957858
29	0x3d2a9348	0.041644365
30	0xbdab17e7	-0.083541684
31	0xbd7c75ea	-0.06163589
32	0xbdfa5ff6	-0.12225334
33	0x3da1e13d	0.07904289
34	0x3e6b77e1	0.22994949
35	0xbca30008	-0.019897476
36	0x3e8944c6	0.26810282
37	0x3d8b91fe	0.06814955
38	0x3ea7c0ea	0.3276437
39	0x3e2e7331	0.1703613
40	0x3ce4fed9	0.027953552
41	0xbd98539f	-0.074378245
42	0xbda5fe37	-0.08105128
43	0x3ead8210	0.33888292
44	0xbd3b9298	-0.0457941
45	0x3b52c5da	0.0032161386
46	0x3e956090	0.29175234
47	0x3d39e1e2	0.045381434
48	0xbd50093e	-0.050790064
49	0xbb8122a0	-0.003940895
50	0xbdc57edc	-0.09643337
51	0xbe5b9721	-0.2144437
52	0x3d8d1f14	0.06890693
53	0x3e8e91fa	0.27845746
54	0x3ea1daea	0.3161233
55	0x3e85d8e0	0.26142025
56	0x3c9bfdcd	0.01904192
57	0x3e7407ff	0.23831175
58	0xbdc8ad14	-0.09798637
59	0xbccf61e6	-0.025315236
60	0x3eb2e0b2	0.34937054
61	0xbeb45076	-0.35217637
62	0xbeb16397	-0.34646294
63	0x3e7f774b	0.2494785
64	0xbdf565de	-0.1198232
65	0xbd3b2135	-0.045685966
66	0x3eb8314e	0.35975116
67	0x3e8792ea	0.26479274
68	0x3cc56c52	0.024099503
69	0x3e5f7b32	0.21824339
70	0xbb6d908e	-0.0036249491
71	0x3ec5eeb1	0.3865867
72	0xbcba8359	-0.02276771
73	0x3ce6e240	0.028184056
74	0x3d0d5658	0.034506172
75	0xbdd6aeba	-0.10482545
76	0x3e3b04d3	0.18263559
77	0x3e2d3acf	0.16916965
78	0x3e4cd41a	0.20002785
79	0x3e84271d	0.2581109
80	0x3edd4684	0.43217862
81	0xbd92e613	-0.071727894
82	0xbd851366	-0.064978406
83	0x3d9e99b1	0.07744158
84	0x3b39ec40	0.0028369576
85	0x3cac86a0	0.021060288
86	0xbc28aa9e	-0.010294585
87	0x3eb80074	0.35937846
88	0xbd83231e	-0.064031824
89	0x3d6e7bf0	0.058223665
90	0x3d876941	0.066118725
91	0xbc7d4407	-0.0154581135
92	0x3e88a5f0	0.266891
93	0xbcfa657a	-0.030565966
94	0x3dd4a7c2	0.1038356
95	0xbc07bc17	-0.00828459
96	0xbc2acae0	-0.010424346
97	0x3d81e00a	0.0634156
98	0x3eec2d66	0.46128386
99	0x3d903808	0.07041937
100	0x3e9ffb58	0.31246448
101	0x3d803bb8	0.062613904
102	0x3ea03805	0.3129274
103	0x3e3bc249	0.18335833
104	0xbdf81f92	-0.121153966
105	0xbd117b9d	-0.035518277
106	0xbd8cd554	-0.068766266
107	0x3e78cd4b	0.24297063
108	0x3e16cdd1	0.1472695
109	0xbd33b896	-0.043877207
110	0x3dd162c6	0.10223918
111	0x3db32b65	0.08748511
112	0xbdf2332c	-0.118261665
113	0xbccdade0	-0.025107324
114	0xbddf8a5c	-0.10915062
115	0xbe2fd1e0	-0.17169905
116	0x3d840c7e	0.06447695
117	0x3edac59c	0.4272889
118	0x3ea74ba3	0.32674894
119	0x3e97b8c3	0.2963315
120	0xbe794ee0	-0.24346495
121	0x3ead7348	0.33877015
122	0x3db83a12	0.08995451
123	0xbd17381e	-0.036918752
124	0x3e2ff5bf	0.17183588
125	0xbeb45ad9	-0.3522556
126	0xbe3df692	-0.1855109
127	0x3ed9e214	0.42555296
128	0x3d01d038	0.031692713
129	0xbe022d04	-0.12712485
130	0xbc46277a	-0.012094373
131	0x3d86f6c8	0.065900385
132	0xbd8f39ac	-0.06993422
133	0xbd97077d	-0.07374475
134	0x3b262f82	0.0025357907
135	0x3ddfe86a	0.10933001
136	0xbdd910c0	-0.10598898
137	0xbd470090	-0.04858452
138	0x3d277f18	0.04089269
139	0xbc0cd960	-0.008596748
140	0xbc916838	-0.01774989
141	0x3d009519	0.03139219
142	0x3d013702	0.0315466
143	0x3d42cd64	0.047559157
144	0x3c44fb9b	0.012022878
145	0xbde0cb46	-0.10976271
146	0xbc848402	-0.016176227
147	0x3a0ccaab	0.0005370776
148	0xbd590330	-0.052981555
149	0x3de4dbed	0.1117476
150	0xbdfeebf1	-0.12447346
151	0xbd231e28	-0.03982368
152	0xbddc8254	-0.107670456
153	0x3d9cbfc8	0.07653767
154	0x3de01d5c	0.109431
155	0x3b13731f	0.0022499037
156	0xbdc0b27e	-0.09409045
157	0xbd2db789	-0.04241136
158	0xbd001345	-0.031268377
159	0xbdb829d6	-0.089923546
160	0x3d20f820	0.03929913
161	0x3da928d0	0.082597375
162	0xbd502a68	-0.05082169
163	0x3d50d900	0.050988197
164	0xbd1092c7	-0.035296228
165	0x3dfedfe2	0.12445046
166	0x3d67b3f3	0.056568097
167	0x3dca8fd5	0.09890715
168	0xbd8a3230	-0.06747854
169	0xbdf8b6d7	-0.12144249
170	0xbd311b42	-0.043238886
171	0x3db62477	0.08893674
172	0x3d4fbf8d	0.050719786
173	0x3cf2cf5f	0.029639898
174	0xbd07e21b	-0.033174615
175	0xbdff3d71	-0.12462891
176	0xbdd673e4	-0.10471323
177	0xbdba1868	-0.090866864
178	0xbd88c910	-0.06678975
179	0x3dfa9b2e	0.122366294
180	0x3bd3ec00	0.0064673424
181	0xbcfbddef	-0.030745475
182	0xbd9b73fd	-0.075904824
183	0xbd3183ee	-0.04333871
184	0xbd847663	-0.06467893
185	0x3d715d01	0.058926586
186	0xbd671b08	-0.056422263
187	0x3d900bff	0.07033538
188	0x3db52a7d	0.088459946
189	0xbdd04976	-0.101702616
190	0xbde54f9f	-0.11196827
191	0x3d674468	0.05646172
192	0xbe85a8b8	-0.26105285
193	0x3e1de4ba	0.15419284
194	0x3e7f027b	0.2490329
195	0x3e3ac6e3	0.18239932
196	0x3e1b5097	0.15167461
197	0x3d163064	0.036667243
198	0x3d06bfdf	0.032897826
199	0x3ec6b4bf	0.38809773
200	0x3e4376b6	0.19088253
201	0xbd93a56c	-0.07209286
202	0xbd336020	-0.043792844
203	0x3c451c50	0.012030676
204	0x3e86e539	0.26346758
205	0x3e841765	0.257991
206	0x3e645907	0.22299586
207	0x3e951249	0.29115513
208	0x3eb82f18	0.3597343
209	0x3c37684b	0.011194299
210	0xbd9441ff	-0.0723915
211	0x3dd88d7d	0.10573862
212	0x3dfff0d0	0.12497103
213	0xbd659bf2	-0.056056924
214	0x3dd2b2e6	0.102880284
215	0x3ebefd9e	0.3730287
216	0xbbd0e8e0	-0.006375417
217	0xbdd96720	-0.10615373
218	0xbce5e9a1	-0.028065505
219	0xbdf18e94	-0.11794773
220	0x3ca185e6	0.019717168
221	0x3d1c8dc2	0.03822113
222	0xbdb1b2c9	-0.08676679
223	0x3c1e6624	0.009667907
224	0x3dd97e3a	0.10619779
225	0x3e192623	0.14955954
226	0x3ee07eef	0.43846843
227	0xbca60a40	-0.02026856
228	0x3ea7e1cb	0.32789454
229	0xbd10569c	-0.035238847
230	0x3e08a942	0.13345817
231	0x3d861ad2	0.06548084
232	0x3c65864b	0.014009069
233	0xbda47ec1	-0.08031989
234	0x3d6ea023	0.058258187
235	0x3e9d38ea	0.30707484
236	0x3dbb0803	0.091323875
237	0xbda6df3f	-0.081480496
238	0x3e409b78	0.18809307
239	0x3c069eed	0.008216602
240	0xbdb2032a	-0.0869201
241	0x3d3819dc	0.044946536
242	0xbdc5aab2	-0.09651698
243	0xbe94b69f	-0.2904558
244	0xbd1b60a8	-0.037933975
245	0x3efab15d	0.48963442
246	0x3e5670ee	0.20941517
247	0x3e61c2bc	0.22046942
248	0xbd9da864	-0.076981336
249	0x3eb03db4	0.34422076
250	0xbdb167a6	-0.086623475
251	0x3cf99b7b	0.030469647
252	0x3ea95636	0.33073586
253	0xbebd38ce	-0.369574
254	0xbe88adf1	-0.26695207
255	0x3ec8916e	0.39173454

linear_relu_stack.4.bias f4 [32]
0	0x3e62ab13	0.22135572
1	0x3e25ff58	0.16210687
2	0x3dd742c6	0.10510783
3	0x3e7cce91	0.24688174
4	0x3cebf06d	0.028801167
5	0x3d8f47fb	0.06996151
6	0x3e7ceaf2	0.24699
7	0xbcd67b70	-0.026181906
8	0x3da60cba	0.08107896
9	0x3bb5f7b2	0.005553209
10	0x3dfd3386	0.12363343
11	0x3df22853	0.118240975
12	0x3dc693d2	0.09696163
13	0xbcfdd163	-0.030983632
14	0x3c103b43	0.008803192
15	0x3d5b608e	0.05355888
16	0x3e04035d	0.12891908
17	0x3e26e2c4	0.16297442
18	0x3de69d61	0.112604864
19	0xbbb81ef6	-0.005618925
20	0x3d67ffa4	0.056640282
21	0x3d2373b9	0.039905284
22	0x3e1afda1	0.15135814
23	0x3c9698ce	0.01838341
24	0x3d145977	0.036218133
25	0x3ddd830c	0.10816011
26	0x3e2eeda1	0.17082836
27	0x3d3f645d	0.046726573
28	0x3d8380f5	0.06421081
29	0xbd14fca1	-0.03637374
30	0x3da4aedb	0.080411635
31	0xbd709904	-0.058739677

linear_relu_stack.6.weight f4 [3, 32]
0	0x3e85fc32	0.26168972
1	0x3e417a38	0.18894279
2	0xbd0848bc	-0.03327249
3	0x3e887800	0.26654053
4	0xbd9f5841	-0.07780505
5	0xbca8765f	-0.020564256
6	0x3e7531c7	0.2394477
7	0xbe07c6ea	-0.13259473
8	0x3e22f64b	0.15914266
9	0xbe27010d	-0.16308995
10	0xbe415f67	-0.1888405
11	0x3d380df8	0.044935197
12	0xbec44e6b	-0.38341078
13	0x3d34ea30	0.04416865
14	0xbe4f8811	-0.20266749
15	0x3c27d73c	0.010244187
16	0x3e915407	0.2838442
17	0xbe782282	-0.24231914
18	0x3e4b648d	0.19862576
19	0xbe5a74d9	-0.21333636
20	0x3e3260f0	0.17419791
21	0xbd482c99	-0.048870657
22	0x3e27850b	0.16359346
23	0xbe8bb84e	-0.2728905
24	0xbe126d89	-0.14299597
25	0xbb8e4b71	-0.0043424894
26	0x3e974604	0.29545605
27	0x3ea49b80	0.32149887
28	0x3e4266a2	0.18984464
29	0xbeb25fe1	-0.34838775
30	0xbde9b3b2	-0.11411227
31	0x3de34a6e	0.11098181
32	0xbe0d3159	-0.13788356
33	0xbe6fb06f	-0.23407148
34	0xbd31504c	-0.043289468
35	0xbe4294b1	-0.19002034
36	0x3d5fd3d4	0.054645374
37	0xbdb4e2f8	-0.08832353
38	0x3e5940c9	0.2121612
39	0x3dffd9ca	0.12492712
40	0xbe14ecc2	-0.14543441
41	0xbed92b00	-0.4241562
42	0x3e93086b	0.2871736
43	0x3d11303b	0.035446387
44	0xbe45e607	-0.1932603
45	0x3e8558d9	0.26044348
46	0xbe2ea596	-0.17055354
47	0x3e1361b9	0.14392747
48	0xbcce7959	-0.025204347
49	0x3e9c6f15	0.305535
50	0xbce66aba	-0.028127063
51	0xbe616c9e	-0.2201409
52	0x3e61ef2e	0.22063896
53	0xbd7d668e	-0.061865382
54	0x3d107ce7	0.035275366
55	0xbed12238	-0.4084642
56	0x3dda9484	0.10672858
57	0xbdd42784	-0.103590995
58	0xbe892aa8	-0.26790357
59	0x3e68b4e7	0.22725259
60	0x3e748c1b	0.23881571
61	0xbdc93776	-0.098250315
62	0xbd8f27a9	-0.069899864
63	0x3e93d990	0.28876925
64	0xbe190d6b	-0.14946525
65	0xbe3902d8	-0.18067491
66	0xbdc4a6e4	-0.09602144
67	0xbde5b2d4	-0.112157494
68	0xbdecc853	-0.11561646
69	0x3d363f18	0.044493765
70	0xbe8ab04a	-0.27087623
71	0x3d7a09fc	0.061044678
72	0x3e24a24b	0.16077535
73	0x3ea56a98	0.32307887
74	0x3df223bd	0.11823223
75	0x3eee209e	0.4650926
76	0x3e4a7f65	0.1977516
77	0x3e5e2257	0.21692787
78	0xbdeb92e9	-0.1150263
79	0xbd82c619	-0.063854404
80	0xbe23dc57	-0.16002022
81	0xbef77078	-0.48327994
82	0x3e9b7d82	0.30369192
83	0x3e4ee721	0.20205356
84	0xbd9ab27e	-0.07553576
85	0x3e035ae8	0.12827647
86	0x3d9423d5	0.07233397
87	0xbe710f8d	-0.23541088
88	0xbdf4aa18	-0.11946505
89	0x3db13a16	0.08653657
90	0x3e0eb7e1	0.13937332
91	0x3e22ce5d	0.15899034
92	0xbda80840	-0.082046986
93	0xbe0d4e75	-0.1379946
94	0x3e000f58	0.12505853
95	0x3e2e8fa2	0.17046979

linear_relu_stack.6.bias f4 [3]
0	0x3e568270	0.20948195
1	0xbe31e5b1	-0.17372777
2	0x3d3abf7b	0.045592766

exp_avg f4 [128, 2]
0	0x3b945c26	0.0045275865
1	0x3ae1263a	0.001717753
2	0x3bc57716	0.006026159
3	0x37639f20	1.35673035e-05
4	0x3b4cbde5	0.0031241116
5	0x3bb4629c	0.005504919
6	0x3b3e51f5	0.002904055
7	0x3ba326ac	0.0049789753
8	0x00000000	0.0
9	0x00000000	0.0
10	0x3b990a44	0.004670413
11	0xbb5f737a	-0.003409593
12	0x00000000	0.0
13	0x00000000	0.0
14	0x00000000	0.0
15	0x00000000	0.0
16	0x00000000	0.0
17	0x00000000	0.0
18	0x00000000	0.0
19	0x00000000	0.0
20	0x3bfca085	0.007709565
21	0x3a3dd260	0.0007241126
22	0x00000000	0.0
23	0x00000000	0.0
24	0xba32e900	-0.0006824881
25	0x3bbfedfe	0.0058572283
26	0x00000000	0.0
27	0x00000000	0.0
28	0x3ba04643	0.0048911883
29	0x3b987d02	0.004653574
30	0xbc3fbc6a	-0.011702636
31	0xba360da0	-0.00069447793
32	0x3b3344fd	0.0027354353
33	0x3af22f1e	0.0018477177
34	0x3bfb0671	0.00766068
35	0xbb00e0ba	-0.0019665197
36	0x00000000	0.0
37	0x00000000	0.0
38	0x3aab73fe	0.0013080833
39	0xbb28aea5	-0.0025738862
40	0x3a6b0464	0.0008965193
41	0x3be6b630	0.0070407614
42	0x3b884bc1	0.004159421
43	0x3b09a9da	0.002100578
44	0x3bb1d094	0.005426476
45	0x3bc9b04e	0.0061550504
46	0x00000000	0.0
47	0x00000000	0.0
48	0x00000000	0.0
49	0x00000000	0.0
50	0x3bf676be	0.0075214794
51	0xbae07412	-0.0017124435
52	0x3bfc2065	0.0076942914
53	0x3a426c52	0.00074166537
54	0x3b84c9a2	0.004052357
55	0xba9eefb3	-0.0012125879
56	0xbb30224b	-0.002687591
57	0x3a50e21e	0.00079682644
58	0x3b439c2a	0.002984772
59	0x3c036227	0.008019007
60	0x3b94c9f8	0.004540678
61	0x3c388641	0.011262477
62	0x3befb206	0.007314923
63	0x3a9c38fc	0.0011918838
64	0x00000000	0.0
65	0x00000000	0.0
66	0xbc43c9d4	-0.011949975
67	0xbb9a9425	-0.0047173672
68	0x3b769330	0.0037624352
69	0x3b9983f1	0.004684918
70	0x00000000	0.0
71	0x00000000	0.0
72	0x3c07f5e4	0.008298371
73	0x3bc0fb8c	0.0058893617
74	0x3bb42616	0.0054977043
75	0xba61c526	-0.0008612446
76	0x00000000	0.0
77	0x00000000	0.0
78	0x3b867d37	0.0041042822
79	0x3b862ffa	0.0040950747
80	0x3b0ac5ee	0.0021175104
81	0x3c09c5b4	0.0084089525
82	0x3b252b3e	0.0025202776
83	0x3c0435c0	0.008069456
84	0x00000000	0.0
85	0x00000000	0.0
86	0x3b976996	0.004620741
87	0x3a45ed2d	0.00075502956
88	0x3b6ad9d1	0.0035835395
89	0x3bc0fba8	0.0058893748
90	0xbb88b94c	-0.0041724797
91	0x3c62f3c2	0.013852062
92	0x3b93b0a7	0.0045071426
93	0x39dc6f8d	0.00042044782
94	0x00000000	0.0
95	0x00000000	0.0
96	0x00000000	0.0
97	0x00000000	0.0
98	0x3c0ee9e3	0.008722755
99	0xba9137ca	-0.0011079249
100	0x37ca5c80	2.412335e-05
101	0xbb3c55df	-0.0028737707
102	0x3b30cd38	0.0026977789
103	0x3c1644af	0.009171649
104	0x3bd04fda	0.0063571753
105	0x3b3c7035	0.0028753404
106	0x3c038441	0.008027137
107	0xba4f7e2c	-0.00079152244
108	0x3b330cfa	0.0027320967
109	0xbb5a5d5b	-0.0033319804
110	0x3beb433b	0.0071796454
111	0xbaaec884	-0.0013334905
112	0x3b9e62d1	0.004833557
113	0x3b5037bd	0.0031771504
114	0xbb54bf72	-0.0032462743
115	0xbc0453d1	-0.008076624
116	0x00000000	0.0
117	0x00000000	0.0
118	0x00000000	0.0
119	0x00000000	0.0
120	0x3c05311b	0.008129383
121	0xb9f3ea4a	-0.0004652313
122	0x3bebb7ed	0.0071935565
123	0xb948c024	-0.00019145064
124	0x3b7357b4	0.0037131133
125	0x3ba0baff	0.004905104
126	0x3c00e09c	0.007866051
127	0x3a3cec03	0.00072067993
128	0x00000000	0.0
129	0x00000000	0.0
130	0x00000000	0.0
131	0x00000000	0.0
132	0x3bc738b4	0.0060797576
133	0x3b2873f7	0.0025703886
134	0x00000000	0.0
135	0x00000000	0.0
136	0x00000000	0.0
137	0x00000000	0.0
138	0x3bc267d4	0.0059327874
139	0xbb4fd0bf	-0.0031710116
140	0x3c0d9b7a	0.0086430255
141	0xba98a740	-0.0011646524
142	0x3bcaae09	0.0061852974
143	0xbad89d1b	-0.0016526313
144	0x3bdf8380	0.006821096
145	0x3b0a2c30	0.0021083467
146	0xb979f361	-0.00023837156
147	0x3bf3a432	0.007435345
148	0x3b6a7d6d	0.0035780326
149	0x3bdcf0fa	0.006742594
150	0x3ba8ecaf	0.005155168
151	0x3b4108ea	0.0029454776
152	0x00000000	0.0
153	0x00000000	0.0
154	0x3a350324	0.000690507
155	0x3be379b3	0.006941998
156	0xbbc19627	-0.005907792
157	0x3b027b4e	0.001990992
158	0x3b92399e	0.004462435
159	0xbb2d7074	-0.0026464732
160	0x3b7db202	0.0038710837
161	0x3bfb42e2	0.007667885
162	0x3b52719d	0.0032111176
163	0x3b41aebc	0.0029553613
164	0xbb3b279e	-0.002855755
165	0xbab2821f	-0.0013619101
166	0x00000000	0.0
167	0x00000000	0.0
168	0x3beee508	0.0072904862
169	0xbb641834	-0.0034804465
170	0x3bce08e7	0.0062876823
171	0x3b0005f1	0.0019534791
172	0x3b4c58b8	0.003118081
173	0x3badd6c6	0.005305144
174	0x3badb1ec	0.005300751
175	0x3c455fa0	0.012046725
176	0x39ce2a8d	0.00039323085
177	0xbb40e4b2	-0.0029433188
178	0x3b563eb1	0.0032691176
179	0x3ba4ef38	0.0050334
180	0x3bbd1932	0.005770826
181	0xbb87b0ca	-0.004140948
182	0x00000000	0.0
183	0x00000000	0.0
184	0x3ba5c8b2	0.005059325
185	0x3b910e52	0.004426756
186	0x3bde6c15	0.0067877867
187	0x3b115981	0.0022178593
188	0x3bbdd3e6	0.0057930825
189	0x3b3d3627	0.0028871389
190	0x00000000	0.0
191	0x00000000	0.0
192	0xbb3eeafc	-0.002913176
193	0xbbe8d926	-0.0071059642
194	0x3bbed0a0	0.00582321
195	0x3b5e176f	0.003388848
196	0x00000000	0.0
197	0x00000000	0.0
198	0x3be189de	0.00688289
199	0x3b92bc8a	0.004478042
200	0x3ad98337	0.0016594891
201	0x3c016852	0.007898407
202	0x00000000	0.0
203	0x00000000	0.0
204	0x00000000	0.0
205	0x00000000	0.0
206	0x3b27062e	0.002548586
207	0x3ba9cfd6	0.0051822467
208	0x3bfa9f53	0.0076483875
209	0x39cc14f4	0.00038925523
210	0x3b02df01	0.0019969346
211	0xbb26f540	-0.002547577
212	0x3b32f724	0.0027307952
213	0x3bf32b95	0.007420967
214	0x3bcfd45c	0.006342454
215	0xbb18da2b	-0.0023323398
216	0x3b7873da	0.003791085
217	0x3c02f247	0.007992334
218	0x3b425910	0.0029655136
219	0x3ba72ffa	0.005102155
220	0x00000000	0.0
221	0x00000000	0.0
222	0x00000000	0.0
223	0x00000000	0.0
224	0x00000000	0.0
225	0x00000000	0.0
226	0x00000000	0.0
227	0x00000000	0.0
228	0x3b6a07a6	0.0035710125
229	0x3b4419fe	0.002992272
230	0x3b3c066d	0.0028690354
231	0x3bb82dbc	0.0056206863
232	0x3bdacd1e	0.006677284
233	0xb9948f0e	-0.00028335344
234	0x3b92b4f8	0.0044771396
235	0x3b34af66	0.0027570366
236	0xbba8d9cd	-0.005152917
237	0xbb9b5977	-0.0047408896
238	0x3b255def	0.002523299
239	0x3be4e502	0.0069853077
240	0x3ad7fb8b	0.0016478164
241	0x3bcc6762	0.00623791
242	0x3bbd1065	0.0057697766
243	0x3b871678	0.0041225515
244	0x3bbe1c5a	0.0058017196
245	0xbb80aad0	-0.0039266124
246	0x00000000	0.0
247	0x00000000	0.0
248	0x00000000	0.0
249	0x00000000	0.0
250	0x3ba4d7e5	0.0050306194
251	0xbb836730	-0.0040101036
252	0x3beb267e	0.0071762195
253	0xbb3a3b00	-0.0028416514
254	0x3bc5f911	0.006041654
255	0x3b8693a7	0.004106957

exp_avg_sq f4 [128, 2]
0	0x3986d263	0.00025715222
1	0x3970db63	0.00022969912
2	0x3941fff0	0.00018501258
3	0x393d852a	0.00018074052
4	0x399bdd64	0.00029728853
5	0x39edac8c	0.0004533272
6	0x39a5c870	0.0003162059
7	0x39e9b525	0.00044576186
8	0x00000000	0.0
9	0x00000000	0.0
10	0x39b0cc1f	0.00033721418
11	0x397577c9	0.00023409644
12	0x00000000	0.0
13	0x00000000	0.0
14	0x00000000	0.0
15	0x00000000	0.0
16	0x00000000	0.0
17	0x00000000	0.0
18	0x00000000	0.0
19	0x00000000	0.0
20	0x39a48a99	0.0003138378
21	0x39b2693c	0.0003402921
22	0x00000000	0.0
23	0x00000000	0.0
24	0x3938237b	0.00017560825
25	0x3961796f	0.0002150291
26	0x00000000	0.0
27	0x00000000	0.0
28	0x39a35ae2	0.00031157496
29	0x394b7872	0.00019404458
30	0x39fa0e80	0.0004769452
31	0x39fc21c1	0.00048090334
32	0x38d08775	9.943444e-05
33	0x3928b791	0.00016090112
34	0x39880380	0.0002594255
35	0x39a75fab	0.00031924
36	0x00000000	0.0
37	0x00000000	0.0
38	0x3980a565	0.0002453729
39	0x39b96f00	0.0003536865
40	0x3948b1e5	0.00019139757
41	0x39e2afc3	0.00043237032
42	0x39c98055	0.00038433322
43	0x39b0fbfb	0.00033757076
44	0x3a1ddd86	0.0006022084
45	0x39a75f4a	0.00031923718
46	0x00000000	0.0
47	0x00000000	0.0
48	0x00000000	0.0
49	0x00000000	0.0
50	0x398a3dcb	0.0002636745
51	0x39b0402e	0.00033617154
52	0x39c4ee56	0.00037561607
53	0x39d09ecf	0.00039791173
54	0x3a016799	0.0004936397
55	0x39a39fa7	0.00031208733
56	0x3a0e1763	0.0005420355
57	0x3a09786c	0.00052440795
58	0x39bb0e63	0.00035678138
59	0x39aeb2e7	0.0003332116
60	0x3a2d5ad2	0.00066129596
61	0x3993f03a	0.00028217008
62	0x3a05111e	0.0005076098
63	0x39d94f42	0.00041448517
64	0x00000000	0.0
65	0x00000000	0.0
66	0x3a14bdab	0.00056740147
67	0x39c0527a	0.00036682544
68	0x3942cce9	0.00018577617
69	0x39a039fe	0.00030560786
70	0x00000000	0.0
71	0x00000000	0.0
72	0x3a442578	0.000748239
73	0x39e416b9	0.00043504479
74	0x3a15a4ad	0.00057084375
75	0x39fbb299	0.00048007516
76	0x00000000	0.0
77	0x00000000	0.0
78	0x39ab6444	0.00032690365
79	0x39d23c78	0.00040099374
80	0x3999f659	0.00029365977
81	0x39dbb08c	0.00041902473
82	0x39a168b8	0.00030786335
83	0x39d5f5d6	0.00040809688
84	0x00000000	0.0
85	0x00000000	0.0
86	0x39dfa720	0.00042658392
87	0x39a61360	0.00031676423
88	0x394e9608	0.00019701582
89	0x3973d785	0.00023254573
90	0x3a32959d	0.0006812455
91	0x3a1c033b	0.0005951409
92	0x398fa418	0.00027397345
93	0x3953ff21	0.00020217571
94	0x00000000	0.0
95	0x00000000	0.0
96	0x00000000	0.0
97	0x00000000	0.0
98	0x39c34421	0.00037244058
99	0x39fa37cb	0.00047725285
100	0x39930a6c	0.0002804579
101	0x3974efb8	0.00023358956
102	0x39d465f2	0.00040511746
103	0x3a0ada4e	0.0005296812
104	0x3a2fd2cb	0.0006707131
105	0x39f6dad8	0.00047083828
106	0x39b83413	0.00035134013
107	0x39e931c0	0.0004447829
108	0x39e7c8f9	0.0004420949
109	0x39fb62c7	0.00047948046
110	0x3963a117	0.00021708418
111	0x3988a008	0.00026059174
112	0x39610811	0.00021460677
113	0x3981fe26	0.00024794153
114	0x3ad68cf6	0.0016368914
115	0x3ab6fdc7	0.001396113
116	0x00000000	0.0
117	0x00000000	0.0
118	0x00000000	0.0
119	0x00000000	0.0
120	0x39908705	0.00027566418
121	0x39bd1208	0.00036062323
122	0x394f2290	0.00019753934
123	0x39869082	0.00025666138
124	0x39881791	0.000259575
125	0x39c56352	0.00037648767
126	0x39dff21a	0.00042714254
127	0x39d9ff2a	0.00041579577
128	0x00000000	0.0
129	0x00000000	0.0
130	0x00000000	0.0
131	0x00000000	0.0
132	0x3912b495	0.00013990917
133	0x3919459d	0.0001461715
134	0x00000000	0.0
135	0x00000000	0.0
136	0x00000000	0.0
137	0x00000000	0.0
138	0x3994f2c0	0.00028409623
139	0x3987dc77	0.00025913466
140	0x39c5bd02	0.0003771559
141	0x3a0196ba	0.00049434195
142	0x39a554ab	0.00031534335
143	0x399dc201	0.00030089918
144	0x3a01d463	0.00049526076
145	0x39c66b69	0.0003784553
146	0x39302e4a	0.00016801912
147	0x39ca28b7	0.00038558777
148	0x398c5b04	0.00026770693
149	0x398d473c	0.0002694669
150	0x39054ea6	0.00012713167
151	0x39278ef0	0.0001597961
152	0x00000000	0.0
153	0x00000000	0.0
154	0x39824516	0.00024847005
155	0x3a0887dd	0.00052082335
156	0x39b0f4ea	0.0003375181
157	0x39c8c776	0.00038295583
158	0x3937f2da	0.00017542709
159	0x39818a29	0.00024707735
160	0x3a053099	0.0005080789
161	0x39b7a915	0.00035030456
162	0x39f3e4fa	0.00046519173
163	0x3a2cf659	0.0006597988
164	0x39324ffe	0.00017005202
165	0x38ebee8e	0.000112501075
166	0x00000000	0.0
167	0x00000000	0.0
168	0x398a876a	0.00026422302
169	0x39c79b8a	0.00038072123
170	0x396b1009	0.0002241732
171	0x39561415	0.00020416112
172	0x392649a3	0.00015858425
173	0x39985aac	0.00029059255
174	0x3a817437	0.0009876554
175	0x39c57f30	0.0003766953
176	0x39d63ffa	0.00040864927
177	0x3a00a20d	0.000490696
178	0x39b49805	0.0003444554
179	0x3a04cedd	0.00050662254
180	0x39a68b3b	0.00031765722
181	0x399cd888	0.00029915967
182	0x00000000	0.0
183	0x00000000	0.0
184	0x39cf4184	0.0003953093
185	0x396bb44c	0.00022478512
186	0x39ad032c	0.00032999495
187	0x3995a0f1	0.00028539405
188	0x3ad96e4a	0.0016588655
189	0x3a0597c9	0.0005096165
190	0x00000000	0.0
191	0x00000000	0.0
192	0x3abb185b	0.0014274226
193	0x3a8f8bbf	0.0010951682
194	0x39ba2c76	0.0003550981
195	0x397a1e0a	0.00023853048
196	0x00000000	0.0
197	0x00000000	0.0
198	0x3a2bf8bd	0.0006560197
199	0x39d52e50	0.0004066103
200	0x39813658	0.00024645287
201	0x39ed65dd	0.00045280057
202	0x00000000	0.0
203	0x00000000	0.0
204	0x00000000	0.0
205	0x00000000	0.0
206	0x39eaaa74	0.00044758955
207	0x3a23dea4	0.00062511326
208	0x39b7a254	0.00035025424
209	0x39c7c368	0.00038101827
210	0x39b53d79	0.0003456881
211	0x3a036b16	0.00050132105
212	0x3982ffc5	0.00024986095
213	0x399b2bbc	0.00029596488
214	0x3994f767	0.0002841309
215	0x3987d85d	0.0002591041
216	0x39c258f5	0.00037068842
217	0x39dde2a2	0.0004232126
218	0x3905703a	0.00012725676
219	0x398040d1	0.00024462354
220	0x00000000	0.0
221	0x00000000	0.0
222	0x00000000	0.0
223	0x00000000	0.0
224	0x00000000	0.0
225	0x00000000	0.0
226	0x00000000	0.0
227	0x00000000	0.0
228	0x39aac30c	0.00032570248
229	0x39b421f0	0.0003435756
230	0x3935f2fa	0.00017352021
231	0x3973503a	0.00023204173
232	0x39e7cc65	0.0004421204
233	0x39e70f54	0.00044071174
234	0x39b652cf	0.00034775442
235	0x39b63a49	0.0003475717
236	0x3969954e	0.00022276232
237	0x3a811639	0.0009848542
238	0x398c6bdc	0.00026783242
239	0x3a03bfcc	0.00050258334
240	0x39a745c4	0.00031904702
241	0x3a1c4621	0.0005961378
242	0x3a2ca3b0	0.00065856706
243	0x39ceabe3	0.00039419447
244	0x398b21da	0.00026537367
245	0x3989cfca	0.0002628549
246	0x00000000	0.0
247	0x00000000	0.0
248	0x00000000	0.0
249	0x00000000	0.0
250	0x39a97d7e	0.0003232769
251	0x3989f2ef	0.00026311676
252	0x3997b5b5	0.00028936347
253	0x39a4a285	0.00031401604
254	0x39f703fd	0.00047114483
255	0x399bdec6	0.00029729883

exp_avg f4 [128]
0	0x3b176cd4	0.0023105638
1	0x3d5b80c2	0.05358959
2	0xbd5cbb14	-0.05388935
3	0xbd551963	-0.052026164
4	0x00000000	0.0
5	0x3d630484	0.05542423
6	0x00000000	0.0
7	0x00000000	0.0
8	0x00000000	0.0
9	0x00000000	0.0
10	0x3de6cfe4	0.11270121
11	0x00000000	0.0
12	0xbd912da3	-0.07088783
13	0x00000000	0.0
14	0x3d2e5db2	0.042569824
15	0xbe2cb4fc	-0.16865915
16	0x38952080	7.110927e-05
17	0x3dd000de	0.101564154
18	0x00000000	0.0
19	0x3d65053c	0.055913195
20	0xbda69d60	-0.08135486
21	0xbc864029	-0.016388016
22	0x3d552d19	0.05204496
23	0x00000000	0.0
24	0x00000000	0.0
25	0x3dcf270a	0.10114868
26	0x3ded30a2	0.115815416
27	0x3bdc08ce	0.006714917
28	0xbdcde2c9	-0.100530215
29	0xbcd083fb	-0.025453558
30	0x3cfe1850	0.031017452
31	0x3de8fc77	0.11376279
32	0x00000000	0.0
33	0xbdafac68	-0.08577806
34	0xbd06195e	-0.032739036
35	0x00000000	0.0
36	0x3d9f3fb7	0.077758245
37	0x3df880f7	0.12133973
38	0x00000000	0.0
39	0xbd02b2be	-0.031908743
40	0xbd812fb7	-0.06307929
41	0xbd4b742a	-0.04967133
42	0x00000000	0.0
43	0x3ab276ea	0.0013615761
44	0xbc982b99	-0.018575476
45	0xbe141e11	-0.14464594
46	0x3c20e938	0.009821229
47	0x00000000	0.0
48	0x00000000	0.0
49	0x3e04c1e6	0.12964591
50	0xbc1bf74f	-0.009519412
51	0xbd5af4e0	-0.053456187
52	0x3de936ea	0.11387427
53	0x3e014174	0.12622625
54	0x3dd9e116	0.10638635
55	0x3daee2de	0.08539365
56	0x3b80101e	0.0039081713
57	0xbd4fd3de	-0.05073916
58	0x00000000	0.0
59	0x00000000	0.0
60	0x3de62dfa	0.11239238
61	0x3db7f018	0.08981341
62	0xbd1fd4ac	-0.03902118
63	0x3dee2178	0.116274774
64	0x00000000	0.0
65	0x00000000	0.0
66	0x3d440856	0.047859512
67	0x00000000	0.0
68	0x00000000	0.0
69	0x3d9db932	0.07701339
70	0x3e076b7e	0.13224599
71	0x3de874fc	0.11350438
72	0x3dcb3c90	0.09923661
73	0xbdb30f9b	-0.08743211
74	0xbc5e51a1	-0.013569267
75	0x3c993022	0.01869971
76	0x00000000	0.0
77	0xbdb013be	-0.085975155
78	0xbdfa21f8	-0.1221351
79	0x3daf5d70	0.08562744
80	0xbbee5aca	-0.0072740065
81	0xbdcdb18e	-0.100436315
82	0x3ccec920	0.025242388
83	0x00000000	0.0
84	0x3de84568	0.11341363
85	0x3da31f2d	0.07964931
86	0xbd13c25c	-0.036074027
87	0x3d576184	0.052583233
88	0x3d4c02a1	0.049807195
89	0xbd840d92	-0.06447901
90	0x3da64f42	0.08120586
91	0x00000000	0.0
92	0x3d50c912	0.050973006
93	0x3db05a90	0.086110234
94	0xbca0ec6a	-0.019643981
95	0x00000000	0.0
96	0xbd5443a6	-0.051822327
97	0x3d8f7522	0.07004763
98	0x00000000	0.0
99	0x3da90b46	0.08254103
100	0xbd9483f8	-0.072517335
101	0x00000000	0.0
102	0x00000000	0.0
103	0xbd96fcae	-0.073724136
104	0x3ddd09b9	0.1079287
105	0x3d781e58	0.060575813
106	0xbd07a02a	-0.03311173
107	0x3d973bd6	0.0738446
108	0xbd17b7fa	-0.037040688
109	0xbd1c68e7	-0.03818598
110	0x00000000	0.0
111	0x00000000	0.0
112	0x00000000	0.0
113	0x00000000	0.0
114	0xbd16707c	-0.036728367
115	0xbccb007d	-0.024780506
116	0x3df1fea4	0.11816147
117	0xbc713428	-0.014721908
118	0x3d5c45ee	0.053777628
119	0xbd82924e	-0.06375562
120	0xbdb34fd6	-0.08755462
121	0x3daa164a	0.083050326
122	0x3da83f90	0.082152486
123	0x00000000	0.0
124	0x00000000	0.0
125	0x3d883716	0.06651132
126	0x3dc097f0	0.0940398
127	0x3da3387a	0.079697564

exp_avg_sq f4 [128]
0	0x3cdd49c3	0.027012711
1	0x3c2bf286	0.010494834
2	0x3d482244	0.048860803
3	0x3d55cae4	0.052195445
4	0x00000000	0.0
5	0x3cc9c7a3	0.024631327
6	0x00000000	0.0
7	0x00000000	0.0
8	0x00000000	0.0
9	0x00000000	0.0
10	0x3d1f1f71	0.038848344
11	0x00000000	0.0
12	0x3c85c3da	0.01632874
13	0x00000000	0.0
14	0x3cbae60b	0.022814771
15	0x3e2f0c36	0.17094502
16	0x3cc59a6d	0.024121488
17	0x3c9a907b	0.018867722
18	0x00000000	0.0
19	0x3d75ae1a	0.05998049
20	0x3cfbf95f	0.030758558
21	0x3d52969d	0.051413167
22	0x3d631462	0.05543936
23	0x00000000	0.0
24	0x00000000	0.0
25	0x3c95cecc	0.018287085
26	0x3d376e0a	0.044782676
27	0x3d58bfcb	0.052917283
28	0x3e04b268	0.12958682
29	0x3c8ed196	0.017433923
30	0x3ddd6be5	0.10811595
31	0x3d9147ad	0.07093749
32	0x00000000	0.0
33	0x3da17801	0.07884217
34	0x3cd0cf03	0.025489336
35	0x00000000	0.0
36	0x3d9e7260	0.07736659
37	0x3dd94bca	0.10610159
38	0x00000000	0.0
39	0x3d489dcd	0.048978616
40	0x3caf8a33	0.021428203
41	0x3c9aa268	0.01887627
42	0x00000000	0.0
43	0x3d4801c4	0.04882981
44	0x3c10728f	0.008816375
45	0x3e76ee86	0.24114427
46	0x3cd27131	0.02568874
47	0x00000000	0.0
48	0x00000000	0.0
49	0x3d3915ae	0.04518669
50	0x3c4f9cfa	0.0126717035
51	0x3cbefb76	0.023313265
52	0x3dcaa346	0.09894423
53	0x3d3fcfec	0.04682915
54	0x3dc802ac	0.097661346
55	0x3c67d344	0.014149491
56	0x3ca6f2a2	0.020379368
57	0x3e3a252a	0.1817824
58	0x00000000	0.0
59	0x00000000	0.0
60	0x3ccede2d	0.025252426
61	0x3c8ab1f9	0.016930567
62	0x3d23304f	0.039840993
63	0x3d5869c8	0.052835256
64	0x00000000	0.0
65	0x00000000	0.0
66	0x3bb88d93	0.0056321113
67	0x00000000	0.0
68	0x00000000	0.0
69	0x3cabe173	0.020981526
70	0x3d2b44f8	0.04181382
71	0x3db9d257	0.09073322
72	0x3d7e0820	0.062019467
73	0x3cf153c1	0.029458882
74	0x3c3d5d36	0.011557868
75	0x3bc333fd	0.005957125
76	0x00000000	0.0
77	0x3d18d878	0.037315816
78	0x3dc44224	0.09582928
79	0x3c972cc8	0.01845397
80	0x3ce44489	0.027864711
81	0x3dc97124	0.09836033
82	0x3cb634fe	0.022242066
83	0x00000000	0.0
84	0x3cc44f0e	0.023963477
85	0x3cc564cf	0.02409592
86	0x3c8d8f33	0.017280197
87	0x3e4d2ff7	0.20037828
88	0x3d921fef	0.07134997
89	0x3d716d8e	0.05894237
90	0x3cc1f588	0.023676649
91	0x00000000	0.0
92	0x3d08d1de	0.03340327
93	0x3d0d2bca	0.03446559
94	0x3eb8f476	0.3612401
95	0x00000000	0.0
96	0x3e10894d	0.14114876
97	0x3d0fed14	0.035138205
98	0x00000000	0.0
99	0x3d8b9d23	0.06817081
100	0x3cd5cfa1	0.026099982
101	0x00000000	0.0
102	0x00000000	0.0
103	0x3da77784	0.08177093
104	0x3d1f7ac7	0.03893545
105	0x3d8e2983	0.069415115
106	0x3c5837eb	0.013196926
107	0x3c9ea356	0.019364994
108	0x3c919da8	0.017775372
109	0x3c947ccd	0.018125916
110	0x00000000	0.0
111	0x00000000	0.0
112	0x00000000	0.0
113	0x00000000	0.0
114	0x3d44538e	0.047931246
115	0x3c11c93c	0.008898076
116	0x3d8e6804	0.06953433
117	0x3d329548	0.043599397
118	0x3d88c333	0.06677856
119	0x3d0fd067	0.035110857
120	0x3d6dbe67	0.05804291
121	0x3d9ea92f	0.07747113
122	0x3ca4f5cd	0.020136738
123	0x00000000	0.0
124	0x00000000	0.0
125	0x3cc6888d	0.024235034
126	0x3caeab01	0.021321775
127	0x3d4e1ce4	0.05032052
