train/model_weights_opt_mac.pth (torch, 136285 bytes, 24 tensors)

linear_relu_stack.0.weight f4 [128, 2]
000000 f2 7d f0 3e a8 7c 20 3e 6d 91 31 bf 70 7c 88 be
       0.4697109 0.15672553 -0.6936253 -0.26657438
000010 c8 0c 06 3e 5c 34 a0 be b0 24 19 bf 28 cf 24 be
       0.13090813 -0.31289947 -0.59821606 -0.16094649
000020 66 6b de be b4 ad d1 be 58 b2 59 bc e0 2a 0b 3f
       -0.43441314 -0.40952837 -0.013287149 0.543623
000030 88 86 21 bf 92 ab 19 3f 8d 52 63 3f 5a 60 48 bf
       -0.63095903 0.6002742 0.8879784 -0.7827202
000040 6c 9d 03 bf 58 cc ee bd 2c 73 92 3e b4 29 73 bf
       -0.5141208 -0.11660069 0.28603494 -0.9498551
000050 21 9a 34 3f 21 e7 26 3f 12 c3 4f 3f 8d 85 42 bf
       0.7054768 0.65196425 0.8115703 -0.7598503
000060 fb 32 08 3f 46 9f e9 3e 11 f6 16 3f 26 ea 6d bf
       0.5320279 0.45629328 0.5896922 -0.9293541
000070 1c a7 2b 3e 0a eb 33 bf 60 d7 b3 bd d0 88 67 3e
       0.16762966 -0.70280516 -0.08781314 0.22610784
000080 d5 24 ad 3e db 9a ce be 6c 01 0f 3e ef 7a 14 3f
       0.33817163 -0.4035252 0.13965386 0.5800008
000090 68 60 0d bf 65 17 e1 be da eb c5 3e d9 c2 21 3f
       -0.5522523 -0.4396316 0.38656503 0.6318794
0000a0 b8 22 94 bd 91 1d 16 bf 80 e6 5b 3e 42 41 fb 3e
       -0.072331846 -0.58638865 0.21474648 0.49073225
0000b0 23 03 b1 be a2 f4 27 bf 1a ee 9c 3e 87 eb c8 3d
       -0.34572706 -0.65607655 0.30650407 0.09810548
0000c0 00 4d 28 bf 37 cf 81 3f e7 d6 0f bf 9f b7 58 bf
       -0.6574249 1.0141362 -0.5618729 -0.84655184
0000d0 95 d0 ee bd 21 84 55 be 6a e7 e8 3e 00 05 30 3d
       -0.116608776 -0.20851184 0.45489055 0.04297352
0000e0 7f 9b 13 3f 1a 1f fc be 2d 25 65 3f 65 d9 d3 3e
       0.57659143 -0.4924248 0.8950985 0.41376796
0000f0 04 68 82 bf b1 f0 85 bf 5c 34 27 3e 67 0d a8 be
       -1.0187993 -1.0464078 0.16328567 -0.32822725
000100 b4 18 62 3e 25 b3 97 be b0 1e 64 3d 77 39 2d 3f
       0.22079736 -0.29628864 0.05569333 0.6766581
000110 d8 54 83 3f a7 8c 28 3f d5 eb 16 bd 0a 45 20 bf
       1.0260267 0.6583962 -0.036846 -0.62605345
000120 63 e0 1f bf cf a8 57 3d 4f ac 04 3f 8c 14 3a 3e
       -0.6245176 0.052651223 0.5182542 0.181719
000130 f2 e1 0a bf f6 a2 27 3e 16 af 94 3e 4c 10 48 be
       -0.54251015 0.16370758 0.2903983 -0.19537467
000140 75 0e 91 3f 46 48 14 3f fa 5b 1e bf c0 4b ee be
       1.1332537 0.5792278 -0.61859095 -0.46542168
000150 98 ef a7 bd 8e 99 b8 3e 98 99 15 be c0 72 f5 3c
       -0.08199996 0.36054653 -0.14609373 0.029961944
000160 5e 56 5d 3f ca 50 9e be 24 1a 22 3f 6f 62 f6 3e
       0.8645991 -0.30921012 0.6332114 0.48121974
000170 00 b4 e7 3e 23 85 06 bf 60 1f f2 3c e0 5f 00 3e
       0.45254517 -0.525469 0.029555976 0.12536573
000180 42 dd 8d be bb 94 f5 be a0 57 53 bf 98 49 f1 3e
       -0.2770787 -0.47965035 -0.8255558 0.4712646
000190 ff fa 9d bf 54 22 36 bf 2e 69 d4 3e 56 c3 62 3e
       -1.2342223 -0.7114613 0.41486496 0.22144827
0001a0 fd b6 1b bf bb a9 d2 be 88 f3 39 bf 1e c3 01 bf
       -0.6082609 -0.4114512 -0.72637224 -0.5068835
0001b0 fb d7 9f 3e 38 20 e3 be bf e2 91 bf c5 5b 75 bf
       0.31219468 -0.44360518 -1.1397322 -0.95843154
0001c0 32 9c 07 3f 1b af 1a 3d 37 cf b3 3e 57 e6 27 3f
       0.5297271 0.03776465 0.3511903 0.65585846
0001d0 e2 0f 92 3e bd fb ec be c0 05 3c 3c c9 21 cb be
       0.28527743 -0.4628581 0.01147598 -0.39674214
0001e0 d6 8e 4e 3f 54 e9 81 3c 5b f2 05 3f 20 d2 08 3f
       0.806867 0.01585833 0.5232293 0.53445625
0001f0 a0 37 18 bf 05 5e 38 3f 33 30 49 3f 0c 93 97 be
       -0.59459877 0.7201846 0.7858917 -0.29604375
000200 89 d7 16 3f 2a f4 04 bf 74 b6 66 3f df 08 cd 3d
       0.5892263 -0.51935065 0.9012215 0.10011458
000210 50 17 f0 3e c2 a5 34 3f 70 d5 0f bd 46 74 a0 3e
       0.46892786 0.70565426 -0.03511566 0.3133871
000220 b3 22 e3 be 15 be e1 3e 82 7b 5e 3f 2c 6e e9 be
       -0.4436241 0.44090334 0.8690721 -0.45591867
000230 f1 06 c7 be 28 f0 fe bd d9 99 7f 3f b1 2f 15 bc
       -0.38872483 -0.1244815 0.9984413 -0.009105609
000240 95 22 65 3f 20 27 76 bf 89 fc 29 bf 52 3b b9 3e
       0.89505893 -0.9615345 -0.66400963 0.3617807
000250 ed 00 e7 3b 2a 76 b5 be 79 8a 19 3f 8c 45 22 3e
       0.007049671 -0.35441715 0.5997692 0.15846843
000260 8f 71 13 bf b7 c6 2f 3c 78 00 c4 be c7 eb d4 be
       -0.5759515 0.01072853 -0.38281608 -0.41586134
000270 c0 c3 88 be b0 be 48 bd 84 bd a3 3f 58 bd e1 be
       -0.26711845 -0.04900998 1.279221 -0.4408977
000280 f0 ab 88 3f 49 9a 45 bf e7 52 66 be cd 88 1f 3f
       1.0677471 -0.77188545 -0.22492562 0.62318116
000290 62 de 5e 3f ac 88 05 3e 79 2e 3f bf 81 34 bd be
       0.8705808 0.13040417 -0.74680287 -0.3695412
0002a0 83 24 2d 3f 90 ce 2d 3e fa 42 82 bf 47 96 8c 3e
       0.6763384 0.16973329 -1.017669 0.27458403
0002b0 dd 9a 94 be 28 55 24 3e c0 f3 cc bd 2e 23 67 be
       -0.290244 0.1604811 -0.10007429 -0.22572014
0002c0 01 59 09 bf 69 9f 8a 3d f0 31 3e 3f c0 f8 3c bf
       -0.53651434 0.06768686 0.7429495 -0.7381706
0002d0 c4 db 1e be f2 0a 96 3e dc 7d 07 be d8 36 cd bd
       -0.15513521 0.29305226 -0.13231605 -0.10020226
0002e0 57 05 7c be 9e 1a 82 3e 9f 08 57 3f ef 3e 1b bf
       -0.24611412 0.25410932 0.8399753 -0.60642904
0002f0 70 28 06 bf 70 21 05 bf 4c 94 34 be 67 e9 18 3f
       -0.5240545 -0.52004147 -0.17634696 0.59731144
000300 85 19 57 3e a3 09 5e 3f 44 cf 4b 3f f0 11 fa be
       0.21005829 0.86733454 0.7961314 -0.4884181
000310 f7 e3 83 be c1 99 55 3f 4d bb 1d bf 66 9a 8d 3e
       -0.2575986 0.83437735 -0.61613923 0.2765686
000320 e5 7b 48 bf f4 d7 49 3f 0f bd c6 be 13 0f e2 bc
       -0.7831405 0.78845143 -0.38816115 -0.027595079
000330 74 5a 73 3c 3c c1 5b 3f 24 26 f3 be e9 56 c4 be
       0.014853109 0.8584173 -0.47490036 -0.38347557
000340 cb eb 14 bf 3c 4f 1c 3e b0 23 35 3d a8 24 64 be
       -0.5817229 0.152646 0.044223487 -0.22279608
000350 7a 7e 82 be 02 68 5c 3f 0b f3 02 bf 72 d2 41 be
       -0.2548712 0.86096203 -0.51152104 -0.18927935
000360 4d fb 12 3f e7 64 34 3f 21 d4 32 3f 38 ef 85 bd
       0.57414705 0.70466465 0.69854933 -0.06539768
000370 22 a5 cd 3e a6 47 a3 3e b0 6e 0f be 18 84 f6 3d
       0.4016505 0.318906 -0.14007068 0.12036914
000380 c8 92 75 3e 8d 46 27 bf 6b ff 0f 3f c5 c4 96 be
       0.23981774 -0.65342027 0.5624911 -0.29446998
000390 53 51 d5 be c8 09 81 3d e6 1a a1 3e e2 a5 eb be
       -0.41663608 0.06300694 0.31465834 -0.46024996
0003a0 51 46 40 bf 5d ee 3e bf 22 7e 4d 3f 4a 11 0c 3f
       -0.75107294 -0.74582464 0.8027059 0.5471388
0003b0 6e ab ca be a7 72 1d bf f1 20 93 be dd b2 2b 3f
       -0.39583915 -0.6150307 -0.2873607 0.670698
0003c0 62 3e 99 bf 44 19 db be 96 31 76 bf 5e 2b 3c 3f
       -1.1972163 -0.42792714 -0.9616941 0.73503673
0003d0 9a fb 10 3f 20 34 3a 3f 4d b9 16 be ba 04 4c 3e
       0.56633914 0.72735786 -0.14719124 0.19923678
0003e0 ff 64 bf be de 43 80 be a2 10 e4 3e 65 4c 07 3f
       -0.3738174 -0.2505178 0.4454394 0.52850944
0003f0 5e ba cb 3a 5b 88 23 3e de 5f a0 3e df 6a 13 3f
       0.0015543213 0.15969984 0.3132314 0.5758495

linear_relu_stack.0.bias f4 [128]
000000 4e d6 cf be 4e c3 2d 3f 53 33 22 bf cc 46 12 bf
       -0.4059319 0.67876136 -0.63359565 -0.5713928
000010 82 83 db be 63 6d 86 3e c4 5c bd 3e ae ab 08 be
       -0.4287377 0.2625533 0.36984837 -0.1334674
000020 13 13 1b bf c0 9a a2 3e d0 41 81 3e 86 c0 69 3e
       -0.6057598 0.3175869 0.25245523 0.22827348
000030 06 33 1a bf 50 02 af b9 6b 8c 06 bf fe 65 2d bf
       -0.60234106 -0.00033380324 -0.5255801 -0.6773375
000040 3a df c3 3e 26 ba 1f bf 28 4c 92 be 28 78 e5 be
       0.38256246 -0.62393415 -0.28573728 -0.44818234
000050 44 9f a8 be 5a 0e 0d bf c2 ae 1d bf b8 94 c9 3e
       -0.3293401 -0.55100024 -0.61594784 0.39371276
000060 26 ed 06 3d a3 b2 42 3b 37 d8 21 3f 21 09 00 bf
       0.032941006 0.0029708527 0.6322054 -0.5001393
000070 da 85 21 bf 05 e5 28 3f 13 d5 40 3e 68 93 15 bf
       -0.63094866 0.65974456 0.18831281 -0.5842805
000080 1a 1d b1 be 0d 72 e8 be ad a0 aa 3e bb 76 3d 3e
       -0.34592515 -0.45399514 0.3332571 0.18502323
000090 bd 67 d8 3e 33 4c e8 be 00 0b 93 bc 93 d4 b5 be
       0.42266646 -0.45370635 -0.017949581 -0.35513744
0000a0 e2 ed ba 3d f5 b0 03 bf da f0 60 be 5b 3e 1d bf
       0.09127404 -0.5144189 -0.21966878 -0.6142327
0000b0 e2 b1 27 3f 5d 7f 00 be ff 30 25 3f 2f c3 22 bf
       0.655058 -0.12548585 0.6452789 -0.63579077
0000c0 48 a7 be be 4d 1c 09 3f 5e 14 a9 37 bb d9 b8 3e
       -0.37237 0.5355881 2.0155854e-05 0.36103615
0000d0 ac 30 02 bf 1f 3e 10 3f d2 89 84 3e 42 c1 10 3e
       -0.5085552 0.5634479 0.258864 0.14136222
0000e0 a1 e5 e8 3e 20 47 1f 3f d0 cd 0e bf 9c 73 a3 3e
       0.45487693 0.62217903 -0.55782795 0.3192414
0000f0 fa e0 84 b8 4c 3d d4 3d 63 73 9a 3d b5 3d 20 3f
       -6.336156e-05 0.10363254 0.075415395 0.6259416
000100 37 30 2d bf a4 13 ea 3d b2 f5 9c be a0 13 51 be
       -0.67651695 0.114295274 -0.306562 -0.20417643
000110 59 29 ad 3e 67 87 12 3d 64 c7 d5 be 6c d8 b5 3c
       0.33820608 0.03577366 -0.41753685 0.022197925
000120 c3 d3 43 3e 91 6c 3e 3e 85 a4 06 3f b1 06 16 bf
       0.1912375 0.18596102 0.52594787 -0.5860396
000130 93 14 2b 3f c7 19 08 3f cc b5 a3 be 0e 84 3f 3d
       0.6682827 0.53164333 -0.31974638 0.046756797
000140 c6 19 59 3d 02 ad 11 3f b6 f3 89 3e 11 f9 a4 3d
       0.053003095 0.56904614 0.2694375 0.08055318
000150 2c e0 25 bf 62 c8 0e 3d 9d 1c a9 be 3a cb 01 bf
       -0.64795184 0.03485907 -0.33029643 -0.50700724
000160 3c 94 43 be d3 32 24 3f ee 6a e5 be 74 49 67 be
       -0.19099516 0.6414005 -0.44808143 -0.22586614
000170 76 6d da 3e 5d 85 2a 3d a1 10 0d bf c5 11 04 bf
       0.42661637 0.04163109 -0.551035 -0.51589614
000180 c6 73 9b 3c 3b 11 38 3f 07 9c 8d bc 4f d8 07 3f
       0.018976104 0.7190129 -0.017286314 0.53064436
000190 2c 31 1a 3f 5d 7b f1 bb 03 7c 12 3f dd af 85 3e
       0.6023128 -0.0073694424 0.57220477 0.26110736
0001a0 76 c7 a0 3e 0b e1 00 bf 9c fe f7 3d 39 ed 11 3f
       0.31402177 -0.5034339 0.1210911 0.570026
0001b0 45 02 24 3f 68 c9 04 bf 40 45 17 bf 9e e8 17 bf
       0.64065963 -0.5186982 -0.5909004 -0.5933932
0001c0 02 96 d8 be 0a d1 f4 be 34 3d 0b bf 05 82 10 3d
       -0.42301947 -0.47815734 -0.54390264 0.035280246
0001d0 90 ea f0 3e 17 7d 13 3a de b3 77 3e 86 a3 d1 3e
       0.47053957 0.0005626245 0.24189708 0.4094507
0001e0 5b c8 40 3d 7a 8d 88 3b 7f 3b 26 3d a7 83 78 3e
       0.047066074 0.004167256 0.040584084 0.24268971
0001f0 4c 08 e9 3e 8d e0 c7 3e 1f a3 15 3f d9 d2 e6 be
       0.45514143 0.39038506 0.5845203 -0.4508274

linear_relu_stack.2.weight f4 [64, 128]
000000 78 09 36 bc 47 cf 3d 3d 02 4c 4a 3d d7 90 86 3d
       -0.011110656 0.046340253 0.049388893 0.06570595
000010 c0 70 dc 3b 3b 4e 58 bd 60 f4 3f 3d 95 7a 12 be
       0.006727308 -0.05280898 0.046863914 -0.14304574
000020 e6 f1 73 3d ba af 96 3b e7 69 d1 3c 52 a1 e6 bc
       0.059556864 0.004598585 0.025563193 -0.028153095
000030 da 61 78 3d f1 46 15 be d8 bf 23 bc 4c f6 0f 3d
       0.060640194 -0.14577843 -0.00999447 0.035146996
000040 8b 39 94 3a 00 0e 44 b9 8a e2 d2 3d f0 b4 b4 3c
       0.0011308653 -0.00018697232 0.10297115 0.022058934
000050 2f c6 99 3d 22 d5 61 3d e4 bb 7b bd 2d a5 a9 bc
       0.07508504 0.0551349 -0.061458483 -0.020708645
000060 f0 77 90 3b 82 29 fb bd 90 7f 0f 3c ea ed 09 3d
       0.004408829 -0.12263776 0.008758441 0.03367416
000070 96 36 12 bd 47 c1 4e bd 9c a6 a9 3d 2d 13 95 3d
       -0.03569659 -0.050477292 0.08283731 0.07279048
000080 ca 07 fa bc d8 b6 2e bd dd 34 c4 bc f2 33 80 3d
       -0.030521292 -0.042654842 -0.023950988 0.06259908
000090 6a 11 9b bd 34 5a be bc 17 55 a0 3d 12 6e 9b bd
       -0.07571681 -0.023236372 0.078287296 -0.075893536
0000a0 ac 22 5d 3d e7 8d 62 bd 85 9d 93 3d 6e 5d 17 3d
       0.053988144 -0.05531111 0.07207779 0.036954336
0000b0 28 05 70 bd 00 36 52 bc 2f 4a bb 3d 66 04 d7 bc
       -0.058598667 -0.012830257 0.09145009 -0.026247215
0000c0 65 2f 2b bd 9b d5 b9 bd a4 42 34 bd 3d ea a8 3d
       -0.041793246 -0.09073945 -0.044008866 0.082478024
0000d0 47 87 9c bd 75 27 5b 3d b4 66 06 3d d1 d1 95 3d
       -0.076429896 0.053504426 0.03281279 0.0731541
0000e0 1c e1 5d 3d 1c ca 99 bc e4 0f 92 bc 64 24 99 bd
       0.05416976 -0.018773131 -0.017829843 -0.07477644
0000f0 d4 d8 59 be ef 19 64 bd bc 94 f4 bc 9f bc 98 3d
       -0.2127412 -0.055688795 -0.029856078 0.074578516
000100 00 a3 30 3a d4 a2 93 3d a7 c9 47 bc 23 f5 a0 3d
       0.0006738156 0.072087914 -0.012194074 0.07859256
000110 6a e1 1d 3c 4d 46 40 bc 7e dd 2f 3d c8 f5 89 bc
       0.009636262 -0.011735511 0.04293584 -0.01684083
000120 83 59 88 3c 0e d7 aa 3c df 18 35 bd 7e d5 59 3d
       0.016644245 0.0208545 -0.044213172 0.053182118
000130 44 e4 8f 3c 73 c7 8f 39 bb 4a a0 3d c5 db e4 3d
       0.0175649 0.00027423687 0.07826754 0.1117473
000140 7e b8 19 3d 99 93 6e bc 22 9a 4f 3d e4 94 e3 3d
       0.03752946 -0.014561557 0.050684102 0.11112383
000150 2e c7 4b 3d b0 36 76 3b 96 e0 55 3d 17 d0 af bd
       0.0497505 0.0037569217 0.052216135 -0.08584612
000160 7d 20 92 3d ff 39 97 3d 88 b6 cd bc d8 f2 6a bd
       0.07135103 0.07384109 -0.025111452 -0.0573605
000170 03 36 aa 3d 43 e2 76 3d f5 57 59 bd 72 0b 5b 3d
       0.08311083 0.060274374 -0.053062398 0.053477712
000180 c3 df ed bd 5a 7b a2 bd bc 05 93 3c d0 ab 79 3d
       -0.11614945 -0.07933684 0.01794707 0.06095487
000190 0e 4e 5b bd 27 a4 ff 3d 16 29 03 bd 45 d7 69 3d
       -0.053541236 0.124824814 -0.032021604 0.057090063
0001a0 3b d2 30 bd d0 eb e9 bc cb f3 77 bd 37 fa b6 3d
       -0.04316924 -0.028554827 -0.060535233 0.089344434
0001b0 8e b5 b9 3c d0 c9 4e bd 18 69 0d bc 50 0e c4 3c
       0.02266958 -0.050485432 -0.008631013 0.023932606
0001c0 75 be 28 bd 0c ce d4 bc ec 64 b0 bd 58 66 f1 3d
       -0.04119726 -0.025977157 -0.08612999 0.11787099
0001d0 e6 43 bc 3d 21 a5 21 bd a9 cc 48 3d 2e 92 40 3d
       0.09192638 -0.03946412 0.049023304 0.047014408
0001e0 d9 98 64 bc c3 7d 03 be 85 dc 4f 3d c7 26 db ba
       -0.013952457 -0.12840943 0.050747413 -0.001671993
0001f0 49 36 b2 3d 74 97 53 bd 7e 36 f7 bb 68 bb 60 bc
       0.0870176 -0.05165811 -0.007544338 -0.013716556
000200 03 77 80 bd b6 0d 5f bd 9f 71 20 bd 02 ec 92 bd
       -0.062727 -0.054456435 -0.039170858 -0.07173921
000210 19 32 b4 3d bd 8a 43 3d 7a ec c1 bc 56 f9 7a bc
       0.08798618 0.047739733 -0.023672331 -0.015318235
000220 ac 33 9b bc f3 18 a4 bd 14 4f ce bc 99 40 b4 3c
       -0.018945538 -0.08012571 -0.025184192 0.022003459
000230 d6 13 f9 bc b6 54 e2 be a1 a5 aa 3d 20 2d 83 3c
       -0.030404966 -0.44205254 0.083323725 0.016012728
000240 a9 d0 92 bd d9 08 6e bd 14 d3 08 3e 33 ed 8b bd
       -0.07168705 -0.058113907 0.1336177 -0.068323515
000250 10 3b 84 bc 8c 2c a8 3c 38 75 12 3c 90 3f f9 bc
       -0.016141444 0.020529054 0.00893908 -0.030425817
000260 22 02 6b 3b a5 3a b8 3d 8b 7d 34 3c 7a bb 12 bd
       0.0035859426 0.089955606 0.01101626 -0.035823323
000270 75 d2 ab 3d fb 83 8b 3d c0 48 d6 3c be 78 4b 3d
       0.08389751 0.06812283 0.026157737 0.049675696
000280 86 bc 0b 3d f0 bf b1 bd d2 09 3c bd d1 47 ca 3c
       0.034115337 -0.08679187 -0.045907803 0.024692448
000290 f8 52 ae 3c f6 77 6b 3d 4d f0 15 3d e6 40 8d bd
       0.021279797 0.05748745 0.03660612 -0.06897144
0002a0 5f a0 98 3b 60 6a 83 3c e8 4c 43 bc 14 d4 89 bc
       0.0046577896 0.016041934 -0.011920191 -0.01682476
0002b0 04 b5 af bd 69 a0 f8 3d 7e 6d 8c bc 28 e2 65 bc
       -0.08579448 0.12139971 -0.017142054 -0.014030971
0002c0 f7 ca 9e bd 72 98 b6 3d d3 60 81 3e d1 db 1c 3d
       -0.07753556 0.089157954 0.25269184 0.03829557
0002d0 ae 9b 44 3d c3 c4 b7 3d c4 8e a6 3c 28 74 a1 3d
       0.04800003 0.08973076 0.020331748 0.07883483
0002e0 06 fa 95 3d 66 d2 92 3c 7a 0d 35 3d 55 db ba bb
       0.07323079 0.017922591 0.044202305 -0.005702416
0002f0 4a 5b 31 3e 50 df a5 bd 36 e9 3c 3d 5d 8e 64 bd
       0.1731998 -0.08099234 0.046120845 -0.05579983
000300 e0 7c 1f bc b2 de f1 bd 0f 02 73 3c f8 d0 a6 bc
       -0.009734362 -0.11810054 0.014832034 -0.020363316
000310 b8 61 f3 3c 00 20 23 be c1 0d 9e bd 0a 01 02 be
       0.029709682 -0.15930176 -0.07717467 -0.12695709
000320 06 5e 0d be e1 7d 8b 3d 55 d9 98 bd 60 19 4e bc
       -0.13805398 0.06811119 -0.07463328 -0.012579292
000330 5e 93 95 bd 27 c0 b6 3d 70 c3 4e bc da 28 8a bd
       -0.07303499 0.08923369 -0.012619838 -0.06746073
000340 6b 4d 07 be 02 8c cc 3b b8 ca 0d 3c ff ee b9 3d
       -0.13213126 0.006242276 0.008654289 0.09078788
000350 27 1d 9a 3d f2 ad b6 3c d3 9d a4 3d 82 94 ed bc
       0.075250916 0.02229974 0.08037915 -0.029001478
000360 76 cc ee 3d 28 17 c3 3b e0 d0 12 3b a0 03 36 bc
       0.116600916 0.005953688 0.0022402331 -0.011109263
000370 fa bf 57 bd e0 8e 4f be 0c 60 7a bd 75 ce b0 3d
       -0.052673317 -0.20269346 -0.061126754 0.086331286
000380 3f 95 19 3e fe 89 4e 3b e6 b0 f9 3c ca 76 4c bd
       0.14998339 0.0031515355 0.03047986 -0.049917974
000390 88 b0 26 3d 62 13 c5 bc 7c 83 c7 3d f7 1d 50 3c
       0.040695697 -0.024057094 0.097418755 0.012702457
0003a0 35 58 82 3d 01 5e 8f 3d 80 1f fd 3d 31 8a 0e bd
       0.063644804 0.07000352 0.12359524 -0.03479976
0003b0 5e 61 ad 3d d8 0d cf bc 26 1a 42 3d f7 2d af bd
       0.08465837 -0.025275156 0.04738822 -0.08553689
0003c0 bd a4 9d 3d 07 0d a7 bd 9e 76 08 3d ad 38 c2 bd
       0.07697437 -0.08156782 0.033316247 -0.09483466
0003d0 98 7d de bb 7d a8 85 3d ca 5a 84 3d 06 8a 55 3d
       -0.0067898743 0.06526277 0.06462629 0.052133583
0003e0 62 9b 33 bd b4 5a e6 3d a0 f2 f5 3d de 1b aa 3c
       -0.043849356 0.11247769 0.12009168 0.020765241
0003f0 2b 2b 14 3d 7c 51 9d 3d eb 18 4b 3d 78 8f f6 3c
       0.03617398 0.076815575 0.04958431 0.030097708

linear_relu_stack.2.bias f4 [64]
000000 9a d3 94 3d ad 89 e6 bc 73 b9 6b 3d 10 9b 81 3c
       0.07266922 -0.02814182 0.057549905 0.01582101
000010 42 d5 4c bd c0 62 2b bd 7c 0d 3f 3d 19 1d 86 bd
       -0.050008066 -0.041842222 0.04664372 -0.06548519
000020 13 9a 8a 3d 9a 3a c7 3a 26 22 6e bd 87 5f 5f bb
       0.067676686 0.001519996 -0.058138035 -0.0034084038
000030 64 6e dd 3c f9 fe 01 bd 62 e8 4a bd f5 f5 77 3c
       0.027030177 -0.0317373 -0.049538024 0.015134324
000040 83 ee 65 bd f2 97 8c bc 5e 43 96 3d 70 6b 3d bd
       -0.056135666 -0.017162297 0.07337068 -0.04624504
000050 b7 91 d5 3d 81 13 f1 3c bd 8a 8a 3d 12 b6 5d bd
       0.104281835 0.029428245 0.067647435 -0.054128714
000060 1a fe 9a bd cd 5d 85 bd 4e f6 e8 3c 01 9d 97 3d
       -0.07567997 -0.06512032 0.02843776 0.07402993
000070 a2 78 19 3d ec 1d d5 3b 44 5f b7 3d 8c 37 82 3d
       0.03746856 0.006503811 0.08953717 0.06358251
000080 d4 0e 2e 3d 85 67 4b bd f4 f5 d4 3c 62 41 63 3d
       0.04249461 -0.04965927 0.025996186 0.055482276
000090 12 25 d7 bc 91 ec 2a bd 3d 1d c5 3c 88 01 a1 3d
       -0.026262794 -0.041729514 0.024061793 0.0786162
0000a0 a2 4c 13 3d 10 c2 c1 3c df d4 8c bd 28 eb ac bc
       0.035961755 0.023652107 -0.068765394 -0.021108225
0000b0 08 89 03 bd 95 0a 3a bd d6 e3 1f 3d d2 e4 5a bd
       -0.032113105 -0.045420248 0.03903564 -0.053440876
0000c0 52 67 00 3c 98 3a 16 3c 95 22 c6 bc 52 ce 14 3d
       0.0078371335 0.009169243 -0.024186412 0.036329575
0000d0 db 22 c0 bc 26 62 75 bd 90 17 c7 bc 9a d2 b2 3d
       -0.02345412 -0.059908055 -0.024303228 0.08731575
0000e0 98 d2 3d 3c ea e0 74 bd f1 cd 04 3c 26 23 ac bd
       0.011585854 -0.059784807 0.008105741 -0.084051415
0000f0 de 89 6c 3d f1 d9 ad bc c1 ce 7b bd e2 e3 da bc
       0.057748668 -0.021222087 -0.061476473 -0.026719991

linear_relu_stack.4.weight f4 [32, 64]
000000 56 ee 81 bd 92 6e d9 bd 01 25 a5 3d 10 18 d1 3c
       -0.06344287 -0.10616793 0.080636986 0.02552417
000010 dc 63 40 3d 7c 6a 86 3d d2 32 46 3e 83 ae b2 bd
       0.046970233 0.06563279 0.19355324 -0.08724692
000020 e5 80 bb 3c 72 91 f4 3d d6 de 84 3d cf 7f f5 be
       0.02288861 0.11941804 0.06487815 -0.47949073
000030 16 14 bc 3d 69 cd 71 bd 2e ba e5 3d d1 3f 0e be
       0.091835186 -0.059033785 0.112171516 -0.13891532
000040 cf cd 42 bd c6 6d 56 3e 8d 19 76 bd 64 e1 b1 3d
       -0.047559556 0.20940313 -0.06008296 0.08685568
000050 c0 df 23 bd 4c ca 76 be 5c 58 9f bd 88 c1 82 3d
       -0.040008307 -0.24100608 -0.07780525 0.063845694
000060 78 f4 f5 bd 08 93 04 3e 15 20 4b 3d 41 f5 24 be
       -0.12009519 0.12946713 0.049591143 -0.16109182
000070 35 9d 00 bd 95 f6 80 3d 17 23 f7 bc d2 8e a8 bd
       -0.031399924 0.06297032 -0.0301681 -0.08230366
000080 cb a6 7c 3d 70 a5 86 3d 2b 80 47 be 53 d1 ad bd
       0.061682504 0.065745234 -0.19482486 -0.08487191
000090 7d 40 ab 3b f4 2e 68 3d b9 6c 57 bb 3f f4 a7 3d
       0.0052261935 0.056685403 -0.00328712 0.08200883
0000a0 62 3e c4 bd 20 58 30 bc 74 1a 96 3d 21 67 eb bd
       -0.09582211 -0.010763198 0.07329264 -0.1149428
0000b0 c9 19 88 bd 6f a4 35 bd 80 0d 8b 3b 4c 57 8d 3e
       -0.06645543 -0.04434627 0.0042435527 0.27605665
0000c0 e9 22 22 3e 9c 6b fd 3d 3e 69 98 3e f2 a4 c6 3d
       0.1583363 0.123740405 0.29767793 0.096994296
0000d0 cd 9d 94 bd 9c 26 19 bd 0d 1a 75 3e 64 2b 6c bc
       -0.072566606 -0.037390336 0.23935719 -0.014414642
0000e0 66 8b 9d 3d 54 f5 19 3d a6 6d b1 3d 24 c4 22 be
       0.07692604 0.03758748 0.08663492 -0.15895134
0000f0 3e 8d 1a 3d ce da 2f bf 52 e3 02 3e 97 c3 cd 3e
       0.037732355 -0.68693244 0.12782028 0.40188286
000100 b1 67 9a 3d 27 e7 e9 bc b2 11 f5 bd e8 8e c7 bd
       0.07539309 -0.028552605 -0.11966266 -0.09744054
000110 a0 89 e2 bc 32 c5 b6 3d c1 bd e0 3c 2d 1d 0b be
       -0.027653515 0.08924331 0.027434232 -0.13585348
000120 0c 54 07 bd b2 51 d0 bd 1d 2a 81 bd a1 0d 2e bd
       -0.033039138 -0.10171832 -0.063068606 -0.042493466
000130 68 7a a3 bd bd 68 d4 bd 6d 68 d3 bd 38 6c 11 bc
       -0.079823315 -0.1037154 -0.10322652 -0.008875899
000140 5f 7b c4 3d f2 da 9c bd d0 d2 6b 3d a6 54 84 3d
       0.09593844 -0.07658948 0.057574093 0.06461458
000150 9c a1 0a bc c2 2b 9b bd 64 a8 40 bc f4 dd df bd
       -0.008461382 -0.075767055 -0.011758897 -0.10931006
000160 7c 7f bd 3d 80 8c 8b 3d ad 38 31 3d b8 36 4b bd
       0.09252831 0.068139076 0.04326694 -0.04961273
000170 54 fc e1 3d 61 55 ab bd 8a 08 2e 3d 4d 9c eb bd
       0.11034456 -0.08365894 0.042488612 -0.115044214
000180 b0 97 90 3d 5c eb 66 bd 89 80 a8 3d 17 7a 91 bd
       0.07060182 -0.0563768 0.08227641 -0.07103365
000190 ff 43 38 bd ee 7a bf bd f9 d2 12 3c ce 42 f0 bc
       -0.04498672 -0.09349619 0.008961433 -0.02932873
0001a0 a0 a0 e7 3d c4 55 95 bd 5c 58 51 3d bb 94 d3 bd
       0.11309934 -0.07291749 0.051109657 -0.103311025
0001b0 25 91 6b bb 2f 2c 47 3d 70 58 3a 3d b3 c3 94 3d
       -0.0035944667 0.04862612 0.045494497 0.07263889
0001c0 17 a6 c8 bc 3e 5c ec bd 6b cd 4b 3c 45 2d 15 3d
       -0.02449326 -0.11541031 0.012439112 0.036420126
0001d0 39 4a fb bd 90 f9 0f bd e8 4e 95 bd d3 ac 9e 3d
       -0.12270016 -0.03515011 -0.07290441 0.07747807
0001e0 e0 f0 ec 3d 7c ea 07 bd c4 68 33 bd c8 e3 b6 3d
       0.11569381 -0.033182606 -0.043801084 0.089301646
0001f0 66 bf a8 bd 72 c1 69 3d 44 1d 2d 3d 3c 79 c8 3c
       -0.08239631 0.05706925 0.042264238 0.024471872
000200 50 20 b7 3c 04 75 45 3d c8 55 a9 bd 70 8c 15 bd
       0.022354275 0.048207298 -0.082683146 -0.036510885
000210 ce 72 ff bd 3c 72 b2 bd d8 a2 dc bd c4 e4 ac bd
       -0.12473069 -0.08713195 -0.107732475 -0.08442071
000220 38 7d 20 bd d0 20 06 bd 5a bb af 3d 5c 61 e4 bd
       -0.039181918 -0.032746136 0.08580656 -0.11151382
000230 f8 5d 86 bd c0 9e c3 3c 24 26 c6 bd 34 2f 0f bd
       -0.06560892 0.023879409 -0.096752435 -0.034957126
000240 20 c8 1e bd c4 1d c4 bd 40 72 ec bb 60 d4 a6 bd
       -0.038765073 -0.0957599 -0.007215768 -0.08145976
000250 10 47 b8 3c 80 1a b9 3d a0 6d a3 bd 5c 7e a1 bd
       0.022494823 0.090382576 -0.07979894 -0.07885429
000260 4c 52 17 3d 88 98 4a bd 2a 67 a1 bd f8 25 53 3d
       0.03694372 -0.04946187 -0.07881005 0.05154988
000270 1c 6e 69 bd c4 d8 05 bd a0 76 db bc 74 06 97 bd
       -0.056989774 -0.032677427 -0.026789963 -0.07374278
000280 98 72 60 3d 0c 92 dd bd 40 7d 6d bb 5a 46 f9 bd
       0.054796785 -0.10818872 -0.0036237985 -0.121716216
000290 c2 11 e1 bd 62 16 ae bd 50 f6 42 bd c0 6b 87 bd
       -0.10989715 -0.08500363 -0.047598183 -0.066123486
0002a0 ec 52 ab bd b8 fd ef bc a4 22 34 3d 66 6b fa bd
       -0.083654255 -0.029295787 0.04397835 -0.12227516
0002b0 fe 87 d9 bd ea f4 89 3d 96 37 fe bd 32 66 80 3d
       -0.106216416 0.06736167 -0.12412946 0.06269492
0002c0 98 05 cc 3d 00 1c 12 bb 38 6a 82 3c e0 42 8c 3c
       0.099620044 -0.0022294521 0.01591979 0.017121732
0002d0 28 a8 ce 3d 00 f6 76 3b 18 fb 64 bd 80 89 14 3c
       0.10090667 0.0037683249 -0.055903524 0.009065986
0002e0 28 b8 c8 bc f0 55 e1 bc 64 47 cb bd f4 da e8 3d
       -0.024501875 -0.027506799 -0.09925726 0.11369887
0002f0 04 fe 03 bd 40 e7 bd 3b 3c e2 a3 bd 14 23 c2 bd
       -0.03222467 0.0057953894 -0.08002135 -0.09479347
000300 c4 36 c5 bd 72 b2 d4 bd dd da 1c 3e 78 6c 86 bd
       -0.09629586 -0.10385598 0.15317865 -0.065636575
000310 34 44 b0 bd e0 ba be bc 36 3d 72 ba 45 12 03 3e
       -0.08606759 -0.023282468 -0.00092406885 0.12799938
000320 d9 b2 1d be 5f d1 ac bd 6d 0a 8a 3d 8e d8 88 be
       -0.15400256 -0.08438372 0.0674027 -0.26727718
000330 a0 bb 0c 3e 1a 7c dc 3a ba f3 24 bd e0 ab aa bd
       0.13743448 0.0016821653 -0.0402715 -0.08333564
000340 43 ba 77 bd e1 4d da 3d 2c 35 23 be df 74 79 bd
       -0.060480367 0.106593855 -0.15938252 -0.060902473
000350 26 b7 13 3e 6b 2f 05 be f4 43 ec 3c 44 62 3f 3e
       0.14425334 -0.1300637 0.028840996 0.18689829
000360 10 7d 61 bc 51 f7 e0 3d 8c 5f 5c 3d 69 6c ae bd
       -0.013762727 0.10984672 0.053802058 -0.08516771
000370 89 4a 10 3e 77 04 fa 3d 7a e9 a1 bd b0 24 76 bd
       0.14090933 0.12207883 -0.0790586 -0.06009358
000380 d9 d2 aa 3d c8 cf 77 bd 12 9e 0f be 07 76 f2 bd
       0.08340997 -0.06050089 -0.14025143 -0.11838918
000390 68 3e 02 3e 52 5e 39 3d a2 1c 90 bd 48 f3 c6 3d
       0.12719119 0.045255966 -0.07036711 0.09714371
0003a0 00 30 4b 3b c2 ed c7 3d 3a 04 ee 3d 28 d3 b9 bd
       0.0031003952 0.097621456 0.116219 -0.09073478
0003b0 27 f4 a2 bd c6 e3 ca 3c ae ba ab bd 01 8c f7 3c
       -0.079567246 0.024766814 -0.08385216 0.030218126
0003c0 75 53 af 3d 48 75 5e bd 4e c0 60 3e 20 0a 7f 3d
       0.0856084 -0.054311067 0.21948358 0.062265515
0003d0 88 6e b0 bb 9c b4 7a bd 7a 28 20 3e ee 7a fe 3d
       -0.00538427 -0.0612074 0.1564044 0.12425791
0003e0 e0 e1 c1 3c ee 3a 96 3d 47 58 f6 3d 5f e5 51 bc
       0.023667276 0.07335459 0.12028556 -0.012811034
0003f0 c5 40 19 bd 1d 93 50 be 7f 25 62 3e bf 9d a0 3d
       -0.037415285 -0.2036862 0.22084616 0.07842588

linear_relu_stack.4.bias f4 [32]
000000 4a 8a de 3d ae 06 88 bc 10 db ac 3c 2c 01 b3 3d
       0.1086622 -0.016604748 0.02110055 0.08740458
000010 2a b0 80 bd 33 ef 60 bc 4b ab 60 3d 79 46 e7 3d
       -0.06283601 -0.013728905 0.054850858 0.112927385
000020 7d ed e5 3d 0e 12 82 3d ed b0 19 bd 81 10 9a 3d
       0.11226938 0.063511 -0.037522245 0.07522679
000030 98 e1 bd bd 94 9f 93 bd 2b 7d dc bc 98 1e 11 bd
       -0.09271544 -0.072081715 -0.026915153 -0.035429567
000040 36 6a 7b 3d 8a b8 18 bc 82 26 97 bd 40 74 3f 3d
       0.061380588 -0.009321341 -0.07380392 0.046741724
000050 22 72 df 3d e8 fe 9c bc e4 0e 64 bd 3f 32 94 bc
       0.10910441 -0.019164518 -0.055678263 -0.018090365
000060 af 4f 20 bd 81 39 4d bd de 0c 92 3d 84 51 d3 bd
       -0.039138492 -0.050103668 0.071313605 -0.10318282
000070 e3 6e a7 bd ad e2 26 3d 49 2c ca bd d8 ad dd bd
       -0.08175447 0.04074352 -0.09871728 -0.10824174

linear_relu_stack.6.weight f4 [2, 32]
000000 51 d6 2a 3e 76 cc 82 3d d8 0b ea bd 43 40 f4 3d
       0.16683318 0.06386654 -0.1142804 0.119263195
000010 86 da ad be 5b 82 b2 3e 75 58 94 3c a0 72 50 3e
       -0.33955783 0.34865078 0.018108586 0.20356226
000020 0d 81 27 3e 66 3a ad be e4 6c a2 be f3 57 dc bd
       0.16357823 -0.33833617 -0.31723702 -0.107589625
000030 23 94 8a be 62 54 8c bd 12 a9 e2 3e 35 c2 2e bd
       -0.27066144 -0.06852032 0.44269615 -0.04266568
000040 51 40 0b be 3d cb 6e 3e 46 3a 9c 3d b5 ab c5 3d
       -0.13598754 0.23319717 0.07628302 0.09651891
000050 ed 29 04 bf 02 d3 f2 3d 74 2d b8 bd 65 e2 ce bd
       -0.51626474 0.11856653 -0.089930445 -0.10101775
000060 7d 7c f0 bc 47 77 5d be 36 b6 c3 bd fc 92 fb bd
       -0.029356236 -0.21627532 -0.09556238 -0.122838944
000070 63 a3 52 3e 0a f6 21 3e 61 12 53 3c e2 00 fc bd
       0.2057014 0.15816513 0.0128828 -0.12304856
000080 3f 06 36 3e 8c 95 43 be 7e 3d bb 3d 02 ee 3e 3e
       0.1777582 -0.19100016 0.09142588 0.1864548
000090 4a af 8e bc c7 e0 2b bc 09 27 17 3e 73 82 b9 bd
       -0.017417569 -0.010490603 0.14760984 -0.09058084
0000a0 24 e9 36 3e 7b 3e 12 3e db 65 c2 be e9 4b 99 be
       0.17862374 0.14281647 -0.37968335 -0.29940727
0000b0 ed b8 6f be e8 b0 9f bc 91 dd 67 3e 06 bd 0a 3e
       -0.23410387 -0.019493535 0.22643115 0.13548669
0000c0 91 a8 0c 3e a1 a2 bd bd e0 62 0d bc 0f 46 9e 3d
       0.13736178 -0.092595346 -0.008629531 0.07728206
0000d0 32 6b 66 be 98 4c 07 bd a4 18 fc bd 2e 6d 80 be
       -0.2250183 -0.03303203 -0.12309387 -0.25083297
0000e0 1d 8b ba 3d 7d 9a 8b be 0f b8 6c 3d 28 47 01 be
       0.09108565 -0.27266303 0.05779272 -0.126248
0000f0 7e 4c 7b be 29 c8 1f be 61 61 bc 3e 28 fa 73 be
       -0.24540898 -0.15603699 0.36793044 -0.23825896

linear_relu_stack.6.bias f4 [2]
000000 fa bd 17 be 54 c2 02 be
       -0.14818564 -0.12769443

exp_avg f4 [128, 2]
000000 00 00 00 00 00 00 00 00 f4 c1 ac 35 84 55 18 b7
       0.0 0.0 1.2871446e-06 -9.079817e-06
000010 00 00 00 00 00 00 00 00 00 00 00 00 00 00 00 00
       0.0 0.0 0.0 0.0
000020 00 00 00 00 00 00 00 00 00 84 95 32 46 b8 5a 36
       0.0 0.0 1.740591e-08 3.2591793e-06
000030 82 18 e7 35 9b 81 00 b6 42 3a 56 36 24 07 21 37
       1.7217974e-06 -1.9148927e-06 3.1922395e-06 9.59801e-06
000040 00 00 00 00 00 00 00 00 da af 5c b6 e0 38 55 b5
       0.0 0.0 -3.2884914e-06 -7.943145e-07
000050 f4 a0 92 36 00 e0 60 31 fe 66 af b5 66 77 7c 36
       4.3698765e-06 3.272362e-09 -1.3068491e-06 3.7620425e-06
000060 00 00 00 00 00 00 00 00 d0 6c 7e 36 df d7 e3 36
       0.0 0.0 3.7912287e-06 6.790258e-06
000070 00 00 00 00 00 00 00 00 00 00 00 00 00 00 00 00
       0.0 0.0 0.0 0.0
000080 74 fc a2 35 37 49 cb 36 00 00 00 00 00 00 00 00
       1.2143414e-06 6.058395e-06 0.0 0.0
000090 ec 63 f5 34 6a 6d 45 35 00 00 00 00 00 00 00 00
       4.570751e-07 7.354744e-07 0.0 0.0
0000a0 00 00 00 00 00 00 00 00 00 00 00 00 00 00 00 00
       0.0 0.0 0.0 0.0
0000b0 00 00 00 00 00 00 00 00 e5 36 41 b6 55 28 10 37
       0.0 0.0 -2.8791194e-06 8.592459e-06
0000c0 60 ec b2 35 10 af 16 37 76 0c e1 35 11 2c 79 b6
       1.3330828e-06 8.981457e-06 1.6767433e-06 -3.7129541e-06
0000d0 e8 e6 d2 b5 d4 3d 28 b6 00 00 00 00 00 00 00 00
       -1.5713422e-06 -2.506994e-06 0.0 0.0
0000e0 00 00 00 00 00 00 00 00 00 07 ec b2 08 52 a4 36
       0.0 0.0 -2.74772e-08 4.8971306e-06
0000f0 10 d6 5c 34 67 36 ce 36 00 00 00 00 00 00 00 00
       2.0566972e-07 6.1456117e-06 0.0 0.0
000100 00 00 00 00 00 00 00 00 00 00 00 00 00 00 00 00
       0.0 0.0 0.0 0.0
000110 10 26 9b b5 f6 c4 29 36 28 e1 91 b6 24 8b c4 b5
       -1.1559478e-06 2.5297609e-06 -4.3475484e-06 -1.4643633e-06
000120 24 a5 23 35 bc b7 db b5 00 00 00 00 00 00 00 00
       6.0962543e-07 -1.6370245e-06 0.0 0.0
000130 04 44 72 b6 e4 4e ba 37 00 00 00 00 00 00 00 00
       -3.61004e-06 2.2209664e-05 0.0 0.0
000140 2a eb 49 b6 d6 3f 74 36 00 00 00 00 00 00 00 00
       -3.0088217e-06 3.639599e-06 0.0 0.0
000150 00 00 00 00 00 00 00 00 00 00 00 00 00 00 00 00
       0.0 0.0 0.0 0.0
000160 d0 d8 25 b6 76 70 2d 37 52 dc 9e 36 b6 31 98 36
       -2.4713117e-06 1.0337788e-05 4.7344156e-06 4.53574e-06
000170 d6 f8 73 b6 b6 4d eb 36 00 00 00 00 00 00 00 00
       -3.6354663e-06 7.0125925e-06 0.0 0.0
000180 00 00 00 00 00 00 00 00 8c 93 0a b5 b3 c9 37 b6
       0.0 0.0 -5.1623715e-07 -2.738653e-06
000190 f5 9c db 37 60 42 82 b8 a4 01 92 b6 44 e8 2b 37
       2.6179923e-05 -6.2112464e-05 -4.35133e-06 1.0246473e-05
0001a0 00 00 00 00 00 00 00 00 83 61 d8 b6 a0 c9 58 b5
       0.0 0.0 -6.4486535e-06 -8.0759673e-07
0001b0 43 23 30 b7 e6 94 13 37 24 8c 9a 36 98 59 51 b6
       -1.04986275e-05 8.796551e-06 4.605872e-06 -3.1195577e-06
0001c0 32 6f 16 36 5e 65 0a 36 1f 6d 11 36 fc 76 7b 35
       2.2416466e-06 2.0622606e-06 2.16702e-06 9.367793e-07
0001d0 00 00 00 00 00 00 00 00 f4 ef a6 b5 94 ed 8f b6
       0.0 0.0 -1.2437799e-06 -4.28939e-06
0001e0 ac 46 28 37 12 b5 88 b7 80 46 f4 b4 20 b5 01 b3
       1.0030035e-05 -1.629678e-05 -4.5499837e-07 -3.0199885e-08
0001f0 1c 9a 45 36 a2 e0 41 b7 94 5d 9c 36 db cc 67 b5
       2.944499e-06 -1.1555998e-05 4.660056e-06 -8.635231e-07
000200 00 00 00 00 00 00 00 00 e0 54 0c b6 c0 db 06 36
       0.0 0.0 -2.091103e-06 2.0095467e-06
000210 34 71 e9 36 24 4f c9 36 00 00 00 00 00 00 00 00
       6.9571197e-06 5.99948e-06 0.0 0.0
000220 90 18 43 b5 bc ac 64 b6 2e 1d 4d b6 63 fd 9e 36
       -7.2678904e-07 -3.4075192e-06 -3.0564365e-06 4.738265e-06
000230 00 00 00 00 00 00 00 00 68 d2 0b b5 08 d2 20 b5
       0.0 0.0 -5.2087717e-07 -5.991028e-07
000240 f9 93 03 b6 8c c6 c3 36 9c 46 8b 35 f8 63 eb b5
       -1.9606653e-06 5.8345668e-06 1.0376857e-06 -1.7537959e-06
000250 a1 25 a5 36 1f 3b 18 36 00 00 00 00 00 00 00 00
       4.921764e-06 2.2684178e-06 0.0 0.0
000260 46 65 55 36 80 b8 1e b5 cc fd de b6 48 f7 43 34
       3.1798422e-06 -5.912807e-07 -6.6456614e-06 1.825075e-07
000270 00 00 00 00 00 00 00 00 41 6c d6 b5 00 50 db 35
       0.0 0.0 -1.5975749e-06 1.6340055e-06
000280 18 da ae b3 b9 6e 13 37 fa a8 a8 b5 df b1 b1 36
       -8.1421774e-08 8.787662e-06 -1.2566154e-06 5.295718e-06
000290 00 d9 94 33 28 62 ef 35 7b ad 29 36 38 a3 e3 b5
       6.931259e-08 1.7835455e-06 2.5283941e-06 -1.6960321e-06
0002a0 00 00 00 00 00 00 00 00 9a 65 ce 35 8d b9 e8 36
       0.0 0.0 1.5377766e-06 6.9357397e-06
0002b0 00 00 00 00 00 00 00 00 00 00 00 00 00 00 00 00
       0.0 0.0 0.0 0.0
0002c0 ac 22 f7 b5 bf 05 cd 35 78 1b 71 b5 cd 51 eb 36
       -1.8413025e-06 1.5275363e-06 -8.981947e-07 7.0130686e-06
0002d0 00 00 00 00 00 00 00 00 00 00 00 00 00 00 00 00
       0.0 0.0 0.0 0.0
0002e0 e3 8c 2c 36 78 8b 24 b5 1d b4 fb b6 8e e1 18 37
       2.5712004e-06 -6.1297715e-07 -7.501351e-06 9.112422e-06
0002f0 00 00 00 00 00 00 00 00 00 00 00 00 00 00 00 00
       0.0 0.0 0.0 0.0
000300 6d 0e 11 35 20 79 9f b6 45 9a 4f b6 70 43 0c 36
       5.40377e-07 -4.75267e-06 -3.09352e-06 2.090088e-06
000310 fc 73 67 37 cf f1 b9 b7 78 05 aa 34 c2 ee bd b6
       1.3795678e-05 -2.216632e-05 3.1668947e-07 -5.660434e-06
000320 78 cb 13 37 9c 91 63 b6 3f 71 4d b7 81 5c 12 38
       8.8092565e-06 -3.3910392e-06 -1.2245319e-05 3.4895264e-05
000330 b6 3f 81 35 34 e5 aa b6 b8 f4 98 b6 3d 02 75 b6
       9.629791e-07 -5.0930776e-06 -4.558442e-06 -3.6509148e-06
000340 a1 d4 1f 36 9b a8 11 b7 00 00 00 00 00 00 00 00
       2.3816613e-06 -8.68193e-06 0.0 0.0
000350 fe 42 9c 36 80 f5 86 b6 4a c0 96 34 55 ae 17 35
       4.656961e-06 -4.022091e-06 2.8079586e-07 5.650557e-07
000360 61 8e 5e 36 45 a5 3f 36 00 00 00 00 00 00 00 00
       3.3163453e-06 2.8557417e-06 0.0 0.0
000370 00 00 00 00 00 00 00 00 00 00 00 00 00 00 00 00
       0.0 0.0 0.0 0.0
000380 00 00 00 00 00 00 00 00 00 00 00 00 00 00 00 00
       0.0 0.0 0.0 0.0
000390 00 00 00 00 00 00 00 00 1c 69 72 b6 3c be 54 37
       0.0 0.0 -3.6121992e-06 1.2680477e-05
0003a0 13 d4 00 36 5b 67 ae b6 76 d6 61 b7 7a c6 3b 37
       1.919693e-06 -5.1976363e-06 -1.3460978e-05 1.119228e-05
0003b0 a9 32 25 b6 d6 b7 06 36 61 56 ae 36 78 d2 09 b7
       -2.4616404e-06 2.0074563e-06 5.19566e-06 -8.21484e-06
0003c0 06 25 95 36 8e b1 a2 37 1a ca a5 37 6f d5 9e 36
       4.444856e-06 1.9394585e-05 1.9763644e-05 4.733614e-06
0003d0 ef 8c c4 b6 3c 2e 37 37 27 44 fd 36 4a c8 d3 35
       -5.857662e-06 1.0918415e-05 7.5479215e-06 1.5779017e-06
0003e0 2a 34 ad b6 b9 68 0e 36 ce f2 18 36 36 9f a2 b6
       -5.1618745e-06 2.1220606e-06 2.2791096e-06 -4.846511e-06
0003f0 3b 50 c6 b6 5f d2 51 36 00 00 00 00 00 00 00 00
       -5.9102e-06 3.126588e-06 0.0 0.0

exp_avg_sq f4 [128, 2]
000000 00 00 00 00 00 00 00 00 6f 33 66 30 08 15 25 30
       0.0 0.0 8.3746604e-10 6.005654e-10
000010 00 00 00 00 00 00 00 00 00 00 00 00 00 00 00 00
       0.0 0.0 0.0 0.0
000020 00 00 00 00 00 00 00 00 c5 83 0d 30 b6 9d 4f 2f
       0.0 0.0 5.1482757e-10 1.888257e-10
000030 02 76 14 2f 3f d0 da 2e 62 6f 09 30 47 2d 91 30
       1.3502446e-10 9.950484e-11 4.9998594e-10 1.0563007e-09
000040 00 00 00 00 00 00 00 00 cb bf bc 2e d4 54 2d 2e
       0.0 0.0 8.5833195e-11 3.941099e-11
000050 67 c9 04 2f f3 39 2b 2f da f6 b9 2f 44 30 27 2f
       1.2076883e-10 1.5572947e-10 3.3826703e-10 1.5205709e-10
000060 00 00 00 00 00 00 00 00 6b 1f a9 31 02 1e d3 30
       0.0 0.0 4.922119e-09 1.5360799e-09
000070 00 00 00 00 00 00 00 00 00 00 00 00 00 00 00 00
       0.0 0.0 0.0 0.0
000080 91 7a af 2f ea 9a 9e 2f 00 00 00 00 00 00 00 00
       3.1919403e-10 2.8850106e-10 0.0 0.0
000090 3b 8a da 2e f6 32 c5 2e 00 00 00 00 00 00 00 00
       9.938047e-11 8.967575e-11 0.0 0.0
0000a0 00 00 00 00 00 00 00 00 00 00 00 00 00 00 00 00
       0.0 0.0 0.0 0.0
0000b0 00 00 00 00 00 00 00 00 ee 71 f4 2f 3c b3 9a 2f
       0.0 0.0 4.4464293e-10 2.813979e-10
0000c0 4e 84 9e 30 50 82 dc 30 2e 2f 95 2f 4a 29 00 30
       1.1533616e-09 1.6044144e-09 2.7136465e-10 4.6624804e-10
0000d0 0f 2c 02 2f 9b 5b d0 2e 00 00 00 00 00 00 00 00
       1.1839084e-10 9.475017e-11 0.0 0.0
0000e0 00 00 00 00 00 00 00 00 d3 d9 34 2f 4d e1 33 2f
       0.0 0.0 1.6448291e-10 1.6359998e-10
0000f0 50 48 9e 2f b8 f7 ad 2f 00 00 00 00 00 00 00 00
       2.8791414e-10 3.1644531e-10 0.0 0.0
000100 00 00 00 00 00 00 00 00 00 00 00 00 00 00 00 00
       0.0 0.0 0.0 0.0
000110 c5 b6 9c 2e a6 8e 41 2f ef 89 b9 2f 7a 1e 71 2f
       7.126525e-11 1.7603927e-10 3.3749312e-10 2.192965e-10
000120 6e 9b 93 2e 6e 8e 31 2f 00 00 00 00 00 00 00 00
       6.712396e-11 1.6148657e-10 0.0 0.0
000130 1d 7e 53 31 2d 08 26 31 00 00 00 00 00 00 00 00
       3.0776228e-09 2.4160827e-09 0.0 0.0
000140 66 36 cd 2f 3b 24 fc 2f 00 00 00 00 00 00 00 00
       3.7327935e-10 4.5864276e-10 0.0 0.0
000150 00 00 00 00 00 00 00 00 00 00 00 00 00 00 00 00
       0.0 0.0 0.0 0.0
000160 0f 83 c1 2f f7 aa ce 2f 97 d1 71 30 ca 05 00 31
       3.5199618e-10 3.759266e-10 8.7973134e-10 1.8629742e-09
000170 9c 4a 65 2f 11 2b 48 2f 00 00 00 00 00 00 00 00
       2.0853935e-10 1.8205194e-10 0.0 0.0
000180 00 00 00 00 00 00 00 00 8d c7 07 2f ee 40 95 2e
       0.0 0.0 1.2349073e-10 6.7872694e-11
000190 c1 f2 78 32 a9 b1 45 32 d9 2b 8a 30 a7 8f 9f 30
       1.4490696e-08 1.1507304e-08 1.0053284e-09 1.1609601e-09
0001a0 00 00 00 00 00 00 00 00 8e 96 2e 30 ed a9 a5 2f
       0.0 0.0 6.351478e-10 3.0134065e-10
0001b0 52 b6 fd 2f 7b a5 39 30 95 97 27 2f 9d aa b8 2f
       4.6149978e-10 6.753777e-10 1.5242414e-10 3.3590633e-10
0001c0 0d a3 c7 2f 6c 3a 60 2f 68 3f 73 2f 38 87 18 2f
       3.6313744e-10 2.0393437e-10 2.2123248e-10 1.3872359e-10
0001d0 00 00 00 00 00 00 00 00 cb 47 b4 2f 1f 8d 54 2f
       0.0 0.0 3.279282e-10 1.9331424e-10
0001e0 e5 5b 2f 32 34 53 51 32 ad 97 de 2f 7c 1e bb 2e
       1.0207235e-08 1.2184319e-08 4.0489337e-10 8.5091906e-11
0001f0 e2 95 f1 2f 1f 4f fa 2f c7 12 09 2f a6 4c 55 2f
       4.3944143e-10 4.5530954e-10 1.2466748e-10 1.9399468e-10
000200 00 00 00 00 00 00 00 00 2e 8b 6d 2e 45 3b ea 2e
       0.0 0.0 5.4011177e-11 1.06516164e-10
000210 2f b0 79 2f 5c 7c 39 30 00 00 00 00 00 00 00 00
       2.2709011e-10 6.7479333e-10 0.0 0.0
000220 5e f9 e3 2e 33 4f de 2e 14 df 15 30 31 56 42 30
       1.03670614e-10 1.010946e-10 5.45229e-10 7.0699274e-10
000230 00 00 00 00 00 00 00 00 3b af e0 2f 96 b2 30 31
       0.0 0.0 4.086987e-10 2.5712885e-09
000240 e7 a1 08 2f 44 85 4c 2f 6a 9c ea 2d 0b 74 b0 2e
       1.2426647e-10 1.8601037e-10 2.6672182e-11 8.024167e-11
000250 29 58 1e 2f 0c a1 f4 2e 00 00 00 00 00 00 00 00
       1.4401337e-10 1.1124443e-10 0.0 0.0
000260 0b 10 83 2f 3a b2 8c 2f 60 3b d4 2f 82 18 4e 2f
       2.384016e-10 2.559249e-10 3.8604764e-10 1.8744298e-10
000270 00 00 00 00 00 00 00 00 84 0c 12 2f 65 76 a3 2f
       0.0 0.0 1.3283069e-10 2.9733652e-10
000280 3f d5 9f 2f 7f 5d b3 2f ed 03 5f 30 32 ee 09 30
       2.9073452e-10 3.2626343e-10 8.1132506e-10 5.0178806e-10
000290 ec 7f b9 2e 62 92 04 2f e0 5a 90 2f fc 8f 3a 30
       8.4355495e-11 1.2057336e-10 2.6258018e-10 6.787102e-10
0002a0 00 00 00 00 00 00 00 00 66 d2 e0 30 e1 f4 43 31
       0.0 0.0 1.6357944e-09 2.8515432e-09
0002b0 00 00 00 00 00 00 00 00 00 00 00 00 00 00 00 00
       0.0 0.0 0.0 0.0
0002c0 73 f0 53 30 9a 4f 83 2f c8 57 ba 2f 2d 61 84 2f
       7.710305e-10 2.3885321e-10 3.3895575e-10 2.4079708e-10
0002d0 00 00 00 00 00 00 00 00 00 00 00 00 00 00 00 00
       0.0 0.0 0.0 0.0
0002e0 d0 b9 c2 2e 3e 12 5e 2f 89 48 dc 2f fd 6a 1c 30
       8.8551055e-11 2.0197263e-10 4.0069306e-10 5.690451e-10
0002f0 00 00 00 00 00 00 00 00 00 00 00 00 00 00 00 00
       0.0 0.0 0.0 0.0
000300 73 42 cf 2f 10 fd ee 2f cc 99 52 2e dc f2 c9 2e
       3.7700296e-10 4.347176e-10 4.788507e-11 9.183562e-11
000310 56 4b b3 31 88 c3 16 32 bc d1 82 2f bd f8 87 2f
       5.2181504e-09 8.775608e-09 2.3795887e-10 2.4733096e-10
000320 18 29 37 2f 59 b8 66 2f 71 87 02 32 08 d9 bc 31
       1.6658352e-10 2.0983872e-10 7.597792e-09 5.4961937e-09
000330 f1 da e5 2e 79 aa 4b 2f 5f e7 6e 2f bf 69 30 2f
       1.0452606e-10 1.8523306e-10 2.1728173e-10 1.6044675e-10
000340 d0 08 99 2f 58 d7 a6 2f 00 00 00 00 00 00 00 00
       2.78368e-10 3.0348235e-10 0.0 0.0
000350 bd 48 af 2f 8c 1d ca 2f 13 55 ef 2e 33 20 85 2e
       3.1883998e-10 3.676458e-10 1.0883574e-10 6.0538595e-11
000360 c7 b9 e4 2e dc d8 85 2e 00 00 00 00 00 00 00 00
       1.040124e-10 6.086662e-11 0.0 0.0
000370 00 00 00 00 00 00 00 00 00 00 00 00 00 00 00 00
       0.0 0.0 0.0 0.0
000380 00 00 00 00 00 00 00 00 00 00 00 00 00 00 00 00
       0.0 0.0 0.0 0.0
000390 00 00 00 00 00 00 00 00 b6 2d 4b 30 de 13 6b 30
       0.0 0.0 7.391593e-10 8.5520735e-10
0003a0 d5 e5 ad 2f c0 f6 5a 2f e0 ac 07 31 7e 68 92 30
       3.1631822e-10 1.9914648e-10 1.9743354e-09 1.0652597e-09
0003b0 80 d5 10 2f bb 68 8b 2e 1f 36 ab 2f a8 32 38 30
       1.3172574e-10 6.339592e-11 3.1143174e-10 6.7010797e-10
0003c0 ce 62 45 31 c3 bc e3 30 37 42 9a 30 7f 93 5c 30
       2.8723437e-09 1.6570073e-09 1.1223794e-09 8.024514e-10
0003d0 f6 f5 65 30 6b e9 5f 30 68 4e cd 2e 9e 75 db 2e
       8.3659246e-10 8.1458634e-10 9.3362484e-11 9.97986e-11
0003e0 72 e0 51 2f 27 7d 81 2f 87 6c 99 2f 17 86 19 2f
       1.9088178e-10 2.355389e-10 2.790765e-10 1.3962907e-10
0003f0 fa 26 04 30 b0 35 c9 2f 00 00 00 00 00 00 00 00
       4.807671e-10 3.6599834e-10 0.0 0.0

exp_avg f4 [128]
000000 00 00 00 00 57 ed f7 37 00 00 00 00 00 00 00 00
       0.0 2.9555214e-05 0.0 0.0
000010 00 00 00 00 40 4e 1e b7 d0 af d4 35 7c 4a 29 b7
       0.0 -9.435753e-06 1.5846399e-06 -1.0090527e-05
000020 00 00 00 00 a8 5e d4 b5 76 ea a0 38 e2 d3 cd b7
       0.0 -1.582278e-06 7.673066e-05 -2.453657e-05
000030 00 00 00 00 c6 5f 48 b8 00 00 00 00 00 00 00 00
       0.0 -4.777291e-05 0.0 0.0
000040 93 47 88 b8 00 00 00 00 1a 04 de b5 00 00 00 00
       -6.498317e-05 0.0 -1.6541483e-06 0.0
000050 00 00 00 00 00 00 00 00 00 00 00 00 94 6f 47 b8
       0.0 0.0 0.0 -4.7549212e-05
000060 b8 a2 f9 b8 8c 85 81 38 d7 2a 76 37 00 00 00 00
       -0.00011903554 6.1760744e-05 1.4672717e-05 0.0
000070 00 00 00 00 81 6a d5 37 87 c1 c6 b8 00 00 00 00
       0.0 2.5441173e-05 -9.477423e-05 0.0
000080 00 00 00 00 00 00 00 00 a5 63 90 38 51 26 1f b8
       0.0 0.0 6.885015e-05 -3.794424e-05
000090 56 bc 11 b8 00 00 00 00 78 f5 6f 37 00 00 00 00
       -3.4746095e-05 0.0 1.4302663e-05 0.0
0000a0 4a de ce 38 00 00 00 00 00 00 00 00 00 00 00 00
       9.86425e-05 0.0 0.0 0.0
0000b0 f8 28 b9 b6 f6 d5 c0 37 02 c4 e8 b7 00 00 00 00
       -5.518199e-06 2.2987817e-05 -2.7747828e-05 0.0
0000c0 00 00 00 00 93 2c c4 b7 aa e2 c9 39 e8 22 b6 b6
       0.0 -2.3385777e-05 0.00038506585 -5.4280863e-06
0000d0 00 00 00 00 04 bd ef 36 e6 02 9e b7 35 f3 95 b8
       0.0 7.1447594e-06 -1.8836417e-05 -7.1501745e-05
0000e0 dc 24 0b b8 6b 28 d9 37 00 00 00 00 31 a2 23 38
       -3.317451e-05 2.5887237e-05 0.0 3.901328e-05
0000f0 f6 29 03 3a 6c 54 97 37 6b ab b6 b6 80 07 80 37
       0.0005003506 1.8039915e-05 -5.4439784e-06 1.5262282e-05
000100 00 00 00 00 91 c6 28 37 76 eb a6 37 00 00 00 00
       0.0 1.0059813e-05 1.9898387e-05 0.0
000110 23 be 17 b8 fb 61 12 39 00 00 00 00 32 b6 a8 38
       -3.6178284e-05 0.00013960146 0.0 8.044801e-05
000120 a4 f2 34 37 d6 10 eb b5 4f ed db b6 00 00 00 00
       1.078533e-05 -1.7513764e-06 -6.554335e-06 0.0
000130 72 00 9b b8 dc f9 eb 36 00 00 00 00 28 88 c3 38
       -7.391059e-05 7.032633e-06 0.0 9.323686e-05
000140 a5 05 bc 38 96 bb 82 37 f1 a9 8e 38 61 b8 00 b9
       8.96559e-05 1.558456e-05 6.802742e-05 -0.00012275718
000150 00 00 00 00 72 ca a1 b9 00 00 00 00 00 00 00 00
       0.0 -0.00030859147 0.0 0.0
000160 c1 49 ae 36 fc 00 f8 b7 00 00 00 00 00 00 00 00
       5.19419e-06 -2.9564362e-05 0.0 0.0
000170 44 52 25 38 c6 a1 ed 36 00 00 00 00 00 00 00 00
       3.941568e-05 7.0819833e-06 0.0 0.0
000180 5b 57 5b 38 78 5b 19 38 02 8c cf b8 20 c0 44 b6
       5.2295025e-05 3.656323e-05 -9.896608e-05 -2.9318107e-06
000190 ee 87 b9 36 56 fe 04 38 21 81 f1 37 22 53 49 b8
       5.529254e-06 3.170812e-05 2.878957e-05 -4.7999558e-05
0001a0 00 6f 77 36 00 00 00 00 4f ff 57 38 94 df 87 b6
       3.6870479e-06 0.0 5.149777e-05 -4.0493414e-06
0001b0 92 48 d6 37 00 00 00 00 00 00 00 00 00 00 00 00
       2.5544581e-05 0.0 0.0 0.0
0001c0 00 00 00 00 00 00 00 00 00 00 00 00 91 d6 e5 b8
       0.0 0.0 0.0 -0.00010959537
0001d0 47 04 c1 b7 e3 06 85 39 b0 9f 85 36 e6 af b6 b7
       -2.3009385e-05 0.00025372868 3.982299e-06 -2.1778e-05
0001e0 ae 63 c7 b9 b0 be 51 b7 dc 90 04 39 ea a3 ae 37
       -0.00038030505 -1.2501769e-05 0.00012642465 2.0818745e-05
0001f0 99 2f 3e b8 21 96 10 37 02 a9 be b7 00 00 00 00
       -4.534386e-05 8.6180235e-06 -2.2728465e-05 0.0

exp_avg_sq f4 [128]
000000 00 00 00 00 dc 98 5c 34 00 00 00 00 00 00 00 00
       0.0 2.0544707e-07 0.0 0.0
000010 00 00 00 00 07 e7 85 33 9b 63 a7 32 71 bd b1 32
       0.0 6.235319e-08 1.9486654e-08 2.069166e-08
000020 00 00 00 00 8e 93 19 33 e0 ec 1e 33 f7 ce 27 33
       0.0 3.575729e-08 3.700268e-08 3.907095e-08
000030 00 00 00 00 7c ba 75 35 00 00 00 00 00 00 00 00
       0.0 9.154098e-07 0.0 0.0
000040 ce 05 15 34 00 00 00 00 b8 42 7a 30 00 00 00 00
       1.3878818e-07 0.0 9.1044283e-10 0.0
000050 00 00 00 00 00 00 00 00 00 00 00 00 77 1e 34 34
       0.0 0.0 0.0 1.677489e-07
000060 6f 27 69 35 74 c9 24 35 1a dd be 32 00 00 00 00
       8.685665e-07 6.1387914e-07 2.2219456e-08 0.0
000070 00 00 00 00 31 0c 9a 33 b1 cb d7 33 00 00 00 00
       0.0 7.1734014e-08 1.0048769e-07 0.0
000080 00 00 00 00 00 00 00 00 80 15 fe 32 fb a1 bd 33
       0.0 0.0 2.9579269e-08 8.8304624e-08
000090 c4 f0 0f 32 00 00 00 00 88 2d a4 33 00 00 00 00
       8.378439e-09 0.0 7.645127e-08 0.0
0000a0 d7 e6 29 34 00 00 00 00 00 00 00 00 00 00 00 00
       1.582333e-07 0.0 0.0 0.0
0000b0 59 fc 0e 34 2b 68 96 32 cf d7 8d 33 00 00 00 00
       1.3316584e-07 1.7509668e-08 6.6050795e-08 0.0
0000c0 00 00 00 00 1d c2 6d 32 55 45 bb 37 81 5b 21 34
       0.0 1.3839352e-08 2.2324422e-05 1.5027582e-07
0000d0 00 00 00 00 ea e3 e6 33 e5 2b b1 33 b0 9b 2f 34
       0.0 1.0751667e-07 8.250189e-08 1.6354784e-07
0000e0 92 a0 38 33 18 0c 0f 32 00 00 00 00 84 b3 ea 33
       4.2986876e-08 8.326445e-09 0.0 1.0929128e-07
0000f0 ee 18 29 36 1c 32 fc 32 aa 45 76 34 28 d8 4a 32
       2.5197473e-06 2.9359448e-08 2.2935879e-07 1.1807096e-08
000100 00 00 00 00 83 59 d1 33 ee 01 8e 31 00 00 00 00
       0.0 9.748603e-08 4.1329633e-09 0.0
000110 20 7a 75 32 75 88 10 35 00 00 00 00 e8 38 37 35
       1.4288645e-08 5.384275e-07 0.0 6.825562e-07
000120 57 72 03 34 7e ec ae 32 da 29 40 32 00 00 00 00
       1.2241922e-07 2.036381e-08 1.1185387e-08 0.0
000130 1e 58 13 33 74 d6 0b 33 00 00 00 00 4a 47 91 34
       3.4306247e-08 3.2558503e-08 0.0 2.7060224e-07
000140 86 cc f4 34 f1 4e f1 33 aa 62 03 33 d3 5b 89 34
       4.5597352e-07 1.12367964e-07 3.059055e-08 2.558505e-07
000150 00 00 00 00 14 e8 0b 36 00 00 00 00 00 00 00 00
       0.0 2.0847701e-06 0.0 0.0
000160 7c 58 af 31 83 9a bb 33 00 00 00 00 00 00 00 00
       5.10323e-09 8.7359716e-08 0.0 0.0
000170 9c db d8 32 85 e9 03 35 00 00 00 00 00 00 00 00
       2.5245576e-08 4.914112e-07 0.0 0.0
000180 56 49 82 34 a5 ac 5f 32 57 da 6b 35 ee c6 cb 33
       2.4267746e-07 1.3019563e-08 8.786205e-07 9.489109e-08
000190 fd bb 4f 33 c3 9c 3c 34 bd f5 0f 33 3b d3 28 33
       4.8366918e-08 1.7565894e-07 3.351828e-08 3.930766e-08
0001a0 12 07 d1 33 00 00 00 00 f0 00 16 34 a2 c6 3f 32
       9.733607e-08 0.0 1.397018e-07 1.1162827e-08
0001b0 68 83 e5 32 00 00 00 00 00 00 00 00 00 00 00 00
       2.6718865e-08 0.0 0.0 0.0
0001c0 00 00 00 00 00 00 00 00 00 00 00 00 47 9a d2 34
       0.0 0.0 0.0 3.92278e-07
0001d0 56 50 bd 33 15 ed b7 35 3a d4 19 33 61 31 f1 32
       8.815611e-08 1.3703562e-06 3.5816107e-08 2.8078547e-08
0001e0 2d ba 0e 36 94 58 51 35 f9 7d 9b 34 fd d8 0e 32
       2.1268017e-06 7.7987465e-07 2.8962657e-07 8.314825e-09
0001f0 d7 11 77 32 ff cb 0c 33 70 c3 23 33 00 00 00 00
       1.4381349e-08 3.2781823e-08 3.8129144e-08 0.0
