train/model_weights_opt_mac_xyz.pth (torch, 136669 bytes, 24 tensors)

linear_relu_stack.0.weight f4 [128, 2]
0	0xbeb40b2a	-0.35164768
1	0x3ecf9e0a	0.40550262
2	0x3c0f2913	0.00873782
3	0xbf110192	-0.5664302
4	0x3f22861f	0.634859
5	0x3e510db5	0.20415385
6	0xbee23180	-0.4417839
7	0x3f58d23c	0.8469579
8	0x3e178347	0.14796172
9	0xbf3294be	-0.6975821
10	0x3ed2b7c5	0.4115583
11	0x3f8b895d	1.0901295
12	0xbef3c7e0	-0.4761343
13	0x3e869be9	0.26290825
14	0xbdb32504	-0.087472945
15	0xbf5d894a	-0.8653761
16	0x3ebb6b17	0.3660514
17	0x3e2018d4	0.15634471
18	0xbf224336	-0.63383806
19	0xbeb6dbc4	-0.35714543
20	0x3f6c0147	0.9218945
21	0xbea39284	-0.3194772
22	0x3f9a875d	1.207256
23	0xbf674fd9	-0.9035621
24	0x3f0f4a78	0.55973005
25	0xbe912b18	-0.2835319
26	0x3f364585	0.7119983
27	0xbea34f02	-0.31896216
28	0x3ed4b97b	0.4154776
29	0x3f10d4f7	0.5657496
30	0x3eccfcf3	0.40036735
31	0xbec5cac9	-0.38631275
32	0xbf16c352	-0.58891785
33	0x3fd7ea36	1.686835
34	0xbebd6cc4	-0.36997044
35	0x3e61de8d	0.22057553
36	0xbea1426e	-0.31495994
37	0x3de08d88	0.10964495
38	0xbf271aed	-0.6527546
39	0x3ef6c05f	0.48193642
40	0x3e0d0f80	0.13775444
41	0xbef8ed5c	-0.4861859
42	0xbf4b6bfa	-0.79461634
43	0xbf376725	-0.7164176
44	0x3f49d59a	0.78841555
45	0x3f844831	1.0334531
46	0x3eef05e6	0.46684188
47	0xbe3d3b0c	-0.18479556
48	0x3c51d793	0.012807745
49	0x3f2677db	0.65026635
50	0x3dffa468	0.1248253
51	0xbf01acde	-0.506544
52	0xbeab4f0a	-0.3345874
53	0x3f450e2c	0.7697475
54	0xbf194d8b	-0.59883946
55	0x3eef5796	0.4674651
56	0xbebd6c2a	-0.36996585
57	0xbf5060da	-0.81397784
58	0xbf14e26e	-0.58158004
59	0x3f0bb422	0.54571736
60	0x3f2219fb	0.63320893
61	0xbe90f677	-0.28313038
62	0x3f057d5d	0.52144414
63	0xbeb87ae3	-0.36031255
64	0xbf18323e	-0.59451663
65	0x3f851a50	1.0398655
66	0xbeebd8a8	-0.46063733
67	0xbe7d9254	-0.24762851
68	0xbe87b41b	-0.26504597
69	0xbf1ed00c	-0.62036204
70	0xbefe3a77	-0.4965398
71	0x3f52c0e5	0.82325584
72	0x3eac4c86	0.33652133
73	0x3f326f11	0.69700724
74	0x3f0adcf7	0.54243416
75	0xbf3414da	-0.70344317
76	0x3cabf240	0.020989537
77	0x3d8b86f0	0.06812847
78	0x3ed947f6	0.42437714
79	0xbf49cd7b	-0.78829163
80	0x3e69fa34	0.22849351
81	0x3cd57800	0.026058197
82	0xbcd6d7a0	-0.026225865
83	0xbe8d0501	-0.2754288
84	0x3f26717f	0.6501693
85	0x3ee4f3d6	0.44717282
86	0x3f1eb154	0.6198933
87	0xbf4d4e2a	-0.80197394
88	0xbd28b310	-0.041186392
89	0x3e97a5ea	0.2961877
90	0x3f5eb8c9	0.8700071
91	0x3f0bb5fd	0.5457457
92	0x3f1deb0d	0.61686784
93	0xbed7884c	-0.42096174
94	0xbdda5838	-0.10661358
95	0x3f0d6c95	0.5524381
96	0xbe7b3396	-0.24531397
97	0x3f30c8d9	0.6905647
98	0xbf191dcf	-0.5981111
99	0xbee9841d	-0.45608607
100	0x3f1f67d6	0.62267816
101	0x3f0d4e08	0.5519719
102	0xbf1030fe	-0.56324756
103	0xbedef463	-0.43545827
104	0xbeddc9ae	-0.43317932
105	0xbf16db24	-0.5892813
106	0xbe28a43c	-0.164689
107	0xbf029cd2	-0.5102054
108	0x3ee045d7	0.43803284
109	0x3f85b0b9	1.0444556
110	0x3f5303bb	0.8242757
111	0x3e02ec09	0.12785353
112	0x3e416f60	0.18890142
113	0x3e748528	0.2387892
114	0x3f14a94a	0.58070815
115	0x3eaa1be9	0.3322442
116	0x3eb93116	0.36170262
117	0xbe7dbef6	-0.24779877
118	0xbef9148c	-0.4864849
119	0xbf1be265	-0.60892326
120	0x3def8f40	0.11697245
121	0x3e02e8e8	0.12784159
122	0xbf18021e	-0.5937823
123	0xbd1a8bdb	-0.037731033
124	0x3f31674f	0.6929826
125	0x3f546061	0.8295956
126	0xbeea5191	-0.45765355
127	0xbf0555a9	-0.5208383
128	0xbf279cab	-0.6547343
129	0xbef20d8b	-0.47275957
130	0x3e3ceee8	0.1845051
131	0x3ea1d77e	0.3160972
132	0xbefd6537	-0.49491283
133	0x3ea61f72	0.32445866
134	0x3df18a68	0.11793977
135	0xbf4ba352	-0.7954608
136	0xbee81e26	-0.453355
137	0xbcc7a7a0	-0.024371922
138	0xbe14a3bc	-0.14515585
139	0xbf0dcb8f	-0.5538873
140	0x3e50032b	0.20313708
141	0xbe9b45fc	-0.3032683
142	0x3eced47e	0.40396494
143	0x3edb71f6	0.42860383
144	0x3f211569	0.62923294
145	0x3f136ac6	0.575848
146	0x3e82b947	0.2553198
147	0xbf2bdf1c	-0.6713731
148	0x3be35500	0.006937623
149	0x3ea28d42	0.31748396
150	0x3f140f58	0.5783591
151	0x3fabb80b	1.341554
152	0x3f09d5db	0.5384194
153	0xbe28f899	-0.16501082
154	0x3f8c0e5c	1.0941882
155	0xbe32a489	-0.17445578
156	0x3f561b58	0.83635473
157	0x3edef8b1	0.4354911
158	0x3ec637c1	0.38714412
159	0xbf8e67e2	-1.1125453
160	0xbe94b060	-0.29040813
161	0xbf040da2	-0.515833
162	0x3f027097	0.5095305
163	0xbd690340	-0.056887865
164	0xbf3a15d1	-0.7268954
165	0x3f15aec4	0.58469796
166	0xbe8e9164	-0.278453
167	0xbf326c23	-0.69696254
168	0x3f6ab6df	0.9168529
169	0x3f24279e	0.6412295
170	0x3f082f73	0.531974
171	0x3ef5c08e	0.4799847
172	0x3f17fff3	0.5937492
173	0xbe453258	-0.19257486
174	0xbebefea5	-0.37303653
175	0x3f2cbeb9	0.6747852
176	0x3f5aa743	0.8541147
177	0xbf01bf66	-0.50682676
178	0xbe6233ce	-0.22090074
179	0xbf1b3d46	-0.6064037
180	0xbe8e657f	-0.2781181
181	0x3e6d001c	0.23144573
182	0x3f0a9767	0.5413727
183	0x3ee75a05	0.45185867
184	0xbf1f06c9	-0.6211973
185	0x3f0ba78c	0.5455253
186	0x3e215783	0.1575604
187	0xbf2e769f	-0.6814975
188	0xbf3de658	-0.741796
189	0x3f1bacaa	0.6081034
190	0x3ef88d1e	0.48545164
191	0x3ce5a280	0.028031588
192	0xbf278e2e	-0.65451324
193	0xbedd0f05	-0.43175521
194	0xbf398748	-0.7247205
195	0xbf08dc9c	-0.53461623
196	0x3f3b8d1f	0.7326221
197	0xbf2595d4	-0.64681745
198	0x3f271457	0.6526541
199	0x3f699d8e	0.91256034
200	0x3f034a53	0.51285285
201	0xbf02b330	-0.5105467
202	0x3f83af43	1.0287861
203	0xbf1c31db	-0.61013573
204	0xbf3f6e94	-0.74778104
205	0x3e5995fc	0.21248621
206	0xbf282099	-0.6567474
207	0x3fa65092	1.2993338
208	0xbdd42ef8	-0.10360521
209	0xbd61d540	-0.05513501
210	0xbf8f67b3	-1.1203521
211	0xbfb241f0	-1.3926373
212	0xbddb4a7c	-0.10707566
213	0xbeab8081	-0.33496478
214	0x3f79aa68	0.97525644
215	0xbef9d8a9	-0.4879811
216	0xbeb85cec	-0.36008394
217	0xbf35bc92	-0.7099086
218	0x3f30f7d9	0.69128186
219	0xbe36a9e8	-0.17838252
220	0x3f2ad702	0.66734326
221	0x3f48cf5f	0.78441423
222	0x3d5d6b15	0.0540572
223	0xbf60d077	-0.8781809
224	0xbe23cf70	-0.159971
225	0xbee6c202	-0.4506989
226	0x3f65a83a	0.8970982
227	0x3edbf630	0.42961264
228	0xbf1b8f84	-0.6076586
229	0xbe18ad73	-0.14909916
230	0xbf55df7d	-0.8354414
231	0x3f97653e	1.1827772
232	0xbf5feda5	-0.8747199
233	0x3f33396a	0.7000948
234	0x3e84d7ae	0.259458
235	0xbea706f5	-0.32622495
236	0x3f6869f9	0.907867
237	0xbf2f52eb	-0.684859
238	0xbe65c764	-0.22439343
239	0x3e1833f4	0.14863569
240	0xbe9035f5	-0.28166166
241	0xbe9bd4be	-0.30435747
242	0xbef1ced2	-0.47228104
243	0xbf2e1273	-0.679969
244	0xbf2bc874	-0.6710274
245	0xbe7659c1	-0.24057676
246	0xbf326b62	-0.69695103
247	0xbf04f796	-0.51940286
248	0xbfad4f68	-1.3539858
249	0xbe59eed7	-0.21282516
250	0x3e5c5c08	0.21519482
251	0xbde3d508	-0.11124617
252	0x3f2dd69e	0.67905605
253	0x3f93b796	1.1540401
254	0xbd58e3a0	-0.052951455
255	0xbce3a480	-0.0277884

linear_relu_stack.0.bias f4 [128]
0	0xbeb8f800	-0.3612671
1	0x3f105878	0.5638499
2	0x3f695bf8	0.9115596
3	0x3eee21f3	0.46510276
4	0x3ec21af2	0.37911183
5	0x3dbcc811	0.09217847
6	0x3f515f06	0.8178562
7	0x3ee83553	0.45353183
8	0x3f51fed6	0.82029474
9	0x3ea79cae	0.32736725
10	0x3f0a6cf7	0.5407252
11	0x3d9a3654	0.075298935
12	0x3ea73976	0.32661027
13	0x3e8e9685	0.27849212
14	0x3f0baad9	0.5455757
15	0x3f1cf3ef	0.61309713
16	0x3e1b6be8	0.15177882
17	0x3f5c22c8	0.8599057
18	0xbeff358a	-0.49845535
19	0x3f1353e4	0.5754988
20	0xbf0b7fd3	-0.5449192
21	0x3ec08394	0.37600386
22	0x3f611fc3	0.8793909
23	0xbea14c84	-0.3150369
24	0x3f0b10f5	0.5432275
25	0xbecbc35e	-0.3979749
26	0x3ed009a9	0.4063237
27	0xbf0ab546	-0.5418285
28	0x3effc13d	0.49952117
29	0x3e8d23f7	0.27566501
30	0xbf016652	-0.50546753
31	0xbf317e58	-0.6933341
32	0x3f4dc6af	0.8038129
33	0x3ecbb59a	0.39786988
34	0x3ec01682	0.37517172
35	0x3eed0fd8	0.4630115
36	0xbee96a9c	-0.4558915
37	0xbf1808a7	-0.593882
38	0xbd625d60	-0.05526483
39	0x3ef887ca	0.485411
40	0xbeb95a74	-0.36201823
41	0xbf0ee844	-0.5582316
42	0x3ea954fa	0.33072644
43	0x3f396e8a	0.72434294
44	0xbf18a681	-0.59629065
45	0x3f463f25	0.774401
46	0x3f69146e	0.910468
47	0x3e8ab7ca	0.27093345
48	0xbf076114	-0.52882504
49	0x3ee8c378	0.4546163
50	0x3ee127a9	0.4397557
51	0x3f13b46d	0.5769718
52	0xbf215fb8	-0.6303668
53	0xbf30bafd	-0.6903532
54	0x3e10faab	0.14158122
55	0x3ecab307	0.39589712
56	0xbf207309	-0.6267553
57	0x3f124696	0.57138956
58	0xbeaaf323	-0.33388624
59	0xbf1ef57a	-0.6209332
60	0xbf14e8ca	-0.5816771
61	0x3e9e8e8e	0.30968136
62	0x3f058371	0.5215369
63	0x3ec2aaf4	0.38021052
64	0x3ed418f5	0.4142529
65	0xbefb5f5b	-0.49096188
66	0x3e91c55b	0.28470883
67	0x3f1a3000	0.6022949
68	0xbf0d1770	-0.5511389
69	0xbf10d397	-0.5657286
70	0x3f27daed	0.6556843
71	0xbf27a66a	-0.654883
72	0x3f005d0a	0.50141966
73	0x3eb6cf87	0.35705206
74	0xbe9911ef	-0.29896495
75	0x3e0db04c	0.13836783
76	0x3ef1a346	0.4719488
77	0x3d69399b	0.056939702
78	0x3ef8e476	0.48611802
79	0x3d8083bf	0.062751286
80	0x3f4f3e75	0.80954677
81	0xbf31d108	-0.6945958
82	0x3ee2fcd7	0.44333526
83	0x3ecc2a8a	0.39876205
84	0x3efbf0b3	0.49207076
85	0xbf1ebe54	-0.6200917
86	0xbeb7d01c	-0.35900962
87	0xbf14ed4d	-0.5817459
88	0x3f17934f	0.5920915
89	0xbf22b091	-0.6355067
90	0xbec2c0ed	-0.38037816
91	0x3f519756	0.81871545
92	0x3f1cdacd	0.61271363
93	0x3ebbf4f8	0.36710334
94	0x3ebdb843	0.37054643
95	0xbec59f78	-0.38598228
96	0x3ea816a1	0.32829764
97	0x3f369528	0.71321344
98	0x3f1ee6da	0.62071
99	0x3f550c04	0.8322146
100	0xbed47c33	-0.41501006
101	0x3f26e483	0.6519243
102	0x3ee2b933	0.4428192
103	0x3da50029	0.08056671
104	0xbf1a99de	-0.6039103
105	0x3e3553fa	0.17707816
106	0x3ef1fcdd	0.47263232
107	0x3e9f3009	0.31091335
108	0x3ee39343	0.4444829
109	0xbeec2784	-0.46123898
110	0xbb6c3fa6	-0.003604868
111	0x3eec997c	0.4621085
112	0xbf179e73	-0.5922615
113	0x3edf873d	0.43657866
114	0x3f012d36	0.5045961
115	0x3db6e320	0.089300394
116	0x3ee4c156	0.44678754
117	0xbed76284	-0.4206735
118	0x3f459813	0.7718517
119	0xbf2dde2e	-0.67917144
120	0xbf0d9541	-0.5530587
121	0x3eea2e5a	0.45738488
122	0x3eb5dabe	0.3551845
123	0x3eeeab90	0.46615267
124	0x3de63b0a	0.112417296
125	0xbf2dad92	-0.6784297
126	0x3e41fd8e	0.1894438
127	0xbeec46c0	-0.46147728

linear_relu_stack.2.weight f4 [64, 128]
0	0xbcbde6d4	-0.023181356
1	0xbd6f8191	-0.058473174
2	0xbd6e4129	-0.05816761
3	0xbcd64114	-0.026154079
4	0xbc412a53	-0.011789876
5	0xbda8e233	-0.08246269
6	0xbc8853c4	-0.016641505
7	0xbd26b618	-0.040701002
8	0x3c173be8	0.009230591
9	0xbc932c28	-0.017965391
10	0x3d869e83	0.065732025
11	0xbcf10c73	-0.029424882
12	0x3d8eaf11	0.06966985
13	0xbd076884	-0.03305866
14	0xbd94cdf0	-0.07265842
15	0xbcf63fc3	-0.0300597
16	0x3d99bef0	0.075071216
17	0x3d1f0069	0.03881875
18	0x3c914efc	0.017737858
19	0xbdb247f2	-0.08705129
20	0xbb5759c0	-0.0032859892
21	0x3d5e70fe	0.054306976
22	0x3d951f87	0.07281404
23	0x3cca8770	0.024722785
24	0xbbde0ede	-0.0067766747
25	0x3c51a568	0.012795784
26	0xbbb12324	-0.0054058004
27	0x3d1c96c6	0.038229726
28	0xbd65e86c	-0.056129858
29	0x3c821434	0.015878774
30	0xbb66d840	-0.003522411
31	0xbd4245db	-0.0474299
32	0xbd691846	-0.056907915
33	0x3c2edb36	0.010672381
34	0xba9f6f80	-0.0012163967
35	0x3cc2ce9b	0.023780158
36	0xbd43bed0	-0.047789395
37	0x3d7b4796	0.061347567
38	0xbd662d68	-0.056195647
39	0x3d2e6e8f	0.042585906
40	0xbd0b4dd6	-0.034009777
41	0x3bfef990	0.007781215
42	0x3d4c7045	0.049911756
43	0xbd0da11a	-0.034577467
44	0xbc635290	-0.013874665
45	0x3bf4a1c6	0.007465574
46	0x3d8f4abc	0.06996676
47	0x3b8f6d03	0.004377009
48	0xbd50e9a8	-0.051004082
49	0xbd71904a	-0.058975495
50	0x3da6f34e	0.081518754
51	0x3cfb55f0	0.030680627
52	0x3d548532	0.051884837
53	0x3c6f2d58	0.014598213
54	0x3cc1dbb4	0.023664333
55	0xbd809d20	-0.06279969
56	0xbd861b8e	-0.065482244
57	0x3c6343e0	0.013871163
58	0x3d5d397a	0.054009892
59	0xbceb9d56	-0.028761547
60	0xbd03148f	-0.032002028
61	0xbda9b305	-0.082860984
62	0x3d92fab5	0.07176725
63	0xbd83a451	-0.06427825
64	0x3cebcd2b	0.028784355
65	0xbdaaf002	-0.08346559
66	0x3d33a16e	0.043855123
67	0x3c8ea9d1	0.01741496
68	0x3d709336	0.05873414
69	0x3d98d907	0.0746327
70	0xbd1483a5	-0.03625836
71	0xbd85fd89	-0.065424986
72	0xbd107ed2	-0.035277195
73	0x3d64efda	0.055892803
74	0xbcd41928	-0.025890902
75	0xbb0231ec	-0.0019866182
76	0xbda49214	-0.08035675
77	0xbd637096	-0.055527292
78	0x3d6ca662	0.057775863
79	0x3d9daab1	0.076985724
80	0x3ca170f6	0.019707184
81	0x3d85cbe5	0.065330304
82	0xbd312fed	-0.043258596
83	0x3b93d140	0.0045110285
84	0x3ca0c87f	0.019626854
85	0xbcb7f37c	-0.02245497
86	0xbd6e48f6	-0.05817505
87	0x3d83f45f	0.064430945
88	0xbd5dd021	-0.054153565
89	0xbcfd805c	-0.030944996
90	0xbcfe202a	-0.031021196
91	0xbd793e3c	-0.060850367
92	0x3ba5fd11	0.0050655683
93	0xbc22d944	-0.0099394955
94	0xbb972375	-0.004612381
95	0x3d853e75	0.06506053
96	0xbd8e2281	-0.06940175
97	0xbdac89ce	-0.08424722
98	0xbdbdcee8	-0.0926798
99	0x3d5fbbbb	0.054622393
100	0xbd15531f	-0.036456224
101	0xbd89b4cb	-0.06723937
102	0x3da5a152	0.0808741
103	0xbd061885	-0.032738227
104	0x3d5bc1c2	0.05365158
105	0x3d00bcbc	0.03142999
106	0xbdadd6cd	-0.084882356
107	0x3cb9e569	0.0226924
108	0x3d1d0c6a	0.038341917
109	0x3d8cf375	0.06882373
110	0x3d467551	0.048451725
111	0x3d093e55	0.03350671
112	0x3d067d56	0.032834373
113	0xbd2b509f	-0.041824933
114	0x3c28fb09	0.010313758
115	0x3ba03e30	0.004890226
116	0xbd04b1cc	-0.032396123
117	0xbbbe93d0	-0.0058159605
118	0xbd10b18d	-0.035325576
119	0x3c1360a8	0.008995213
120	0x3d6a992e	0.05727499
121	0xbdafe53a	-0.08588643
122	0xbd8e62d4	-0.06952444
123	0xbd415026	-0.047195576
124	0xbc143e90	-0.009048119
125	0xbdac896f	-0.08424651
126	0xbdaf678e	-0.08564673
127	0xbd8a4bcb	-0.067527376
128	0x3d884d7b	0.06655403
129	0xbd5437e1	-0.051811103
130	0x3d93a5fa	0.07209392
131	0x3d4f1cd1	0.05056459
132	0xbd807b96	-0.06273572
133	0x3ce5a025	0.028030464
134	0xbdc372a5	-0.09543351
135	0xbcbc0c39	-0.022955047
136	0xbc4b2a15	-0.01240017
137	0x3d84e51f	0.06489014
138	0xbd00c193	-0.031434607
139	0x3ce19fcd	0.02754202
140	0xbd233b15	-0.039851267
141	0x3b30b4cc	0.0026963232
142	0x3d600489	0.054691825
143	0xbd9636b5	-0.07334653
144	0xbd9d675d	-0.076857306
145	0xbb7c9659	-0.0038541763
146	0x3b3404a0	0.0027468577
147	0x3c851a9d	0.016248042
148	0xbc294658	-0.010331713
149	0xbc83d29c	-0.016091637
150	0xbd5b2c44	-0.053509012
151	0xbd841a3e	-0.06450318
152	0x3cafbf01	0.021453382
153	0xbbd6dcc0	-0.006557077
154	0xbca99520	-0.020700991
155	0xbcf4ace4	-0.029867597
156	0xbda9f74a	-0.0829912
157	0xbd9c7f83	-0.076415084
158	0xbb148a40	-0.0022665411
159	0x3d1137c8	0.035453588
160	0x3cdec080	0.0271914
161	0xbdaf33da	-0.08554812
162	0x3d5743f8	0.052555054
163	0xbba2c60e	-0.0049674576
164	0xbcebfc88	-0.02880694
165	0x3d9d1215	0.076694645
166	0xbd19cdf5	-0.03754993
167	0x3d527130	0.051377475
168	0xbcab5ae4	-0.020917363
169	0xbc8c4d94	-0.017126836
170	0x3d836d32	0.06417312
171	0x3cfd8853	0.030948794
172	0xbcb122d8	-0.02162306
173	0x3d9a165c	0.07523796
174	0x3ce27903	0.027645594
175	0xbc9eccba	-0.01938473
176	0xbd96a155	-0.073549904
177	0xbda9a717	-0.08283823
178	0x3d38225e	0.04495465
179	0xbd296c67	-0.041363146
180	0xbd823780	-0.06358242
181	0x3d30e3be	0.043185942
182	0xbbadc9c0	-0.0053035915
183	0xbd92d509	-0.071695395
184	0xba6da780	-0.0009065792
185	0x3d8edf57	0.069761924
186	0xbda85343	-0.08219006
187	0xbda62fae	-0.08114563
188	0xb9ce6d00	-0.00039372593
189	0xbdb1e79a	-0.086867526
190	0x3c8f2eb3	0.017478323
191	0x3d12e1ce	0.035859875
192	0x3d7037c7	0.058646943
193	0x3d97e2bd	0.07416294
194	0x3d100625	0.03516211
195	0x3ce10db1	0.027472349
196	0xbca7a08c	-0.020462297
197	0x3b81c190	0.003959842
198	0xbd6bf16a	-0.057603277
199	0xbc6b5eb0	-0.014365837
200	0xbd4b138c	-0.04957919
201	0x3d5808df	0.052742835
202	0x3d43a132	0.04776115
203	0x3ce44674	0.027865626
204	0xbda1a234	-0.07892266
205	0xbd4e3a86	-0.05034878
206	0xbc1c67ab	-0.009546201
207	0x3d1b6937	0.037942138
208	0x3b797111	0.0038061778
209	0x3c32d0d8	0.01091405
210	0xbd85f93b	-0.065416776
211	0x3cfcf26d	0.030877316
212	0xbd636518	-0.055516332
213	0xbda4659e	-0.080271944
214	0x3d1ace56	0.037794434
215	0xbccb0800	-0.024784088
216	0x3d636445	0.055515546
217	0x3cb3c76c	0.021945678
218	0x3cf6e188	0.030136839
219	0x3d964b23	0.0733855
220	0xbbff5b5c	-0.0077928733
221	0xbb946190	-0.004528232
222	0x3d4a42ac	0.04937999
223	0xbd48dffc	-0.049041733
224	0x3cef7b8c	0.029233716
225	0xbd9cca7e	-0.0765581
226	0xbdb14736	-0.086561605
227	0x3d189ad3	0.037257027
228	0xbc5f7c98	-0.013640545
229	0xbcda14aa	-0.026621182
230	0x3cc395c8	0.023875132
231	0xbc9349ef	-0.01797959
232	0xbbc6e250	-0.006069459
233	0xbcdc352e	-0.026880827
234	0xbd8688be	-0.0656905
235	0xbd683a30	-0.056696117
236	0x3b016c27	0.0019748302
237	0x3cd65668	0.026164249
238	0xbd0d4415	-0.034488756
239	0xbc07a399	-0.008278751
240	0x3d8fefeb	0.070281826
241	0xbd7e5d48	-0.06210068
242	0xbd9f0d22	-0.07766177
243	0xbd34173b	-0.043967467
244	0xbd3cdf5a	-0.046111442
245	0xbd312ac2	-0.043253668
246	0x3bf94798	0.0076074116
247	0x3babfcd0	0.0052486435
248	0x3c903d28	0.017607287
249	0xbcbce5fd	-0.023058886
250	0x3ca16c5c	0.01970499
251	0xbc74cbcc	-0.014941167
252	0xbda7ca1e	-0.08192848
253	0x3d3e2f7e	0.04643201
254	0x3a8b59dc	0.0010631639
255	0xbd86bc90	-0.06578934

linear_relu_stack.2.bias f4 [64]
0	0x3d0e763e	0.034780733
1	0xbcca9d2b	-0.024733147
2	0x3e853e4b	0.26024088
3	0x3cbd6a84	0.02312208
4	0x3bb0f4e0	0.005400285
5	0x3ddec414	0.10877243
6	0x3e847281	0.2586861
7	0xbc91e6a4	-0.017810173
8	0x3daa5399	0.08316726
9	0xbd68f74c	-0.056876466
10	0x3e0ea00e	0.13928244
11	0x3e8b128e	0.27162594
12	0xbd4b05af	-0.049565967
13	0x3e23f70a	0.16012207
14	0x3d026013	0.031829905
15	0x3d0324df	0.032017585
16	0x3b83dbf0	0.0040240213
17	0x3c973ce8	0.01846166
18	0xbc41f7be	-0.0118388515
19	0x3e27cf1e	0.16387603
20	0x3e877787	0.2645838
21	0x3debdffa	0.115173295
22	0x3e481843	0.19540505
23	0xbc6efd80	-0.014586806
24	0x3d14c414	0.036319807
25	0x3e328d48	0.17436707
26	0x3e0223df	0.12708996
27	0x3e005a41	0.12534429
28	0x3e18665f	0.14882801
29	0xbce04b70	-0.027379721
30	0xbc925554	-0.017862953
31	0x3e455c68	0.19273531
32	0xbd559a1a	-0.052148916
33	0xbd8c6422	-0.06855036
34	0x3dfebd4e	0.12438451
35	0x3e0010f5	0.12506469
36	0x3d9c524b	0.07632884
37	0x3d6a1d22	0.05715669
38	0x3de9cab6	0.11415617
39	0xbcce6bf6	-0.025197964
40	0x3e4a06ec	0.19729203
41	0x3e0fb4ab	0.14033763
42	0x3e72c9aa	0.23709741
43	0x3e198bb4	0.14994699
44	0xbcfc98fa	-0.030834664
45	0xbd5c90ca	-0.05384902
46	0x3e637dc4	0.22215945
47	0x3e5e6748	0.21719086
48	0x3df6fbdc	0.12059757
49	0xbd2c4574	-0.042058423
50	0xbd177ea1	-0.036985997
51	0x3e5dc153	0.21655779
52	0x3dc67460	0.096901655
53	0x3df4bc04	0.11949924
54	0x3e46af01	0.19402696
55	0x3d402236	0.046907626
56	0x3e0fac7b	0.1403064
57	0x3e2cec2f	0.16886972
58	0x3d73c6fa	0.05951593
59	0x3d0a6083	0.033783447
60	0x3df662d1	0.120305665
61	0x3e37c474	0.17946035
62	0x3e2da745	0.1695834
63	0x3e805cd9	0.25070837

linear_relu_stack.4.weight f4 [32, 64]
0	0xbbb6a8e2	-0.0055743316
1	0x3dca4611	0.09876645
2	0x3e0f5799	0.1399826
3	0x3b127e00	0.0022352934
4	0xbdd48fd4	-0.103789955
5	0x3ca46557	0.020067854
6	0x3e4fd28f	0.20295165
7	0x3d3050f0	0.043045938
8	0x3c0ee6f2	0.008722054
9	0x3ce408b8	0.027836189
10	0x3d1ee570	0.038793027
11	0xbd907950	-0.070543885
12	0x3cefa168	0.02925177
13	0x3e19b80f	0.15011619
14	0x3efd3375	0.4945332
15	0xbf159b07	-0.5843968
16	0xbda075b8	-0.07834953
17	0x3c8d5388	0.017251745
18	0x3e65b032	0.22430494
19	0xbd99ec90	-0.07515824
20	0x3db253ce	0.08707391
21	0x3dc93455	0.09824435
22	0xbdfe2b95	-0.12410656
23	0x3d0b26ac	0.033972427
24	0xbd89707e	-0.06710909
25	0xbc61578d	-0.013753784
26	0xbe2f9f83	-0.17150693
27	0xbe354182	-0.1770077
28	0x3c3c66f8	0.011499159
29	0xbe3d53dc	-0.18489021
30	0xbdf97d1a	-0.12182064
31	0x3e03df86	0.12878236
32	0xbd93323c	-0.07187316
33	0x3d94f69e	0.07273601
34	0xbd87d48f	-0.06632339
35	0xbe2b86ce	-0.16750643
36	0x3d28f758	0.04125151
37	0x3dc8d4c8	0.0980621
38	0xbe1caa11	-0.1529925
39	0x3ebc529e	0.36781782
40	0x3dcf0dd1	0.10110057
41	0x3dca0dee	0.09865938
42	0xbe0302d7	-0.12794052
43	0x3dabfadc	0.08397457
44	0xbccb9098	-0.024849221
45	0xbde729bc	-0.11287257
46	0xbdcd18e9	-0.10014517
47	0xbde3ce96	-0.111233875
48	0xbd913530	-0.07090223
49	0x3be21860	0.0068998784
50	0xbd13ddc0	-0.03610015
51	0xbd8c7ec9	-0.0686012
52	0xbd35f771	-0.04442543
53	0x3daa18f4	0.08305541
54	0x3e0974bd	0.13423438
55	0xbdef2f92	-0.11678995
56	0x3d1bba94	0.03801973
57	0x3e40cccf	0.18828128
58	0x3de415b6	0.111369535
59	0x3c5ab725	0.013349329
60	0x3d7952f2	0.06087012
61	0x3c1b5eaf	0.009483024
62	0x3e1b756c	0.15181512
63	0xbdc60cfb	-0.096704446
64	0xbda10c32	-0.07863654
65	0xbdda1e4a	-0.106503084
66	0xbb7a8900	-0.003822863
67	0x3d9f2c3e	0.077721104
68	0xbd903984	-0.0704222
69	0xbdc0d77e	-0.09416102
70	0x3d83bf3e	0.06432961
71	0x3d97b592	0.07407679
72	0x3cf469c0	0.029835582
73	0xbda2a1b4	-0.07940999
74	0x3dc65f7e	0.096861824
75	0x3d485a88	0.048914462
76	0x3bff0cc0	0.0077835023
77	0xbd90316e	-0.07040678
78	0xbd83aca0	-0.0642941
79	0x3d1efdf8	0.038816422
80	0xbd2e0fdc	-0.042495593
81	0xbd3fff9c	-0.046874627
82	0x3dd07e0c	0.101802915
83	0x3d20cfd0	0.039260685
84	0xbd8b5078	-0.068024576
85	0xbc2f7b10	-0.010710493
86	0x3cd9e770	0.026599616
87	0xbd8cd7d0	-0.068771005
88	0xbdf53fb2	-0.119750395
89	0xbdfdd80e	-0.12394725
90	0xbdd31552	-0.10306801
91	0xbd039fec	-0.032134935
92	0xbdd8cea2	-0.10586287
93	0xbc36d890	-0.011160031
94	0x3d3ec3bc	0.046573386
95	0xbd9f25d0	-0.07770884
96	0x3de05850	0.10954344
97	0xbcda02d0	-0.02661267
98	0x3db6b790	0.089217305
99	0xbd943b12	-0.07237829
100	0x3bb790a0	0.0056019574
101	0x3c924930	0.017857164
102	0x3d88f192	0.06686701
103	0xbded36b8	-0.115827024
104	0x3d4b1684	0.04958202
105	0x3a05a200	0.0005097687
106	0xbd8f41b0	-0.06994951
107	0xbdc12c44	-0.09432271
108	0x3df70038	0.120605886
109	0x3d1a0cc0	0.037609816
110	0x3deca460	0.115547895
111	0xbd4768d8	-0.04868397
112	0xbb98e640	-0.00466612
113	0x3db32f72	0.08749284
114	0xbda19d30	-0.07891309
115	0x3c1d8850	0.009615019
116	0xbde6437a	-0.11243339
117	0xbdeafd74	-0.114741236
118	0xbdd81db4	-0.105525404
119	0xbbefd800	-0.0073194504
120	0xbda139ac	-0.07872328
121	0xbdb7a662	-0.08967282
122	0xbcc511e8	-0.02405639
123	0xbc9beb00	-0.019032955
124	0xbddd3710	-0.10801518
125	0xbde20664	-0.11036375
126	0xbd210b94	-0.039317682
127	0x3c906dd8	0.017630503
128	0xbd82fcbe	-0.06395863
129	0xbd9d86d4	-0.07691732
130	0x3e69d198	0.2283386
131	0xbc8bc3d8	-0.017061159
132	0x3d5bd708	0.053671867
133	0xbddf9a30	-0.10918081
134	0x3e48ef32	0.19622496
135	0x3d8b69c6	0.06807284
136	0x3d2c4341	0.042056326
137	0x3de0529a	0.10953255
138	0x3e769b4c	0.24082679
139	0xbe5886da	-0.21145192
140	0xbd3d5dd4	-0.04623206
141	0x3e16db46	0.14732084
142	0x3e5acb6f	0.21366666
143	0xbe3119d5	-0.1729501
144	0xbd39e668	-0.04538575
145	0x3c972628	0.018450812
146	0xbf2c98d4	-0.674207
147	0x3bd01026	0.0063495813
148	0x3c823727	0.01589544
149	0xbd9684d2	-0.07349552
150	0xbe5b99bd	-0.21445365
151	0xbd21aafc	-0.039469704
152	0xbd39c83c	-0.045356974
153	0x3dae32b1	0.08505762
154	0x3e03123f	0.12799929
155	0xbe507896	-0.203585
156	0xbdbd2129	-0.092348404
157	0x3e757eaf	0.23974107
158	0x3df1e256	0.11810748
159	0x3d48ba5e	0.04900586
160	0xbddfa054	-0.10919252
161	0x3d8eb97e	0.069689736
162	0x3e4e8019	0.20166053
163	0xbe0e5681	-0.13900186
164	0xbd9dfcd7	-0.07714241
165	0xbd877f78	-0.066161096
166	0x3cde8c58	0.02716653
167	0xbecb653b	-0.3972567
168	0x3df19f55	0.11797968
169	0x3e56b6e2	0.20968202
170	0xbcb7eddd	-0.02245229
171	0x3e0a2ac8	0.13492882
172	0x3de6a080	0.11261082
173	0x3d4e4618	0.050359815
174	0xbd298022	-0.041381963
175	0xbe68b4c7	-0.22725211
176	0xbe135531	-0.14387967
177	0xbd214af0	-0.039378107
178	0xbd5f996c	-0.054589674
179	0xbe20e2e3	-0.1571155
180	0x3e2cae80	0.16863441
181	0xbd0b762f	-0.034048256
182	0x3d545ab3	0.05184431
183	0x3d1a667e	0.0376954
184	0x3e49842c	0.19679326
185	0x3e593593	0.21211843
186	0x3ddd0148	0.1079126
187	0x3dcf4b54	0.101217896
188	0x3ca6cc5e	0.020361122
189	0xbb96f85d	-0.004607244
190	0x3dc064b2	0.09394206
191	0xbccdef46	-0.025138509
192	0x3d3da994	0.0463043
193	0x3cf738e8	0.030178502
194	0x3dc91fe0	0.09820533
195	0xbd65a1ac	-0.056062385
196	0x38109000	3.4466386e-05
197	0x3d2bfd9c	0.041989908
198	0x3caa93c0	0.020822406
199	0x3dcb6a8e	0.09932433
200	0x3df0487c	0.11732575
201	0x3d412f50	0.04716426
202	0xbd3d23cc	-0.046176717
203	0x3cb20170	0.021729201
204	0xbce93d58	-0.028471634
205	0xbdf24f4e	-0.118315324
206	0x3def1b2e	0.11675106
207	0xbdc0ffc2	-0.09423782
208	0x3db57324	0.08859852
209	0xbc7888c0	-0.0151693225
210	0xbdd21eb4	-0.102597624
211	0xbd0052a0	-0.031328797
212	0xbdb25f04	-0.08709529
213	0xbdd69f50	-0.10479605
214	0xbddd328e	-0.10800658
215	0x3d8a0ab8	0.06740326
216	0xbddff212	-0.10934843
217	0x3c52b3f0	0.012860283
218	0xbdda55ee	-0.10660921
219	0x3d7156f8	0.05892083
220	0x3d99d874	0.07511988
221	0xbc7acda0	-0.015307814
222	0x3c8364e8	0.016039327
223	0xbd900c82	-0.07033636
224	0xbcc3c270	-0.023896426
225	0xbd7f04a0	-0.06226027
226	0x3ccd8b60	0.025090873
227	0x3a8d2b80	0.001077041
228	0xbdf2ae66	-0.1184967
229	0xbcd53638	-0.02602683
230	0xbd521fcc	-0.051299855
231	0xbd970918	-0.07374781
232	0x3c8e70f0	0.017387837
233	0x3d564578	0.052312344
234	0x3dfa9c14	0.12236801
235	0xbda2eebc	-0.07955691
236	0xbd7e56c8	-0.06209448
237	0xbddd6534	-0.108103186
238	0xbd23d278	-0.03999564
239	0xbdd4c14c	-0.10388431
240	0xbdbdac0e	-0.092613325
241	0xbd835220	-0.064121485
242	0xbbdfe080	-0.0068321824
243	0xbd849368	-0.06473428
244	0xbd982e3a	-0.07430692
245	0xbc853470	-0.016260356
246	0xbdb5372a	-0.08848412
247	0x3d2ceb94	0.042216852
248	0x3da1076a	0.07862742
249	0x3da2df56	0.07952754
250	0x3d1d2ec8	0.038374692
251	0x3da28f4a	0.079374865
252	0xbdc7fa74	-0.09764567
253	0x3b9da080	0.004810393
254	0xbde96cd4	-0.113977104
255	0xbdfd4224	-0.12366131

linear_relu_stack.4.bias f4 [32]
0	0x3c713e77	0.014724365
1	0xbda1fffe	-0.07910155
2	0x3dd9ce17	0.10635012
3	0x3c670830	0.014101073
4	0xbdf3b09e	-0.118989214
5	0x3c044431	0.008072899
6	0x3dcc86a0	0.09986615
7	0x3e15684a	0.14590564
8	0xbd398418	-0.04529199
9	0x3dc9f649	0.09861428
10	0x3dd44a60	0.103657484
11	0x3e96c4c0	0.29446983
12	0x3d404821	0.046943787
13	0x3b01ec08	0.0019824523
14	0xbbdeec52	-0.006803074
15	0x3e6e54ab	0.23274486
16	0xbb82a846	-0.003987345
17	0x3e8efad8	0.27925754
18	0x3ce9f06d	0.028557027
19	0x3d8d4f76	0.068999216
20	0xbd8490f2	-0.064729586
21	0xbdb2b788	-0.08726412
22	0x3d1ec498	0.038761705
23	0xbd7bf340	-0.06151128
24	0xbd10e108	-0.035370857
25	0xbd7046c0	-0.058661222
26	0xbdf1d695	-0.118085064
27	0x3b314020	0.0027046278
28	0x3d3560c1	0.044281725
29	0x3d014da4	0.031568184
30	0x3e8e3e2a	0.27781802
31	0x3e68da79	0.2273959

linear_relu_stack.6.weight f4 [3, 32]
0	0xbe6f13fa	-0.23347464
1	0xbd2976e0	-0.041373134
2	0xbe6d631e	-0.23182341
3	0xbddf803e	-0.10913132
4	0x3dc0277a	0.093825296
5	0xbca6425d	-0.020295316
6	0x3e9f7188	0.31141305
7	0x3e15bc41	0.14622594
8	0x3dee649e	0.11640285
9	0x3d2ca1d8	0.042146534
10	0xbe0ae11c	-0.13562435
11	0x3e4e599a	0.20151368
12	0xbe00ac60	-0.12565756
13	0xbe0b4d92	-0.1360381
14	0xbe5680be	-0.20947549
15	0x3eabc999	0.33552244
16	0x3e7b1682	0.24520305
17	0x3e359f85	0.17736633
18	0x3b088878	0.0020833295
19	0xbe8db8fe	-0.276802
20	0xbe84f832	-0.25970608
21	0xbe94d785	-0.29070678
22	0x3e912ece	0.28356022
23	0x3e0e6b01	0.13908006
24	0xbdea7fd4	-0.114501625
25	0xbdf2c46e	-0.11853872
26	0x3dc5de5f	0.096615545
27	0x3e13f093	0.1444724
28	0xbe7c0ed5	-0.24615033
29	0xbeb52a74	-0.35383952
30	0x3e67b1e5	0.22626455
31	0x3e98f580	0.29874802
32	0x3ecdd1f2	0.40199238
33	0x3c365d50	0.011130646
34	0xbd30df8c	-0.04318194
35	0x3e26c1eb	0.16284911
36	0xbdfe13a8	-0.12406093
37	0x3f2b8d28	0.6701226
38	0x3e6add95	0.2293609
39	0x3e5dcede	0.21660945
40	0xbdcf0e86	-0.10110192
41	0x3f1ca980	0.61196136
42	0x3e133930	0.14377284
43	0x3de06b8c	0.10958013
44	0xbdc4c3c3	-0.09607651
45	0xbe9166fe	-0.2839889
46	0xbf1ef774	-0.62096334
47	0x3d59a8ef	0.053139623
48	0x3e48e909	0.19620146
49	0xbe5a1fa9	-0.2130114
50	0xbdc03437	-0.09384959
51	0xbee1de1d	-0.4411477
52	0xbea3a9a1	-0.31965354
53	0x3dc0bde6	0.0941122
54	0xbe5d9a9d	-0.21641012
55	0xbde999ad	-0.114062645
56	0xbd2787dc	-0.04090105
57	0x3d91daa6	0.07121782
58	0xbd066bcd	-0.03281765
59	0x3e6d43fb	0.23170464
60	0x3ed10eab	0.40831503
61	0xbe406dff	-0.1879196
62	0xbd629d60	-0.055325866
63	0xbe7f8f1d	-0.24956937
64	0x3c8788cf	0.016544728
65	0x3dce7542	0.10080959
66	0xbeabb035	-0.33532873
67	0xbd9f3591	-0.07773889
68	0xbdcb2f4e	-0.09921132
69	0xbdf28c81	-0.11843205
70	0xbe0b5b04	-0.13608938
71	0x3e30f818	0.1728214
72	0xbd4bda6c	-0.04976885
73	0xbebcb2a8	-0.36855054
74	0x3e8e4895	0.2778975
75	0x3e71ac68	0.23600924
76	0xbd8bc429	-0.06824524
77	0x3ef0b041	0.4700947
78	0x3c1d7855	0.009611209
79	0xbe88edec	-0.2674402
80	0xbe14c9b5	-0.1453007
81	0x3e884013	0.26611385
82	0x3e012312	0.12611035
83	0xbdce684d	-0.100784875
84	0x3e69e789	0.2284223
85	0xbef140e6	-0.47119826
86	0xbc8b12cf	-0.016976742
87	0x3da46c12	0.08028425
88	0x3d7ce3d8	0.061740726
89	0xbc08c110	-0.008346811
90	0xbd0cdbc4	-0.034389272
91	0xbd82f49a	-0.0639431
92	0x3e18d7cb	0.14926068
93	0x3e1db5d5	0.15401395
94	0x3c9a2126	0.018814635
95	0xbd7b1772	-0.061301656

linear_relu_stack.6.bias f4 [3]
0	0x3ea84eca	0.3287261
1	0xbd4bd255	-0.049761135
2	0xbd967883	-0.073472045

exp_avg f4 [128, 2]
0	0x00000000	0.0
1	0x00000000	0.0
2	0xbb531378	-0.003220765
3	0xbb741dec	-0.003724928
4	0x39d1b7e0	0.00040000584
5	0xbb7d3f50	-0.0038642474
6	0xbba56017	-0.005046855
7	0x3b3a132f	0.0028392782
8	0xba54f860	-0.0008124169
9	0xbba35cc2	-0.004985423
10	0x3c07b1ac	0.008282106
11	0xbb4ccd0e	-0.0031250152
12	0xbbca1c28	-0.0061679073
13	0x39e8c518	0.00044397335
14	0xbb3be9b0	-0.0028673224
15	0xbb9e0dc2	-0.0048234174
16	0xbacb7e60	-0.0015525334
17	0xbb4297a6	-0.002969244
18	0xbc000eb9	-0.00781601
19	0x3aa7b30a	0.0012794447
20	0x3b733e5e	0.003711603
21	0xbbfc2d4c	-0.0076958295
22	0xbb658632	-0.0035022614
23	0xba80de93	-0.0009831957
24	0x3ba6bd8a	0.005088513
25	0xbc118719	-0.008882307
26	0x3b91f8c3	0.0044547035
27	0xbbdaf080	-0.006681502
28	0xb8c88230	-9.5609925e-05
29	0xbb181c1e	-0.0023210119
30	0x393e8a78	0.00018171396
31	0xbba51adc	-0.0050386023
32	0xbc194674	-0.009355176
33	0xbb48cf0a	-0.0030640983
34	0xbb9d55c6	-0.0048014848
35	0x397df940	0.00024220813
36	0x00000000	0.0
37	0x00000000	0.0
38	0xbbbad7b2	-0.0057019824
39	0x3b3ec6e6	0.0029110252
40	0x00000000	0.0
41	0x00000000	0.0
42	0xbbce7357	-0.0063003707
43	0x3784a240	1.581118e-05
44	0x3a8ae4ea	0.0010596786
45	0xbb29745f	-0.0025856716
46	0x00000000	0.0
47	0x00000000	0.0
48	0xbb2d1078	-0.0026407521
49	0x32280000	9.778887e-09
50	0x00000000	0.0
51	0x00000000	0.0
52	0xbba9adce	-0.00517819
53	0x3b09bc44	0.0021016756
54	0x00000000	0.0
55	0x00000000	0.0
56	0xbb8c5018	-0.004282009
57	0xbb2b6df9	-0.0026158078
58	0xbbd81ad4	-0.006594995
59	0x3a7e6648	0.0009704572
60	0x00000000	0.0
61	0x00000000	0.0
62	0x00000000	0.0
63	0x00000000	0.0
64	0xbb9ba920	-0.004750386
65	0x3b12f728	0.0022425149
66	0xbbd3b828	-0.006461162
67	0x3a459b48	0.00075380923
68	0xbb778029	-0.0037765598
69	0xbb60a90c	-0.0034280447
70	0xbb96cab7	-0.004601802
71	0x3b6399e5	0.003472918
72	0x00000000	0.0
73	0x00000000	0.0
74	0x00000000	0.0
75	0x00000000	0.0
76	0x00000000	0.0
77	0x00000000	0.0
78	0x3a9214de	0.0011145135
79	0xbbccb2a4	-0.0062468816
80	0x00000000	0.0
81	0x00000000	0.0
82	0x00000000	0.0
83	0x00000000	0.0
84	0x3b8cd8f2	0.004298323
85	0xbb8d7775	-0.004317219
86	0x3a332a2e	0.00068345934
87	0xbbc5c0c1	-0.006034941
88	0x00000000	0.0
89	0x00000000	0.0
90	0x3adb2f7e	0.0016722528
91	0xbb886b68	-0.0041631944
92	0x39ef2008	0.00045609497
93	0xbbaf5d99	-0.005351734
94	0xbb827a52	-0.003981867
95	0x3ae94ce9	0.001779941
96	0x00000000	0.0
97	0x00000000	0.0
98	0xbbcd7f84	-0.0062713046
99	0x38eded20	0.000113452086
100	0x3aea3f92	0.0017871729
101	0xbb843193	-0.00403423
102	0xbbb4251a	-0.005497587
103	0xb9608380	-0.00021411292
104	0x00000000	0.0
105	0x00000000	0.0
106	0x00000000	0.0
107	0x00000000	0.0
108	0x3ae06936	0.0017121199
109	0xb7f72600	-2.946239e-05
110	0x3ba5b4b0	0.00505694
111	0xbbc63a59	-0.006049436
112	0x00000000	0.0
113	0x00000000	0.0
114	0x3a4af157	0.0007741651
115	0xbb8eefbf	-0.004362076
116	0x00000000	0.0
117	0x00000000	0.0
118	0x00000000	0.0
119	0x00000000	0.0
120	0x00000000	0.0
121	0x00000000	0.0
122	0xbc0966e9	-0.008386352
123	0x3b4c679c	0.0031189686
124	0x3b239ea2	0.0024966379
125	0xbb563ebc	-0.0032691201
126	0xbbd6f69c	-0.00656016
127	0xba97b322	-0.0011573771
128	0xbbe0a27e	-0.006855308
129	0xb9911de8	-0.00027678837
130	0x00000000	0.0
131	0x00000000	0.0
132	0xbc41fcde	-0.011840073
133	0x3bc9e037	0.0061607617
134	0xbb064b99	-0.0020491837
135	0xbba294e5	-0.0049615973
136	0x00000000	0.0
137	0x00000000	0.0
138	0x00000000	0.0
139	0x00000000	0.0
140	0xbae836a0	-0.0017716475
141	0xbb779d40	-0.0037782937
142	0x00000000	0.0
143	0x00000000	0.0
144	0x3a9a23f6	0.0011759985
145	0xbb6aec3c	-0.0035846373
146	0x3aa3b27d	0.0012489107
147	0xbb96e7a4	-0.0046052504
148	0x00000000	0.0
149	0x00000000	0.0
150	0x3baa9f1c	0.0052069556
151	0xbb19ea36	-0.0023485548
152	0x3aaf440a	0.0013371718
153	0xbbb3cc9b	-0.0054870374
154	0xbb66451e	-0.0035136412
155	0xbbf2cf47	-0.0074099633
156	0x3b75990c	0.0037475256
157	0xbb99d0a0	-0.0046940595
158	0x3b3671aa	0.0027838745
159	0xbb49442d	-0.0030710802
160	0xbb8fe75e	-0.004391595
161	0xbb056901	-0.0020356777
162	0x00000000	0.0
163	0x00000000	0.0
164	0xbc298c8f	-0.010348453
165	0x3bba80cf	0.0056916247
166	0xbb7931f6	-0.0038024164
167	0xbb141a10	-0.0022598542
168	0x3bacfb02	0.005278946
169	0xbb740e9a	-0.0037240149
170	0x00000000	0.0
171	0x00000000	0.0
172	0x00000000	0.0
173	0x00000000	0.0
174	0x00000000	0.0
175	0x00000000	0.0
176	0x3b06bf4d	0.0020560801
177	0xbbed7908	-0.007247094
178	0x00000000	0.0
179	0x00000000	0.0
180	0x00000000	0.0
181	0x00000000	0.0
182	0xb8abe6b8	-8.19689e-05
183	0xbb75c50c	-0.0037501482
184	0xbbc53896	-0.0060187085
185	0x3b2fc628	0.0026820991
186	0xbad40c62	-0.0016178007
187	0xbbb58dee	-0.005540601
188	0xbbf855fe	-0.0075786104
189	0x3b404cc7	0.0029342638
190	0x00000000	0.0
191	0x00000000	0.0
192	0xbc062028	-0.008186378
193	0x3aee717a	0.0018191778
194	0xbbc27286	-0.0059340624
195	0x38e67040	0.00010988163
196	0x3b098dac	0.0020988984
197	0xbbe66c6c	-0.007031968
198	0x3a1d3994	0.00059976545
199	0xbb2a367a	-0.0025972412
200	0x00000000	0.0
201	0x00000000	0.0
202	0x3badc495	0.0053029754
203	0xbc123000	-0.008922577
204	0xbbedb88e	-0.0072546666
205	0x3b20923c	0.0024501225
206	0xbbc7be54	-0.006095687
207	0x3a0f6868	0.0005470575
208	0x00000000	0.0
209	0x00000000	0.0
210	0xbb75ca4a	-0.0037504607
211	0x3b303a64	0.0026890272
212	0xbb4efa21	-0.0031582194
213	0xbb17bc71	-0.0023153091
214	0x3b4b4664	0.0031017298
215	0xbbb67baf	-0.0055689435
216	0xbba4cb26	-0.0050291
217	0xbb1a381c	-0.002353198
218	0x00000000	0.0
219	0x00000000	0.0
220	0xb8af0a80	-8.346606e-05
221	0x3a737298	0.000928679
222	0xbb0475ef	-0.0020211895
223	0xbbb1126b	-0.005403807
224	0x00000000	0.0
225	0x00000000	0.0
226	0x3bb7311e	0.005590572
227	0xbb864a07	-0.00409818
228	0xbbcdd856	-0.006281893
229	0x3a9f7bb2	0.0012167601
230	0xbb881c3e	-0.0041537574
231	0x3b0e11de	0.002167813
232	0xbc0adb62	-0.0084751565
233	0x3b96be2e	0.004600308
234	0x00000000	0.0
235	0x00000000	0.0
236	0x3a8a4ddc	0.0010551768
237	0xbbd17446	-0.0063920347
238	0x00000000	0.0
239	0x00000000	0.0
240	0x00000000	0.0
241	0x00000000	0.0
242	0xbbb6ecaa	-0.005582412
243	0xbadf1e78	-0.001702263
244	0xbc12b661	-0.008954615
245	0x3b29c0d5	0.002590229
246	0xbbe1d2d9	-0.00689159
247	0xb9cb7a98	-0.00038810517
248	0xbb969060	-0.0045948476
249	0x3b596981	0.0033174457
250	0x00000000	0.0
251	0x00000000	0.0
252	0x3b5ea64c	0.0033973632
253	0xbb944abc	-0.0045255106
254	0x00000000	0.0
255	0x00000000	0.0

exp_avg_sq f4 [128, 2]
0	0x00000000	0.0
1	0x00000000	0.0
2	0x39904004	0.00027513516
3	0x3996ecce	0.00028786663
4	0x3991cd05	0.00027809307
5	0x39792898	0.00023761613
6	0x3a291b4b	0.00064509053
7	0x3a24e5c0	0.0006290339
8	0x39ab23c4	0.0003264231
9	0x39c4afcc	0.00037515012
10	0x393783c5	0.00017501328
11	0x39501217	0.00019843165
12	0x39d4711e	0.0004052007
13	0x39906b31	0.00027545684
14	0x39a079c5	0.00030608303
15	0x39ba97a9	0.0003558968
16	0x396dd853	0.00022682668
17	0x3956d2b5	0.00020487125
18	0x3a0e619e	0.0005431416
19	0x39a07765	0.00030606534
20	0x39c0fe57	0.00036810592
21	0x398aa40d	0.00026443638
22	0x3992f2a2	0.00028028066
23	0x39a7a81e	0.0003197798
24	0x39dabc71	0.000417206
25	0x39aef2ab	0.00033368668
26	0x39a1e221	0.00030876792
27	0x396c9d96	0.00022565419
28	0x39afb39a	0.00033512415
29	0x39bd6e2c	0.00036130974
30	0x399a49bf	0.00029428114
31	0x398979ac	0.0002622133
32	0x39875ad3	0.00025816876
33	0x399d3674	0.00029985944
34	0x398b18f9	0.00026530752
35	0x3955a11a	0.00020373278
36	0x00000000	0.0
37	0x00000000	0.0
38	0x3a195045	0.0005848448
39	0x39e52ebd	0.00043713106
40	0x00000000	0.0
41	0x00000000	0.0
42	0x39c6403f	0.0003781337
43	0x398ea50e	0.00027207326
44	0x39e2e99a	0.00043280126
45	0x39ebfefd	0.00045012674
46	0x00000000	0.0
47	0x00000000	0.0
48	0x39ba4e0b	0.0003553483
49	0x39cd876e	0.0003920155
50	0x00000000	0.0
51	0x00000000	0.0
52	0x3a1fa1c7	0.00060894754
53	0x3a1ddff3	0.0006022446
54	0x00000000	0.0
55	0x00000000	0.0
56	0x39c313ef	0.0003720815
57	0x39b9fd68	0.00035474752
58	0x3a01487d	0.0004931761
59	0x3a08a12d	0.00052120053
60	0x00000000	0.0
61	0x00000000	0.0
62	0x00000000	0.0
63	0x00000000	0.0
64	0x3a166f4a	0.0005738629
65	0x3a0fcfa0	0.00054859556
66	0x39e53604	0.00043718528
67	0x3988c95f	0.00026089975
68	0x39ad8ee6	0.000331036
69	0x39cb70a1	0.00038803092
70	0x3a11d713	0.00055633596
71	0x3a0eec1d	0.0005452054
72	0x00000000	0.0
73	0x00000000	0.0
74	0x00000000	0.0
75	0x00000000	0.0
76	0x00000000	0.0
77	0x00000000	0.0
78	0x39a3e009	0.00031256702
79	0x39b6b44f	0.00034848085
80	0x00000000	0.0
81	0x00000000	0.0
82	0x00000000	0.0
83	0x00000000	0.0
84	0x39ff2195	0.0004866241
85	0x39e158bd	0.0004298146
86	0x39b02797	0.00033598833
87	0x39b053d4	0.00033631793
88	0x00000000	0.0
89	0x00000000	0.0
90	0x39d2c693	0.0004020227
91	0x39b36e73	0.00034223832
92	0x398aaa71	0.000264484
93	0x397043f5	0.000229135
94	0x3a0d0884	0.0005379992
95	0x3a236cfc	0.00062341965
96	0x00000000	0.0
97	0x00000000	0.0
98	0x39f3a34e	0.00046470243
99	0x399f3282	0.00030364475
100	0x39eff26f	0.0004576626
101	0x39d165b7	0.0003993937
102	0x39ae8d51	0.00033293155
103	0x39774ce3	0.00023584398
104	0x00000000	0.0
105	0x00000000	0.0
106	0x00000000	0.0
107	0x00000000	0.0
108	0x3927e4d2	0.00016011603
109	0x397f578d	0.0002435131
110	0x3a0991c1	0.0005247854
111	0x39ab7a0c	0.00032706594
112	0x00000000	0.0
113	0x00000000	0.0
114	0x39c0802e	0.00036716595
115	0x39a6beed	0.00031804238
116	0x00000000	0.0
117	0x00000000	0.0
118	0x00000000	0.0
119	0x00000000	0.0
120	0x00000000	0.0
121	0x00000000	0.0
122	0x3a45af9b	0.0007541121
123	0x39dcf849	0.00042146657
124	0x3a036812	0.0005012761
125	0x3a04bdac	0.00050636637
126	0x39f70a02	0.00047118968
127	0x39bf4619	0.00036482586
128	0x3a06f2a2	0.00051478494
129	0x39b38e4d	0.00034247563
130	0x00000000	0.0
131	0x00000000	0.0
132	0x3a3a9920	0.00071181543
133	0x3a009b3a	0.0004905943
134	0x39b18a9e	0.0003386335
135	0x39cb6bf6	0.00038799614
136	0x00000000	0.0
137	0x00000000	0.0
138	0x00000000	0.0
139	0x00000000	0.0
140	0x396c8d5a	0.00022559371
141	0x39614a1c	0.0002148528
142	0x00000000	0.0
143	0x00000000	0.0
144	0x39c6f519	0.00037948115
145	0x39bc0580	0.00035862252
146	0x392b1de0	0.0001631896
147	0x3966f441	0.00022025501
148	0x00000000	0.0
149	0x00000000	0.0
150	0x394961e0	0.00019205315
151	0x394e4ae8	0.00019673596
152	0x39a72ff9	0.00031888465
153	0x397e3d3d	0.0002424614
154	0x3a081a99	0.00051919516
155	0x39a1a76b	0.0003083305
156	0x39ff9d9c	0.00048754818
157	0x39c759ad	0.00038023051
158	0x3990f9ce	0.0002765194
159	0x3998c7d8	0.00029140594
160	0x399a1448	0.0002938828
161	0x3984ce2a	0.00025330606
162	0x00000000	0.0
163	0x00000000	0.0
164	0x3a258f4b	0.0006315603
165	0x39f0b964	0.00045914494
166	0x39843e3c	0.0002522337
167	0x399b9821	0.0002967725
168	0x3a04aef8	0.0005061473
169	0x39f1b193	0.00046099405
170	0x00000000	0.0
171	0x00000000	0.0
172	0x00000000	0.0
173	0x00000000	0.0
174	0x00000000	0.0
175	0x00000000	0.0
176	0x39c51605	0.00037591174
177	0x39a673d2	0.0003174828
178	0x00000000	0.0
179	0x00000000	0.0
180	0x00000000	0.0
181	0x00000000	0.0
182	0x3992c422	0.0002799342
183	0x39821f97	0.00024819068
184	0x3a0bbe19	0.0005330756
185	0x39d449a9	0.00040490672
186	0x39a017fa	0.00030535442
187	0x39cd63ab	0.00039174905
188	0x3a11c7f2	0.0005561105
189	0x39ef7102	0.0004566983
190	0x00000000	0.0
191	0x00000000	0.0
192	0x39e16ace	0.0004299492
193	0x395dc8b9	0.00021150977
194	0x39c154d9	0.00036875045
195	0x398031f4	0.0002445128
196	0x39b826ad	0.0003512403
197	0x39a10cd4	0.0003071787
198	0x39bd2c21	0.00036081768
199	0x39c63924	0.00037808076
200	0x00000000	0.0
201	0x00000000	0.0
202	0x39f9c385	0.00047638654
203	0x39c4f767	0.00037568362
204	0x3a1d3fdc	0.00059985905
205	0x39b373dd	0.00034227865
206	0x39abb372	0.0003274936
207	0x398915b1	0.00026146838
208	0x00000000	0.0
209	0x00000000	0.0
210	0x3998b9ff	0.00029130277
211	0x397f967e	0.00024374758
212	0x397fb0d1	0.00024384564
213	0x3967c668	0.00022103789
214	0x398fbf94	0.00027417822
215	0x396485fa	0.00021793685
216	0x39b8283b	0.0003512519
217	0x39b65b88	0.0003478194
218	0x00000000	0.0
219	0x00000000	0.0
220	0x396318df	0.00021657672
221	0x392ff38b	0.00016780027
222	0x39a7623f	0.0003192592
223	0x39ca1a5a	0.00038548076
224	0x00000000	0.0
225	0x00000000	0.0
226	0x3a019556	0.0004943212
227	0x39d33cb4	0.00040290284
228	0x39e3677c	0.00043373916
229	0x39867e5a	0.0002565261
230	0x398800b1	0.00025940457
231	0x395f5165	0.00021297259
232	0x3a17af86	0.0005786348
233	0x39fe0ab1	0.0004845462
234	0x00000000	0.0
235	0x00000000	0.0
236	0x39aef580	0.00033370778
237	0x3996ce92	0.00028764136
238	0x00000000	0.0
239	0x00000000	0.0
240	0x00000000	0.0
241	0x00000000	0.0
242	0x39f0aa59	0.00045903286
243	0x39d7561b	0.0004107215
244	0x3a13e798	0.0005642115
245	0x3994b3e6	0.00028362795
246	0x3a065794	0.00051247445
247	0x39ad9096	0.00033104856
248	0x39956b06	0.00028499233
249	0x398ec33c	0.00027229812
250	0x00000000	0.0
251	0x00000000	0.0
252	0x391b79c2	0.0001482731
253	0x392bb621	0.00016375679
254	0x00000000	0.0
255	0x00000000	0.0

exp_avg f4 [128]
0	0x00000000	0.0
1	0xbd9d3670	-0.07676399
2	0xbca3947d	-0.019968266
3	0x3d8331da	0.06405993
4	0xbdd14abe	-0.10219334
5	0x3da6a7fb	0.081375085
6	0x3ba0997c	0.0049011093
7	0xbdcb3a5c	-0.099232405
8	0xbc3d42f5	-0.011551608
9	0xbd22a248	-0.039705545
10	0xbd8e9d69	-0.06963617
11	0xbdd0e236	-0.10199396
12	0xbdcf7631	-0.10129965
13	0xbdacf63a	-0.084454015
14	0x3cabf64c	0.020991467
15	0xbd910ed9	-0.0708291
16	0x3e168184	0.14697844
17	0x3ae27ae0	0.0017279051
18	0x00000000	0.0
19	0x3d220dec	0.03956406
20	0x00000000	0.0
21	0xbd825d90	-0.06365502
22	0x3cb60968	0.022221282
23	0x00000000	0.0
24	0x3d251e25	0.04031195
25	0x00000000	0.0
26	0x3d8d5a76	0.0690202
27	0x00000000	0.0
28	0xbdb04dbc	-0.08608577
29	0x3d9e8028	0.077392876
30	0x00000000	0.0
31	0x00000000	0.0
32	0x3d6255ad	0.055257488
33	0xbd0018e1	-0.031273726
34	0xbdca5c5e	-0.09880899
35	0x3d9476cc	0.07249221
36	0x00000000	0.0
37	0x00000000	0.0
38	0x00000000	0.0
39	0xbdd7966b	-0.10526737
40	0x00000000	0.0
41	0x00000000	0.0
42	0x3c8ab04c	0.016929768
43	0xbdc25863	-0.09489515
44	0x00000000	0.0
45	0xbbe59306	-0.007006052
46	0xbd853266	-0.06503753
47	0x3d938eac	0.07204947
48	0x00000000	0.0
49	0xbd47ece5	-0.048809905
50	0x3bcf0768	0.0063180216
51	0xbd33bafc	-0.043879494
52	0x00000000	0.0
53	0x00000000	0.0
54	0x3de60940	0.11232233
55	0xbd0acd77	-0.033887353
56	0x00000000	0.0
57	0xbc83e6de	-0.016101297
58	0x00000000	0.0
59	0x00000000	0.0
60	0x00000000	0.0
61	0xb94bb700	-0.00019427761
62	0x3ce356a6	0.027751278
63	0xbd94cdd2	-0.072658196
64	0xbd652886	-0.05594685
65	0x00000000	0.0
66	0x3d19b10a	0.037522353
67	0xbdcaab0a	-0.09895904
68	0x00000000	0.0
69	0x00000000	0.0
70	0xbd719f77	-0.05898997
71	0x00000000	0.0
72	0x3c41df04	0.011832956
73	0xbdba9e34	-0.09112206
74	0x00000000	0.0
75	0x3da5648e	0.0807582
76	0xbd590ce5	-0.052990813
77	0xbd37b64f	-0.044851597
78	0xbc617510	-0.01376082
79	0xbd8afeae	-0.067868575
80	0xbd761616	-0.060079657
81	0x00000000	0.0
82	0x3d4341d4	0.0476702
83	0xbdb17925	-0.086656846
84	0x3ba2f294	0.004972765
85	0x00000000	0.0
86	0x00000000	0.0
87	0x00000000	0.0
88	0xbdb2b553	-0.08725991
89	0x00000000	0.0
90	0x00000000	0.0
91	0xbc1caec9	-0.009563156
92	0x3d3428fb	0.043984395
93	0xbddd2c63	-0.10799482
94	0x3d84a874	0.064774424
95	0x00000000	0.0
96	0xbcd6c9e0	-0.026219308
97	0xbd2fa0c6	-0.042877935
98	0xbdb7c923	-0.08973911
99	0x3cb88387	0.022523655
100	0x00000000	0.0
101	0xbdd3746e	-0.103249416
102	0x3c46f1d1	0.012142614
103	0x3df96aaa	0.12178548
104	0x00000000	0.0
105	0xbd6c071f	-0.05762398
106	0xbd743e22	-0.059629567
107	0xbdaaf67a	-0.08347793
108	0xbdadc426	-0.08484678
109	0x00000000	0.0
110	0x3dc4255c	0.09577438
111	0xbdd5dba5	-0.104422845
112	0x00000000	0.0
113	0xbbc8a2ac	-0.0061229076
114	0xbc97347a	-0.01845764
115	0x3de5f272	0.112278834
116	0x3d78df3f	0.06075978
117	0x00000000	0.0
118	0xbd9de458	-0.07709569
119	0x00000000	0.0
120	0x00000000	0.0
121	0xbdb47578	-0.08811468
122	0xbca40c98	-0.020025536
123	0xbd56f9aa	-0.052484192
124	0x3ce82486	0.028337728
125	0x00000000	0.0
126	0x3d9137df	0.07090735
127	0x00000000	0.0

exp_avg_sq f4 [128]
0	0x00000000	0.0
1	0x3c77e6cc	0.01513071
2	0x3c2a95fb	0.010411735
3	0x3dab8ae1	0.083760984
4	0x3cf7aabc	0.03023278
5	0x3cc38889	0.023868816
6	0x3ccf608c	0.025314592
7	0x3ccd5d3c	0.025068872
8	0x3bce5497	0.006296705
9	0x3d124ca6	0.03571763
10	0x3d2dc6e2	0.042425998
11	0x3defdc35	0.11711923
12	0x3d8a8f26	0.06765585
13	0x3d916fbe	0.07101391
14	0x3c85ce24	0.016333647
15	0x3ca6d802	0.020366672
16	0x3e0d3ea0	0.13793421
17	0x3c7bda7b	0.015371914
18	0x00000000	0.0
19	0x3d7a6cc0	0.06113887
20	0x00000000	0.0
21	0x3ccea388	0.025224462
22	0x3ca8b850	0.0205957
23	0x00000000	0.0
24	0x3cf4744d	0.029840613
25	0x00000000	0.0
26	0x3d9809d0	0.074237466
27	0x00000000	0.0
28	0x3c8e48b1	0.017368646
29	0x3ddf6cc7	0.109094195
30	0x00000000	0.0
31	0x00000000	0.0
32	0x3d8442db	0.06458064
33	0x3ca887d4	0.02057258
34	0x3cbf1f51	0.023330363
35	0x3db122e7	0.08649235
36	0x00000000	0.0
37	0x00000000	0.0
38	0x00000000	0.0
39	0x3d42ff39	0.04760668
40	0x00000000	0.0
41	0x00000000	0.0
42	0x3ce9a84b	0.028522631
43	0x3d1ccc29	0.03828064
44	0x00000000	0.0
45	0x3c8817ff	0.016613005
46	0x3ca0c33a	0.019624341
47	0x3d87d114	0.06631675
48	0x00000000	0.0
49	0x3ca43f3b	0.020049682
50	0x3c9e3adc	0.019315176
51	0x3c6a6b97	0.014307878
52	0x00000000	0.0
53	0x00000000	0.0
54	0x3d21cad0	0.039500058
55	0x3d1b6137	0.03793451
56	0x00000000	0.0
57	0x3c5ecd24	0.013598714
58	0x00000000	0.0
59	0x00000000	0.0
60	0x00000000	0.0
61	0x3d857401	0.065162666
62	0x3cd860dd	0.026413376
63	0x3cae7a66	0.021298598
64	0x3cce26d3	0.025164997
65	0x00000000	0.0
66	0x3db55c56	0.08855502
67	0x3ce47a34	0.027890302
68	0x00000000	0.0
69	0x00000000	0.0
70	0x3c28fe1c	0.010314491
71	0x00000000	0.0
72	0x3c8a299e	0.016865548
73	0x3d37ca0c	0.04487042
74	0x00000000	0.0
75	0x3cc8b285	0.024499187
76	0x3cb3eadd	0.021962577
77	0x3e1693b5	0.14704783
78	0x3cbfd4b9	0.023416864
79	0x3d28577a	0.04109905
80	0x3c20a29c	0.009804394
81	0x00000000	0.0
82	0x3da7c031	0.081909545
83	0x3ca5d5c6	0.020243537
84	0x3ce0a1a7	0.027420832
85	0x00000000	0.0
86	0x00000000	0.0
87	0x00000000	0.0
88	0x3d4010ce	0.046891026
89	0x00000000	0.0
90	0x00000000	0.0
91	0x3c2822e6	0.010262227
92	0x3d77dca8	0.06051317
93	0x3d20d4c7	0.03926542
94	0x3dc9fa81	0.09862233
95	0x00000000	0.0
96	0x3d096921	0.033547524
97	0x3c7fe916	0.015619537
98	0x3d4d3d08	0.050107032
99	0x3c9229d8	0.017842218
100	0x00000000	0.0
101	0x3d8b2376	0.06793873
102	0x3d4f3f46	0.05059745
103	0x3e1b5a8e	0.15171263
104	0x00000000	0.0
105	0x3cca3867	0.024685098
106	0x3c0f1c2f	0.008734747
107	0x3d95dcbf	0.073174946
108	0x3c9b69e4	0.018971391
109	0x00000000	0.0
110	0x3ca9093b	0.020634284
111	0x3d0013b7	0.0312688
112	0x00000000	0.0
113	0x3ce792c3	0.028268224
114	0x3cd661b3	0.026169633
115	0x3dfc02fe	0.12305258
116	0x3dbc67b8	0.0919947
117	0x00000000	0.0
118	0x3d04e79d	0.032447446
119	0x00000000	0.0
120	0x00000000	0.0
121	0x3cb874de	0.022516664
122	0x3d2fecc9	0.042950425
123	0x3cc0db8f	0.023542194
124	0x3e26ffc4	0.16308504
125	0x00000000	0.0
126	0x3c9df341	0.019281032
127	0x00000000	0.0
